Parameter/hopePG/1.pth (torch, 11415 bytes, 6 tensors)

linear_relu_stack.0.weight f4 [32, 11]
0	0xbe38a6e0	-0.18032408
1	0xbd946fce	-0.072478876
2	0xbe86a5e8	-0.2629845
3	0x3ccb4ed9	0.02481787
4	0x3e25f2a5	0.16205843
5	0xbe490f00	-0.19634628
6	0xbe5cfc81	-0.21580698
7	0x3dc5d3ae	0.09659515
8	0xbdc89e9d	-0.09795878
9	0x3e2f01ee	0.1709058
10	0xbc9f70d8	-0.019462988
11	0xbe946272	-0.28981358
12	0x3d0724ea	0.03299419
13	0xbe725023	-0.23663382
14	0xbcb62932	-0.02223644
15	0x39d7bddf	0.0004114946
16	0xbcd423d8	-0.025895998
17	0xbe824d47	-0.25449583
18	0x3e3255b6	0.17415509
19	0xbb16d3cb	-0.0023014422
20	0xbe6554b8	-0.22395599
21	0x3e2b6519	0.16737784
22	0x3e79a8d6	0.24380812
23	0xbe87e76b	-0.26543745
24	0xbe42aeab	-0.19011943
25	0x3e5a3344	0.21308619
26	0x3e66eb3a	0.2255067
27	0xbe2851bc	-0.16437429
28	0x3e73333d	0.23750015
29	0xbd3cc20b	-0.04608349
30	0xbeb51de3	-0.35374364
31	0x3e83fb54	0.25777686
32	0x3ea101a0	0.31446552
33	0x3e85968c	0.2609142
34	0x3e99c427	0.30032465
35	0x3e89914f	0.26868674
36	0xbe60c6bc	-0.21950811
37	0x3de0a0f5	0.109682
38	0xbe224e9e	-0.15850303
39	0xbe1092e3	-0.14118533
40	0x3ccc693d	0.024952525
41	0x3e22d99b	0.15903322
42	0x3e4c910c	0.19977206
43	0xbdf1682a	-0.11787446
44	0x3e90beed	0.28270665
45	0x3df64b0b	0.12026032
46	0xbe8ae57a	-0.27128202
47	0x3e490ef8	0.19634616
48	0x3e949ba5	0.29024997
49	0x3cdbc8a0	0.026829064
50	0x3d8e3dc3	0.06945374
51	0xbd8dcdb9	-0.06924004
52	0x3e374401	0.17897035
53	0x3e3ade5c	0.18248886
54	0x3e65f50d	0.2245676
55	0x3eab69ce	0.3347916
56	0xbe4c44b2	-0.1994808
57	0x3e118a08	0.14212811
58	0x3e7dff84	0.24804503
59	0xbcff99dc	-0.031201296
60	0xbcb7e72d	-0.0224491
61	0xbe38de44	-0.18053538
62	0xbd288010	-0.041137755
63	0x3ddc0f5b	0.10745116
64	0xbe4c93ea	-0.199783
65	0x3e8b5ec5	0.2722074
66	0x3e3ac231	0.1823814
67	0xbdf519cb	-0.1196781
68	0x3e616bf9	0.22013845
69	0x3e6b775e	0.22994754
70	0x3dde1000	0.108428955
71	0x3e315c8b	0.17320459
72	0x3e5a22aa	0.21302286
73	0x3e5b81fb	0.21436302
74	0x3cbeb546	0.023279797
75	0x3eaa7066	0.33288878
76	0xbd2a1553	-0.041524243
77	0x3d9157c7	0.0709682
78	0xbdf5faec	-0.1201075
79	0xbdf7aeda	-0.12093897
80	0xbe79e666	-0.24404296
81	0x3e52473f	0.2053499
82	0xbe6dd7d3	-0.23226862
83	0x3e136607	0.14394389
84	0xbde16011	-0.11004651
85	0x3e3f959b	0.18709414
86	0x3e0ad56b	0.13557975
87	0x3e869eb4	0.26292956
88	0x3e21675d	0.15762086
89	0x3e4a3cb5	0.1974972
90	0x3e774a7f	0.24149512
91	0xbdb93457	-0.09043186
92	0x3e782edd	0.24236627
93	0xbe996b34	-0.29964602
94	0xbe16bf39	-0.14721383
95	0xbec23f7d	-0.37939063
96	0xbe1e9ddc	-0.15489906
97	0xbe9d40ba	-0.30713445
98	0xbe02aabf	-0.12760447
99	0xbe60983b	-0.21933071
100	0xbd94533c	-0.07242438
101	0x3e1554e5	0.14583166
102	0xbcc709f9	-0.024296748
103	0xbb4b9175	-0.003106204
104	0x3e6240e0	0.2209506
105	0xbd4a0164	-0.049317732
106	0xbe1fb137	-0.15594946
107	0xbe962eec	-0.29332674
108	0xbe3e8163	-0.18604045
109	0x3daa8e28	0.083278954
110	0xbd7a7b48	-0.061152726
111	0x3b078a69	0.0020681864
112	0xbcf4ab09	-0.029866712
113	0xbe286c8e	-0.1644766
114	0x3e7996f6	0.24373993
115	0x3e818b11	0.25301412
116	0x3daa1dfe	0.08306502
117	0x3ea5f5e8	0.32414174
118	0x3e7d3cb5	0.24730189
119	0x3e5e6d6b	0.21721427
120	0xbe36206c	-0.17785805
121	0xbe3fb45e	-0.18721148
122	0xbe161d16	-0.14659533
123	0xbe98fe85	-0.29881683
124	0x3d62f36f	0.055407938
125	0x3e5c23c8	0.21498024
126	0xbe6a9372	-0.22907808
127	0x3d81c115	0.063356556
128	0xbe8a1c62	-0.2697478
129	0xbe455337	-0.19270025
130	0x3d0a7938	0.03380701
131	0xbe1216b6	-0.14266476
132	0x3d5f8e3a	0.054578997
133	0xbdc059c4	-0.093921214
134	0xbe673d75	-0.22582038
135	0x3e36d19c	0.17853397
136	0x3ca47f58	0.020080253
137	0xbe3ec376	-0.1862925
138	0x3cfd5b48	0.030927315
139	0x3da19f89	0.07891757
140	0x3e8416fc	0.25798786
141	0xbe522e0f	-0.20525382
142	0xbda02ecd	-0.078214265
143	0x3d9d849d	0.076913096
144	0xbe8ab146	-0.27088374
145	0xbe45117f	-0.19244955
146	0x3d971efc	0.07378957
147	0x3e651bb4	0.22373849
148	0x3df1d725	0.11808614
149	0xbe28ee39	-0.16497125
150	0x3df3fa6b	0.11912998
151	0x3e8a77b3	0.27044448
152	0x3ea2be6c	0.31785905
153	0xbe2c7fc6	-0.16845617
154	0x3d49c10d	0.049256373
155	0xbb4462f9	-0.002996622
156	0xbe9e5771	-0.30926087
157	0xbdb05c24	-0.086113244
158	0x3dc5a2be	0.09650181
159	0x3ea46646	0.32109278
160	0xbe99e0c5	-0.30054298
161	0xbe9badeb	-0.30406126
162	0xbe7b9e55	-0.24572118
163	0x3e9bee05	0.30455032
164	0xbe07b218	-0.13251531
165	0x3df103d3	0.117683075
166	0x3da276ce	0.079328164
167	0xbdbf5183	-0.09341719
168	0x3e8708ec	0.26373994
169	0x3dc488d6	0.09596412
170	0x3def95f2	0.11698522
171	0xbe6bb939	-0.23019876
172	0xbd317afd	-0.04333018
173	0xbd6dffd9	-0.058105323
174	0x3e9dc3c0	0.30813408
175	0xbe580e12	-0.21099117
176	0xbe921010	-0.2852788
177	0x3dd5b1ea	0.10434325
178	0x3dc5ec28	0.09664184
179	0xbd2819a9	-0.041040096
180	0xbe009d86	-0.1256009
181	0xbe57205a	-0.21008435
182	0x3d84d878	0.06486601
183	0x3d2c0c83	0.04200412
184	0x3e457f84	0.19286925
185	0xbe637697	-0.22213207
186	0x3d9c4853	0.07630982
187	0x3e4aae01	0.1979294
188	0xbe733549	-0.23750795
189	0xbd37daee	-0.044886522
190	0xbe88e269	-0.26735237
191	0xbd0a46c6	-0.0337589
192	0x3e81f1ab	0.2537969
193	0x3e39d1fd	0.1814651
194	0x3d9d7bdd	0.07689641
195	0xbd650359	-0.055911396
196	0xbea398fe	-0.3195266
197	0xbe8158cc	-0.2526306
198	0xbe0c5341	-0.13703634
199	0xbe208f0e	-0.15679571
200	0x3ddc0eec	0.107450336
201	0xbe939e41	-0.28831676
202	0x3dc143e8	0.0943678
203	0x3d20b843	0.039238226
204	0xbda1cac3	-0.07900002
205	0x3d660001	0.056152347
206	0x3d47929c	0.048723802
207	0x3e96eaa4	0.29475892
208	0xbe03217f	-0.12805746
209	0x3c858826	0.016300272
210	0xba385cd8	-0.0007032878
211	0xbdc8d846	-0.09806876
212	0x3e86edc6	0.26353282
213	0x3e7dc07f	0.24780463
214	0xbe229bc7	-0.15879737
215	0x3b2149a0	0.0024610534
216	0x3dbb1aa4	0.09135941
217	0xbeb470c8	-0.35242295
218	0xbe7e74f4	-0.24849302
219	0x3e0f1700	0.13973618
220	0x3e922b3c	0.2854861
221	0x3e73269a	0.23745194
222	0x3be5306d	0.006994298
223	0x3dd0f57a	0.10203071
224	0x3e7e9300	0.24860764
225	0x3d886e8d	0.06661711
226	0xbe6edd04	-0.23326498
227	0x3e29c151	0.1657765
228	0x3e21cd77	0.15801035
229	0x3e978119	0.2959068
230	0xbe277c55	-0.16356023
231	0x3ea4ca09	0.3218539
232	0xbe85b5df	-0.2611532
233	0xbd23baa6	-0.039972924
234	0x3c69646f	0.014245137
235	0xbd92931a	-0.07156964
236	0x3ea20711	0.31646016
237	0xbe987f5d	-0.2978467
238	0xbda93617	-0.0826227
239	0xbd31204d	-0.043243695
240	0x3d716ad6	0.058939777
241	0xbe529553	-0.20564775
242	0x3cb444fe	0.022005554
243	0xbda6dd6d	-0.08147702
244	0x3e8fcf94	0.28088057
245	0xbe617f97	-0.22021328
246	0x3d0b14f7	0.03395554
247	0x3da75c63	0.08171918
248	0xbdb91d64	-0.09038809
249	0xbe6f20de	-0.23352382
250	0x3db6dae8	0.08928472
251	0xbdb2ac86	-0.087243125
252	0xbe955883	-0.29169092
253	0x3e1fd8a6	0.15609989
254	0xbd4f2fcd	-0.050582696
255	0xbe95c628	-0.29252744

linear_relu_stack.0.bias f4 [32]
0	0xbe37b4d1	-0.1794007
1	0xbe126f6e	-0.1430032
2	0x3e85a0dc	0.26099288
3	0x3e5a7de0	0.2133708
4	0x3e63fc18	0.22264135
5	0x3e09d55b	0.13460295
6	0x3e8aa0f7	0.2707593
7	0xbdc5bb15	-0.09654824
8	0x3def1754	0.11674371
9	0xbe4710d7	-0.19440018
10	0xbcf7a761	-0.03023118
11	0x3e6a6a37	0.2289208
12	0xbdfde4ae	-0.12397133
13	0x3dd112e5	0.10208682
14	0x3e5c7e66	0.21532592
15	0x3d3c5eee	0.04598897
16	0xbe871edb	-0.26390728
17	0x3e86fb8a	0.26363784
18	0x3d9db9ee	0.07701479
19	0x3ec8024a	0.39064246
20	0x3ca250fa	0.019814003
21	0x3e0db0fd	0.13837047
22	0xbe3773dd	-0.17915292
23	0x3dfc720d	0.12326441
24	0x3ebdbf6d	0.3706011
25	0xbe125ecf	-0.14293979
26	0x3d8ba949	0.06819398
27	0x3e0817ab	0.13290279
28	0x3c15fd49	0.009154626
29	0x3eb29ba3	0.34884366
30	0xbe264f52	-0.16241196
31	0xbbfbbd68	-0.007682491

linear_relu_stack.2.weight f4 [32, 32]
0	0xbd43c8e0	-0.04779899
1	0xbdcebfa6	-0.10095148
2	0x3dd414f1	0.10355557
3	0x3d39823a	0.04529021
4	0x3d6582b8	0.056032866
5	0xbe381a52	-0.1797879
6	0xbc03f7fb	-0.008054729
7	0xbe1ecbbd	-0.15507407
8	0x3d07c5cf	0.03314763
9	0xbdbb40c1	-0.0914321
10	0x3da98fa3	0.0827935
11	0xbd8d9d28	-0.06914741
12	0x3e188e3b	0.14898007
13	0x3cf9d671	0.030497761
14	0x3de71c3f	0.112846844
15	0xbd691f77	-0.056914773
16	0xbdfca19e	-0.123355135
17	0x3cdedf71	0.027206155
18	0x3e33f5de	0.1757426
19	0xbdaacac5	-0.083394565
20	0x3d555f38	0.05209276
21	0xbda65622	-0.08121897
22	0xbccc1b01	-0.02491522
23	0xbc91e7e2	-0.017810766
24	0xbd72e832	-0.05930347
25	0x3e2083b0	0.15675235
26	0xbc849051	-0.016182097
27	0x3d562949	0.052285466
28	0xbdf76f84	-0.12081817
29	0x3c8e0f13	0.017341172
30	0xbd88ffcf	-0.066894166
31	0x3e4060dc	0.18786949
32	0x3d1a2a0c	0.037637755
33	0xbe1e4c76	-0.15458855
34	0xbc94a3a7	-0.018144442
35	0xbcb8eea5	-0.022574732
36	0xbe282db3	-0.16423683
37	0xbd7290c7	-0.0592201
38	0xbd8ea567	-0.06965142
39	0xbc4c8659	-0.012483203
40	0xbdd33664	-0.103131086
41	0x3db7b74f	0.0897051
42	0xbcd185a5	-0.025576422
43	0x3dc2e3d5	0.09516112
44	0x3e1e9dfa	0.15489951
45	0xbe2d1ba9	-0.16905083
46	0xbdf9f829	-0.12205536
47	0xbd16cd94	-0.03681715
48	0x3e2abcaa	0.16673532
49	0x3d4811a6	0.048844956
50	0x3e2e5707	0.17025386
51	0x3dc74750	0.09730399
52	0xb9887d41	-0.00026033263
53	0xbdab6e7b	-0.08370682
54	0x3df16169	0.11786158
55	0xbdf476f2	-0.119367495
56	0xbd151969	-0.036401186
57	0x3e0af5a0	0.13570261
58	0xbd357c28	-0.044307858
59	0x3d528ac2	0.05140186
60	0x3d447f8e	0.047973208
61	0x3d71f507	0.059071567
62	0xbde37069	-0.11105425
63	0xbe13d5de	-0.14437053
64	0xbe163217	-0.14667545
65	0xbd5bdf49	-0.05367974
66	0x3e467086	0.19378862
67	0x3d042dae	0.032270126
68	0x3dde5008	0.108551085
69	0xbd311d8f	-0.04324108
70	0x3d1ac736	0.03778764
71	0xbdff92c0	-0.12479162
72	0x3e676c65	0.22599943
73	0x3cc8c129	0.024506168
74	0xbe3080f4	-0.17236692
75	0x3d6a7d4e	0.057248406
76	0x3ce1b679	0.02755283
77	0xbd7cf584	-0.06175758
78	0xbd87b9d7	-0.06627243
79	0xbe10b0ec	-0.1412999
80	0x3d105c45	0.035244245
81	0x3cce1cdc	0.025160246
82	0x3de50688	0.11182886
83	0x3e5cfc74	0.21580678
84	0x3dcc9f2d	0.09991298
85	0x3c8ec2c1	0.01742685
86	0xbd2d21f2	-0.0422687
87	0x3df1cfa6	0.11807184
88	0x3dcde920	0.10054231
89	0x3e4a91b9	0.19782151
90	0x3e12caba	0.14335147
91	0x3cefc82a	0.02927025
92	0xbdcd072b	-0.10011133
93	0xbe08ab95	-0.13346703
94	0x3d1f0306	0.038821243
95	0x3ccb9752	0.024852429
96	0x3da21790	0.079146504
97	0xbd226158	-0.039643615
98	0x3dbeaa6a	0.09309848
99	0xbdc84900	-0.09779549
100	0xbe15c819	-0.14627112
101	0xbda81aac	-0.08208212
102	0xbd5f7ba6	-0.05456128
103	0x3db92d68	0.09041864
104	0xbdcfb015	-0.10141007
105	0x3d9338cd	0.07188568
106	0x3d605b44	0.054774538
107	0xbde002c1	-0.10938025
108	0x3e2a53d7	0.16633545
109	0x3d005ed8	0.03134045
110	0x3d444acb	0.04792289
111	0xbc378225	-0.0112004625
112	0x3d92f4ce	0.07175599
113	0xbe060d87	-0.13091098
114	0x3d3e5ac5	0.046473283
115	0xbe03312a	-0.12811723
116	0x3d765bd4	0.060146168
117	0xbe2164a2	-0.15761045
118	0x3dee8b53	0.11647668
119	0xbe0fcae7	-0.14042245
120	0x3c9e9618	0.01935868
121	0x3c6ff1f3	0.0146450875
122	0xbe1e1f1c	-0.15441555
123	0x3d78988f	0.060692366
124	0xbdc36c45	-0.09542135
125	0x3e3a3b2a	0.18186632
126	0xbe12d086	-0.14337358
127	0xbc584c3c	-0.013201769
128	0xbc760949	-0.015016862
129	0xbe350181	-0.17676355
130	0x3d6d588f	0.057945784
131	0xbd8ec5c0	-0.069713116
132	0x3e24213e	0.16028306
133	0xbe23aa53	-0.15982942
134	0x3ce1156c	0.027476035
135	0x3bcdcfeb	0.0062808893
136	0xbc3040c1	-0.010757626
137	0x3dc0b310	0.094091535
138	0xbd745fe6	-0.05966177
139	0xbe0ac1ad	-0.13550444
140	0x3e1be02b	0.15222232
141	0xbdb2f6c8	-0.08738476
142	0xbe06f1ec	-0.13178223
143	0x3da5457c	0.08069894
144	0xbe0a00e5	-0.13476904
145	0xbe208c99	-0.15678634
146	0x3d8832fa	0.06650348
147	0x3d2079b6	0.039178573
148	0xbd042a72	-0.03226704
149	0x3c7db26e	0.0154844355
150	0x3d37f34d	0.044909764
151	0xbd8a7980	-0.067614555
152	0x3d9f2ba3	0.07771995
153	0xbe2af603	-0.16695409
154	0x3c286e5f	0.010280221
155	0xbe00abfa	-0.12565604
156	0xbe19cf04	-0.15020376
157	0x3d03da45	0.03219058
158	0x3df2491b	0.1183035
159	0xbe022cb4	-0.12712365
160	0xbe344257	-0.17603432
161	0xbd2d07b2	-0.042243667
162	0x3e408f48	0.18804657
163	0xbd133605	-0.03594019
164	0x3d577fc7	0.052612092
165	0x3da975ae	0.08274399
166	0xbcb1c4bf	-0.021700261
167	0x3b95e44b	0.004574334
168	0x3d7cb1a9	0.061692867
169	0x3ceabcfd	0.02865457
170	0xbda297b4	-0.07939091
171	0x3e3a2430	0.18177867
172	0x3d9fd68e	0.07804595
173	0xbdcb48f8	-0.09926027
174	0xbdc3005a	-0.095215514
175	0xbdee7492	-0.11643328
176	0xbd8eb9e4	-0.069690496
177	0xbd9e985b	-0.07743903
178	0xbdb5d198	-0.088778675
179	0x3cd994f3	0.026560282
180	0xbbc9db45	-0.006160172
181	0x3dcb4436	0.099251196
182	0x3ce0d35e	0.027444538
183	0xbda46d5a	-0.0802867
184	0x3e6950bc	0.22784704
185	0x3e1a1057	0.15045296
186	0xbcd5a786	-0.026080858
187	0x3d761678	0.06008002
188	0x3df4f903	0.11961558
189	0x3d4d57be	0.050132506
190	0x3d6f895c	0.058480605
191	0x3d378f2c	0.044814274
192	0x3d9e04b2	0.07715739
193	0x3e58230d	0.21107121
194	0xbd309a24	-0.04311575
195	0xbded8e03	-0.11599352
196	0x3e224d64	0.15849835
197	0x3e3fb758	0.18722284
198	0xbdab4312	-0.08362402
199	0x3a44912d	0.00074984395
200	0x3e6cac35	0.23112567
201	0x3d7be56b	0.061498087
202	0xbd726dd3	-0.059186768
203	0x3e4c7faa	0.19970575
204	0x3d91e124	0.0712302
205	0x3d6b79e8	0.057489306
206	0xbc267561	-0.010159821
207	0x3c9d8a42	0.019230966
208	0x3e157bfc	0.14598078
209	0x3dd4cfd9	0.10391206
210	0xbd8b80c0	-0.068116665
211	0x3c49f62d	0.012326759
212	0xbda3a44e	-0.07990323
213	0x3e0767f0	0.13223243
214	0xbddfa2c0	-0.10919714
215	0x3e050ad5	0.12992413
216	0x3d0c1307	0.034197833
217	0x3d1aa926	0.03775897
218	0xbe4dfa75	-0.20115073
219	0x3d0b19c6	0.033960126
220	0xbdcc093d	-0.099626996
221	0xbd7db1e5	-0.06193723
222	0x3b0a5cec	0.0021112515
223	0x3e01f5c9	0.12691416
224	0x3e29f9da	0.16599217
225	0xbd5a8b40	-0.053355455
226	0x3daafec9	0.08349378
227	0x3e340a9c	0.17582172
228	0xbd063c95	-0.03277262
229	0x3db95c50	0.0905081
230	0xbd94eea5	-0.0727208
231	0xbd4667d2	-0.048438855
232	0x3e3ff41d	0.18745466
233	0x3e43af08	0.19109738
234	0x3c828547	0.015932692
235	0xbcfd56a3	-0.0309251
236	0xbc59070a	-0.013246307
237	0xbb90d054	-0.004419366
238	0x3d5ed3bf	0.054401156
239	0xbcaeae56	-0.021323364
240	0x3c73c1a1	0.014877708
241	0x3d8a6fb5	0.06759588
242	0xbd1eb334	-0.03874512
243	0xbdf4c1de	-0.1195104
244	0x3e562e86	0.20916185
245	0x3e60d394	0.2195571
246	0x3e327e8e	0.1743109
247	0xbd2f8557	-0.042851772
248	0x3e5d1316	0.21589312
249	0xbe2aeceb	-0.1669194
250	0x3c88cd72	0.016699526
251	0x3da536fa	0.080671266
252	0xbcb8886c	-0.022525989
253	0x3bf14a6a	0.007363607
254	0xbc486de8	-0.012233235
255	0x3e1fd588	0.156088

linear_relu_stack.2.bias f4 [32]
0	0xbd79845a	-0.060917236
1	0xbc1a835a	-0.009430731
2	0x3d843f9e	0.064574465
3	0x3d6928db	0.05692373
4	0x3bb46610	0.005505331
5	0x3e7daf7b	0.24773972
6	0x3c9a1bff	0.018812178
7	0xbdcd6a13	-0.10029998
8	0x3c9867d4	0.018604197
9	0xbdefe30a	-0.11713226
10	0xbd82b60a	-0.063823774
11	0x3e02cd38	0.12773597
12	0x3e7cf42f	0.24702524
13	0x3c28ce1b	0.010303046
14	0x3de27797	0.11057966
15	0x3e1bbb4e	0.1520817
16	0x3dfc41b6	0.12317221
17	0x3e70093b	0.23441021
18	0xbd8a9434	-0.06766549
19	0x3de7b3b5	0.11313573
20	0x3c8f44d9	0.017488884
21	0x3daa5b5f	0.08318209
22	0xbe05986c	-0.13046426
23	0x3e37f11a	0.17963067
24	0xbd8dc626	-0.069225594
25	0xbd80bcc0	-0.06286001
26	0x3cea5b0f	0.028607873
27	0xbd3116cc	-0.04323463
28	0xbdd2c7ac	-0.10291991
29	0x3d71fdbe	0.059079878
30	0x3db1ac9b	0.086755
31	0xbdbe678a	-0.09297092

linear_relu_stack.4.weight f4 [27, 32]
0	0x3d1d292f	0.038369354
1	0xbe005cec	-0.12535447
2	0x3cc3ece4	0.02391667
3	0x3d48a0cf	0.048981484
4	0xbe23ef18	-0.16009176
5	0xbe6dedbd	-0.23235221
6	0xbe582053	-0.2110608
7	0x3d2b7210	0.041856825
8	0x3d7be0c6	0.061493658
9	0x3cb31e7a	0.021865118
10	0xbe230da8	-0.15923178
11	0x3dd11678	0.10209364
12	0xbd5159e1	-0.051111106
13	0x3d593c69	0.053036127
14	0xbdacca7e	-0.0843706
15	0xbd86aa17	-0.06575411
16	0x3cea6f33	0.028617477
17	0xbe28411f	-0.16431092
18	0xbd9fc492	-0.07801165
19	0x3d45c61c	0.048284635
20	0xbe64e6de	-0.22353694
21	0x3e0f2072	0.1397722
22	0x3d9b1e09	0.07574088
23	0x3d9c8c82	0.07643987
24	0x3e48a276	0.19593224
25	0xbd87336e	-0.06601606
26	0xbe516562	-0.2044883
27	0x3dd73a6b	0.10509189
28	0x3b599640	0.0033201128
29	0x3d58553e	0.05281567
30	0xbb5fe186	-0.0034161522
31	0x3e5d441e	0.21608016
32	0x3d164dae	0.036695175
33	0x3e0e4169	0.1389214
34	0xbd43094b	-0.047616284
35	0xbe159044	-0.14605814
36	0xbdfeed2b	-0.1244758
37	0x3d2aa0d5	0.041657288
38	0xbe5a17b9	-0.21298112
39	0xbd48461f	-0.048894998
40	0xbd1ec55a	-0.038762428
41	0xbe5a13a2	-0.21296552
42	0xbe23ac06	-0.1598359
43	0xbe2ef9e1	-0.17087509
44	0x3da1fa08	0.07909018
45	0x3880cdc7	6.141845e-05
46	0xbe3e0965	-0.18558271
47	0xbdd46cfb	-0.10372349
48	0xbcc9ed64	-0.02464933
49	0xbe31c71f	-0.17361115
50	0xbe2adba1	-0.16685344
51	0xbe361bb5	-0.17784007
52	0x3db23d28	0.08703071
53	0x3e187aa1	0.14890529
54	0xbe131f9b	-0.14367525
55	0x3dd9568d	0.106122114
56	0x3dc0d5c0	0.094157696
57	0xbddb4bc5	-0.10707811
58	0xbe1e0e9c	-0.1543526
59	0x3bec1236	0.0072043194
60	0xbe08f181	-0.13373376
61	0xbe3222ec	-0.17396134
62	0x3dbed190	0.093173146
63	0x3d740fc3	0.059585344
64	0x3dc35375	0.095374025
65	0x3cc4d120	0.0240255
66	0xbe020613	-0.1269763
67	0x3e2c6e51	0.16838957
68	0xbd037aac	-0.03209941
69	0xbe3769ae	-0.17911407
70	0xbe12bc03	-0.14329533
71	0x3cb565a8	0.0221432
72	0xbe505376	-0.20344338
73	0xbdd55125	-0.10415868
74	0xbd918d7a	-0.07107063
75	0xbd908fa5	-0.07058648
76	0xbcdcd380	-0.02695632
77	0x3c357ead	0.011077565
78	0xbdc1fd61	-0.09472156
79	0xbe4ff561	-0.20308448
80	0xbd0c6874	-0.0342793
81	0x3cc92a64	0.024556346
82	0x3dd82c96	0.10555379
83	0xbe1be3e6	-0.15223655
84	0xbbb21fb7	-0.0054359096
85	0xbd7de3fb	-0.061984997
86	0xbd9a1033	-0.07522621
87	0xbda875cf	-0.08225595
88	0x3ccec2da	0.025239397
89	0x3de424db	0.11139842
90	0x3de3ac9a	0.111169055
91	0x3ded7e3b	0.11596342
92	0xbe15810f	-0.14600013
93	0x3d79c8e8	0.060982615
94	0x3e2b23bd	0.16712852
95	0x3dc48208	0.09595114
96	0x3c7abaa5	0.015303289
97	0xbe29afd3	-0.16570978
98	0xbe150883	-0.14554028
99	0xbc54f589	-0.012997993
100	0xbd69e4e0	-0.057103038
101	0x3aeba336	0.0017977718
102	0xbe38399d	-0.17990728
103	0xbcc0cc3f	-0.023534892
104	0xbccc345e	-0.024927314
105	0x3d4082d1	0.046999756
106	0xbe35d95a	-0.17758694
107	0xbdb6cefb	-0.08926197
108	0xbe546291	-0.20740725
109	0xbd11a078	-0.035553426
110	0xbd61e79d	-0.055152524
111	0x3b0baa4a	0.0021311217
112	0xbe3df9f1	-0.18552376
113	0x3d2d6ba0	0.042338967
114	0x3d56ef0c	0.052474067
115	0xbd2b5180	-0.04182577
116	0xbd5678a5	-0.05236115
117	0xbd958d14	-0.07302299
118	0xbd44583f	-0.04793572
119	0xbe138c2e	-0.14408943
120	0xbdf07ec2	-0.11742927
121	0xbe377311	-0.17914988
122	0x3cba77cd	0.022762204
123	0x3bec95cd	0.007220006
124	0xbbc0be75	-0.0058820792
125	0xbdabb48c	-0.08384046
126	0x3e276446	0.16346845
127	0x3d9eda7d	0.07756517
128	0xbdf0eacc	-0.11763534
129	0x3c80e7bd	0.015735501
130	0xbdd4f9e6	-0.10399227
131	0xbe0e5e4b	-0.13903157
132	0xbd64833d	-0.05578922
133	0x3cdd2027	0.02699287
134	0x3dbb881a	0.09156819
135	0x3beb0460	0.0071721524
136	0x3d9bb960	0.07603717
137	0xbdcb16ab	-0.09916433
138	0x3c6b8c7e	0.014376758
139	0xbd9c5558	-0.076334655
140	0x3d44c5dd	0.04804026
141	0x3d53dc03	0.05172349
142	0x3e1755a2	0.1477876
143	0xbe408d65	-0.18803938
144	0xbde3f628	-0.11130935
145	0xbd345179	-0.04402301
146	0xbd20b296	-0.039232813
147	0xbd886d18	-0.06661433
148	0x3cd03491	0.02541569
149	0xbd57bc15	-0.052669603
150	0xbe0c071c	-0.13674587
151	0x3de60213	0.112308644
152	0xbe0439b3	-0.12912636
153	0x3e128b16	0.1431087
154	0xbe35ef74	-0.17767125
155	0xbd5c132d	-0.053729225
156	0xbdee4e8b	-0.11636075
157	0x3dcb2b06	0.099203154
158	0xbd328015	-0.04357918
159	0xbc596d52	-0.013270693
160	0x3d41fc64	0.04735984
161	0x3e0c3ec7	0.13695823
162	0x3d06f7e8	0.032951266
163	0xbe09146a	-0.13386694
164	0xbe301197	-0.1719421
165	0xbd1b9322	-0.037982114
166	0x3db43c65	0.08800582
167	0xbc936a00	-0.01799488
168	0x3e005092	0.12530735
169	0x3e1c7059	0.15277232
170	0xbdc4fbb2	-0.096183196
171	0x3dfbe715	0.12299935
172	0xbe189bb1	-0.14903142
173	0x3e27826b	0.16358344
174	0x3d899fbf	0.06719922
175	0x3cc8d103	0.024513727
176	0xbe09b8b5	-0.13449366
177	0x3d9b38e3	0.0757921
178	0xbe19cca9	-0.15019478
179	0x3e39e29c	0.18152851
180	0x3dae4f90	0.08511269
181	0x3d0a10b0	0.03370732
182	0xbb8ece4f	-0.00435809
183	0xbe43b842	-0.19113258
184	0xbe1f13c7	-0.15534888
185	0x3dee32bc	0.116307706
186	0x3c1d6c9d	0.009608415
187	0xbdaf1de7	-0.08550625
188	0xbdec040f	-0.115242116
189	0xbe2b9b49	-0.16758455
190	0x3e0b84c8	0.13624871
191	0x3d69441e	0.056949727
192	0xbe4de051	-0.20105101
193	0xbcd801ab	-0.026367983
194	0xbe078001	-0.13232423
195	0x3e2ad88c	0.16684169
196	0x3d68db3b	0.0568497
197	0x3db8d8a5	0.09025697
198	0x3d3cd353	0.046099972
199	0x3ddc6c1b	0.10762807
200	0x3bd7e65e	0.006588741
201	0x3de988ee	0.114030704
202	0xbd87f843	-0.06639149
203	0x3d46d149	0.048539434
204	0xbd897518	-0.06711787
205	0x3df773f2	0.12082662
206	0x3d8755a1	0.06608129
207	0x3dfd6370	0.12372482
208	0x3d81fe41	0.06347323
209	0x3de78727	0.11305075
210	0x3e18c36a	0.14918295
211	0x3d87ce25	0.06631116
212	0x3d5d5b35	0.05404206
213	0xbe12535a	-0.14289609
214	0x3dabfa8e	0.08397399
215	0xbe467621	-0.19381
216	0x3d89fe09	0.067379065
217	0xbd643913	-0.055718493
218	0x3e13ea8b	0.1444494
219	0xbcd52ce9	-0.026022391
220	0x3db2fdd1	0.08739818
221	0xbd8f2451	-0.06989349
222	0xbe06e0d0	-0.13171697
223	0xbdb1b30c	-0.086767286
224	0x3d7b2135	0.061310966
225	0xbdf763b9	-0.120795675
226	0xbd0a96b9	-0.033835147
227	0x3e20d292	0.15705326
228	0x3e236d9b	0.1595978
229	0x3e1bf2fb	0.15229408
230	0x3cbf1df0	0.023329705
231	0x3d2c56e8	0.042075068
232	0x3e25fa37	0.1620873
233	0xbd1e8002	-0.038696297
234	0x3e00b70e	0.1256983
235	0xbdb721de	-0.089420065
236	0x3e2e23a6	0.17005786
237	0x3e16dc02	0.14732364
238	0xbdfa276e	-0.12214552
239	0xbe023591	-0.12715746
240	0xbd911123	-0.07083347
241	0xbc814544	-0.015780099
242	0x3af5e793	0.0018761031
243	0x3e0ba0bb	0.13635533
244	0x3e2a98ed	0.16659899
245	0xbdfbf137	-0.123018675
246	0x3e20da7f	0.1570835
247	0x3e2f7349	0.17133822
248	0xbd606978	-0.054788083
249	0xbd1da62b	-0.03848855
250	0xbd84867f	-0.064709656
251	0xbdfa7cac	-0.122308105
252	0x3dfbd30b	0.122961126
253	0x3cdb1bf0	0.02674672
254	0xbe16a5d4	-0.14711696
255	0xbcd1e454	-0.02562157

linear_relu_stack.4.bias f4 [27]
0	0x3be6037e	0.0070194593
1	0xbcdd2bec	-0.026998483
2	0xbc0a318d	-0.008434665
3	0xbd79f028	-0.061020046
4	0x3e1edc5d	0.1551375
5	0x3cfdd099	0.030983256
6	0xbe477576	-0.19478402
7	0xbda5eafb	-0.081014596
8	0x3d8a41cb	0.0675083
9	0xbe6fe51b	-0.2342724
10	0xbd8ff779	-0.070296235
11	0x3d833954	0.06407419
12	0x3ddac248	0.106815875
13	0x3e256689	0.16152395
14	0xbe2a8ad3	-0.1665452
15	0x3d1380bf	0.036011454
16	0x3e358dff	0.17729948
17	0x3e02da22	0.12778524
18	0x3dbe6644	0.09296849
19	0xbdd84371	-0.105597384
20	0xbd91dc46	-0.07122092
21	0x3c3f8c9c	0.011691239
22	0x3e0d67e8	0.13809168
23	0x3e579d2d	0.21056052
24	0xbe103104	-0.14081198
25	0x3dc331c3	0.09530976
26	0x3d34d7db	0.04415117
