Parameter/cartDQN/1.pth (torch, 7255 bytes, 6 tensors)

linear_relu_stack.0.weight f4 [32, 4]
00000000: 0607 a83e dcaf df3d 8252 b9be a9ad 633e
00000010: 98b4 e43e ff01 57bf 94d6 afbe 1001 9abe
00000020: 8bd8 173e ec37 bcbb 37ff a03e 5312 d5be
00000030: 8a2a 43be 407b 9a3f 32d9 433f ef16 843f
00000040: 6b5d 54be 4c16 f23e 2a1e 363d 091f 36bf
00000050: 56af ebbe f383 063f 4353 d33e 166f 14bf
00000060: a057 60ba 7dec 7abf 0f8d 2abf 7ac8 b3be
00000070: 0f94 b3be 3047 18bf 3ca8 053f b6c6 2d3e
00000080: bd8e ed3b 0819 28be ade5 acbd ac06 093f
00000090: 8328 313e 9d94 20bf 9af8 7d3e 2caf 963e
000000a0: eadb a6bc 31a5 a1bf f2d0 29bf 8ae6 1dbf
000000b0: 1a80 3abe 310b 943e 3d77 bd3e 42ba d4bd
000000c0: 2f78 913e 2256 9f3e 76dd ee3e 0d4e 9a3f
000000d0: b219 e1be bb9e 0a3f eb5f 9ebd ca9e 0e3f
000000e0: 387c c63e b62f 34bf ed30 893e d1ac 9cbd
000000f0: 0e6f 203e f1cf cd3e e7d4 debe 9e67 dcbe
00000100: 19a4 a83e 2263 a6bf 7401 48bd 34ea 1abf
00000110: 29b6 843e dfd2 42bf 7f21 e8be f19a 8dbe
00000120: cd04 a03e c4ce a2bd 7d93 be3e af95 743e
00000130: 2ae2 3a3d 4136 94be 14c5 473d 0e8e c9be
00000140: 0664 d9be 2e79 923e 3321 9f3e 3df0 afbd
00000150: a578 233e 14de 873e 5a9c 59be 446a 0a3f
00000160: 8a13 1e3c 6830 653e 32c6 c9be 642e 25bf
00000170: ada8 d23e b73c 82bf ec79 893d 7e00 8a3d
00000180: 1c70 43bc 71ea 3abf b23c f1bd 531f 343f
00000190: d7ab 95be 67e7 1b3e 25fd 45be fa62 7f3e
000001a0: 1228 603d dc10 2f3f c488 503f c4fe 993f
000001b0: d781 8cbe 8ae7 26be 737c 6dbc ae98 f3be
000001c0: d77d 883e 4e72 4bbf 78b3 dfbe 42d7 51be
000001d0: 5931 993e 7c3e 10be ddf7 f8be 6bea 23be
000001e0: ce1c e5bd e7b3 a13e 207f f43e 895d 893f
000001f0: ac79 f43e 839c de3d 1e61 6a3e 9581 bdbe
0.32817858 0.109222144 -0.3619576 0.22234215 0.44669032 -0.8398742 -0.34343398 -0.30078936
0.14828698 -0.005743971 0.31444713 -0.41615543 -0.19059196 1.2068863 0.7650329 1.0319499
-0.20738761 0.47282636 0.04446236 -0.71141106 -0.46032208 0.5254509 0.4127446 -0.57982004
-0.0008557979 -0.980171 -0.6662149 -0.3511389 -0.35073897 -0.59483624 0.5220983 0.16970333
0.0072496817 -0.16415799 -0.08442245 0.53525805 0.1730061 -0.62726766 0.24801865 0.2943052
-0.020368535 -1.2628537 -0.6633445 -0.616799 -0.1821293 0.28914788 0.37005034 -0.10387088
0.28412005 0.31120402 0.46653336 1.2055069 -0.43964916 0.54148453 -0.07733139 0.5571104
0.38766646 -0.703853 0.2679514 -0.076501496 0.15667364 0.4019771 -0.43521807 -0.43047804
0.32937697 -1.2999003 -0.04882951 -0.60513616 0.25920227 -0.76103014 -0.45338055 -0.27657273
0.31253663 -0.07949594 0.372219 0.23885225 0.045625843 -0.28947642 0.048771933 -0.39366192
-0.42459124 0.28608078 0.31080016 -0.08590744 0.15963991 0.2653662 -0.2125105 0.540684
0.009648213 0.22381747 -0.39409024 -0.6452391 0.41144314 -1.0174779 0.06712708 0.06738375
-0.011928584 -0.7301398 -0.11779155 0.70360297 -0.29232666 0.15224992 -0.19334848 0.249401
0.054725714 0.683851 0.8145869 1.2030873 -0.2744281 -0.16299263 -0.014495003 -0.47577423
0.26658508 -0.7947129 -0.4369161 -0.2049227 0.29920462 -0.14086336 -0.48626605 -0.16007392
-0.11187135 0.31582567 0.4775324 1.073167 0.47749078 0.10869696 0.2288861 -0.37012926

linear_relu_stack.0.bias f4 [32]
00000000: ff0f ecbe 13e4 373f e05b 163f 9529 cd3d
00000010: 09ba 5a3e 1922 b7be bf32 513f 8319 a53e
00000020: 223d 99be 2349 be3e 261c 3f3f 0b7b ab3e
00000030: 90d1 0bbe 430d 5fbd 3ebb af3e c590 7cbe
00000040: 5cd0 133f b59f c93e 2d36 9a3d a8ba fa3e
00000050: 795f 483e cc92 de3d 6282 4a3e 0e75 1a3f
00000060: 11e1 223e 434b 38be 3c2d 6fbd 7072 913d
00000070: a7d9 533f 638d 6abd 0387 d43d f905 80be
-0.46105954 0.7183239 0.5873394 0.10017697 0.2136003 -0.35768202 0.8171806 0.32246026
-0.29929453 0.37165174 0.74652326 0.33492312 -0.1365416 -0.054456007 0.34322542 -0.246646
0.57739806 0.3937966 0.075298645 0.48970532 0.1956767 0.10867843 0.197763 0.6033486
0.15906169 -0.1799746 -0.05839275 0.07101905 0.82753986 -0.057263743 0.10377314 -0.25004557

linear_relu_stack.2.weight f4 [32, 32]
00000000: 85dc 18be bde5 09be 33b2 8ebd 4bc4 c2bd
00000010: b00f c9bc a407 e5bd d5b9 463e 6d78 0ebe
00000020: 4912 043e 5325 c7bd fa94 513e b9e4 303e
00000030: 7d86 8e3d 5376 c5bd aed5 063e f7c5 1cbe
00000040: 02d7 063e 5302 afbc 4d5d f7bd 147e d3bd
00000050: c375 123d a9ad 7c3d e868 d33d 521c b23b
00000060: 701e b8bd 8fd4 2f3e 3924 32bd d536 a03d
00000070: 3387 9bbd de22 c0bb 94a3 54bd b9e7 85bb
00000080: 8b45 aa3c b613 ff3d 516f b0bd a07d 243e
00000090: c2ed e1bd fd31 3e3d 76dc b83c 0f5e 08be
000000a0: 45e6 0b3d 5d75 89ba 6fdc 113d 9cde 07be
000000b0: 67c1 33bd 9a0f 5fbd efbc 923d bd3c d93d
000000c0: 48de b9bd 3bfc 22be e9dd 6f3d ac21 9cbd
000000d0: 3141 36be e77c c5b9 fd55 8e3d 2b07 1bbe
000000e0: 2bb8 04be 3c62 1e3d 122b 28be 13e3 f93d
000000f0: 1ca7 0abe 1e43 e2bd cef9 fdbd 4947 bcbd
00000100: f638 25be 8457 ad3e 898a 3f3e 984f 5cbe
00000110: 0b3c 523c 0780 56be 907a b03e fca7 973d
00000120: e2b2 163e 910d d13d d90f f83e 3409 7f39
00000130: 761d 0dbe e934 7bbd ffb0 8d3e df38 053c
00000140: cc8c c23e 40c9 2a3e f4ff 34be a5a6 9e3d
00000150: 266f 42be 38e7 b73d a272 acbd 70da 683e
00000160: 2e4d 71bb 2b73 063d 8264 94be 5fe8 b2bd
00000170: a410 9d3d 7187 98bd 67d9 33be f960 64bd
00000180: f9d1 09be 3443 173d 5c23 48be d2d2 04be
00000190: f9fa 0c3e 5ded a5bc b3f1 a7bd c23a ba3d
000001a0: 44f4 62bd 46f2 2fbe 0bf9 963c fc5b 27be
000001b0: 4eb4 5f3d bbb3 0a3e 1a14 863a af0f 32bd
000001c0: 77ff d53d bf7e c73d 0a82 9abd 91d1 d73d
000001d0: 52b5 02be f0b0 0e3e a829 0abe d92c c23d
000001e0: 63b4 13be ec36 743d 6b2d 533e 03ae 9cbd
000001f0: 3797 d53d 20e9 233e b383 1bbd 92dd 393c
00000200: 67e0 b6bd 9174 e7bc dd8d 35be 4d6e a7bd
00000210: 5fe3 19be 3fc3 423d 9582 2d3e 9ae1 a8bd
00000220: d874 5dbd f7ec 2abc 60f8 5a3e dc6e 33be
00000230: c1ac afbd c9f1 02be b0d2 4d3d 2ee2 dbbd
00000240: b9fd 993d de7f aabd d925 28be 08ed 813d
00000250: 6144 a83c 0ece b33c bfda 4fbd 0d4f 15bc
00000260: 49cf 0bbe c859 d2bd 901b 233e 0852 c13d
00000270: 7a85 3b3e 047d 5c3d 32ad c53b 9c33 973d
00000280: 3df1 123c c589 e1bd 90bf 5b3e 4ba5 743e
00000290: dfbb a73e 5253 b4bb 9d47 37be 3669 fd3d
000002a0: 37a4 a6bd e656 cf3d 8598 8bbd 636d 86bd
000002b0: 63ba 4e3d c622 b4bd fb2c 573d 6b65 833e
000002c0: 6f1a a9be 062a 51be d920 a73d 8447 1fbe
000002d0: a3a5 643e 48b5 cc3d e268 8f3e 7cb7 ba3d
000002e0: 805b 703d 2323 02bd abac 253e ec3c 543e
000002f0: 1bc8 50be 7dc7 f03d 25dc 1f3e 7078 753d
00000300: 2f74 08bd f804 473e b161 813d 862c 41be
00000310: aedf 583d 1a4e 1cbe 1740 c73d 88f1 153e
00000320: 3b19 ae3d 79e0 2bbe 2e8d 303e 3915 32bd
00000330: 7d5f 4bbd a78c 133e c50f cfbc 608e 07be
00000340: 11f1 043e 470c 3f3d 36cc 07be c61c 143e
00000350: 9b90 bd3d 6d90 3fbe 25f5 18bd df79 453c
00000360: 30d9 06be 7bc9 1bbe c6e4 1fbd 1a2a fe3d
00000370: 9a88 bbbd a6df ee3d b0f3 4dbe 9abe 75bd
00000380: 9705 7abd a019 03be 35d8 083e 763b de3d
00000390: 402e d2bd 2dba 013e 3a7c b0bc f8bd 0fbe
000003a0: aace 07bd d5dd 0a3d ee68 2dbd 8be0 033e
000003b0: bdfd 93bb 7201 153d df8c 103e b360 74bd
000003c0: 260d e73c 125e 853d 8de6 6cbd 23e1 f83b
000003d0: 7807 f1bb eb53 2f3e 33d4 793c 39ad a2bd
000003e0: 5cdd 0bbe a96e 75bb 0225 213e 0eba 973c
000003f0: 4326 583d cccf 6a3d 6efc 913d 25f3 1cbe
-0.14927872 -0.13466544 -0.069675826 -0.09510096 -0.024543613 -0.11183098 0.19406827 -0.13913126
0.128976 -0.09723916 0.20466986 0.17274751 0.06959245 -0.09641709 0.1316745 -0.15309893
0.13167956 -0.021363413 -0.120783426 -0.10326782 0.035756838 0.061689053 0.10322744 0.005435505
-0.089901805 0.17170928 -0.043491576 0.078229584 -0.075941466 -0.0058635315 -0.051913813 -0.0040864614
0.020785114 0.124549314 -0.08614982 0.16063547 -0.11031677 0.04643439 0.022566061 -0.1331713
0.03415515 -0.0010487247 0.035610612 -0.13268512 -0.043885615 -0.05445824 0.071649425 0.10607288
-0.090756 -0.15916531 0.05856124 -0.0762361 -0.17798306 -0.00037667828 0.06949995 -0.15139453
-0.1296088 0.038667902 -0.1642268 0.12201514 -0.1354031 -0.11047958 -0.12401162 -0.09193284
-0.1613501 0.33855832 0.1870519 -0.21514738 0.012831698 -0.20947276 0.34468508 0.07405087
0.14716676 0.10207666 0.4844959 0.00024322123 -0.1378077 -0.061329756 0.276741 0.008131235
0.37998044 0.16678333 -0.17675763 0.07746629 -0.18987712 0.08979648 -0.08420302 0.22739577
-0.0036819684 0.032824676 -0.2898293 -0.087357275 0.076691896 -0.074477084 -0.17563401 -0.055756543
-0.13459004 0.036929324 -0.19544739 -0.12971047 0.13767613 -0.020254785 -0.08200397 0.090932384
-0.05540873 -0.17182264 0.0184293 -0.16343683 0.05461531 0.13545124 0.0010229379 -0.04347199
0.10449117 0.09740972 -0.07544334 0.105380185 -0.1276448 0.13934684 -0.13492453 0.0948121
-0.14424281 0.05962269 0.20622794 -0.076503776 0.104292326 0.16006899 -0.037967395 0.01134433
-0.0892952 -0.028253825 -0.17729898 -0.08175335 -0.15028141 0.047549482 0.16944344 -0.08246155
-0.05406651 -0.010432473 0.2138381 -0.17522758 -0.08577872 -0.12787546 0.050249755 -0.107365
0.07519097 -0.0832517 -0.16420688 0.06344038 0.020540418 0.02194884 -0.050745722 -0.009113085
-0.13653292 -0.10271031 0.15928483 0.09439474 0.18312636 0.05383016 0.0060326094 0.073828906
0.0089686485 -0.110126056 0.21459794 0.2389118 0.32760522 -0.0055030966 -0.17898412 0.12373583
-0.0813679 0.101239964 -0.068162 -0.065638326 0.05047072 -0.08795695 0.05253313 0.25663313
-0.3302798 -0.20426187 0.08160562 -0.15554625 0.2232881 0.09995514 0.28009707 0.09117028
0.05868101 -0.03177179 0.16179149 0.20726365 -0.20388834 0.11756799 0.15611322 0.05992931
-0.033313926 0.19435489 0.06317461 -0.1886464 0.052947693 -0.15264168 0.09729021 0.14642918
0.08500906 -0.16784848 0.17241356 -0.04347727 -0.04965161 0.14409123 -0.025276074 -0.13237906
0.12982585 0.046642568 -0.13261494 0.14464101 0.09256097 -0.18707438 -0.037343163 0.012052982
-0.13168788 -0.15213577 -0.039036535 0.12410374 -0.09156914 0.11663751 -0.2011249 -0.059996225
-0.061040487 -0.12802744 0.13363726 0.10851185 -0.10262728 0.12668677 -0.02154361 -0.14037311
-0.033156075 0.03390296 -0.042336397 0.12878625 -0.004516332 0.03637833 0.14116238 -0.059662532
0.028204512 0.06512083 -0.057837058 0.0075951978 -0.0073556267 0.17121856 0.015248346 -0.07943196
-0.1365866 -0.0037449992 0.15736774 0.018521335 0.052770864 0.057327077 0.07128225 -0.15327127

linear_relu_stack.2.bias f4 [32]
00000000: 1219 363c 3727 a83d 9e9a cd3d 5492 9bbd
00000010: dcdf bb3d 119f 2c3e 474c 463e cb4d 1cbe
00000020: 63c1 733e 713f fa3e fc69 b5bd ca0b e4bd
00000030: 236c 843e e791 07bd 9037 d73e b43e 243f
00000040: b09b 683a 3220 3b3b 2e64 d73d 33ed cb3d
00000050: 51b4 05be 3e3f 143f a4b2 13bd e6a5 6d3d
00000060: 5503 1f3e e5e8 2d3c 3026 07bd 574b 1ebe
00000070: 551a f4bd bbae e23d 62f9 aa3d fa8f 12be
0.011114376 0.08210605 0.100392565 -0.07596269 0.09173557 0.16857554 0.19365035 -0.1526405
0.2380424 0.48876527 -0.088581055 -0.11135061 0.25863752 -0.033098128 0.42034578 0.6415818
0.0008873297 0.0028553125 0.10517155 0.099573515 -0.13057067 0.57909 -0.036059037 0.05801954
0.15528615 0.010614608 -0.032995403 -0.15458427 -0.11919085 0.110684834 0.08348347 -0.14312735

linear_relu_stack.4.weight f4 [2, 32]
00000000: f4a0 383e 2757 dd3b b2ff 173f 616a babc
00000010: fdf2 c53d 749c e7be 4e51 df3e bb64 30be
00000020: a240 243f 4233 7b3f 4dc5 0fbe 1e51 523d
00000030: 2364 8abe 42c0 a5bb 769a 6f3f cc6a ab3f
00000040: 89f2 71bf 62f4 0fbe aac6 53bf 99d5 febe
00000050: 395e b63d 4dde 8e3f 6ae6 983d 85ad 953e
00000060: e72b 25be 634f 363d b36f c5be 1c00 413e
00000070: cb29 eb3d a494 003e d2bd 8cbf bc4a a73e
00000080: 16bd b53a bf47 bc3d 1609 433f b32d eabd
00000090: db98 103e bf00 f4be ed7e 803d 5513 183d
000000a0: b924 453f cf08 4f3f a389 c7be aeaf 383e
000000b0: bd00 c9be 5a10 513b c8b4 7c3f 32c0 8a3f
000000c0: b7ef 19bf d8f2 94be c3bd 7ebe 5186 7ebd
000000d0: 1741 09be de37 953f df21 e53d b385 953e
000000e0: 7da3 90bc 95bb e83d e3ff 82be beee a4bb
000000f0: e812 da3d 50ee 613e b585 36bf a937 01bf
0.18030149 0.006754774 0.59374535 -0.022755804 0.09665487 -0.45236552 0.43616718 -0.17225926
0.6416112 0.9812509 -0.14040108 0.05134689 -0.27029523 -0.0050583193 0.93595064 1.3391967
-0.94510704 -0.14058068 -0.8272501 -0.49772337 0.0890469 1.1161591 0.07465823 0.29233947
-0.16130029 0.044509303 -0.38561782 0.18847698 0.11482581 0.12556702 -1.0995429 0.32674205
0.0013865556 0.09193372 0.7618574 -0.11434498 0.1412081 -0.4765682 0.06274209 0.03712781
0.7700916 0.80872816 -0.38972196 0.18035766 -0.39258376 0.0031900615 0.9871335 1.0839903
-0.601314 -0.29091525 -0.24877076 -0.062139813 -0.13403736 1.1657674 0.11188101 0.29203567
-0.017656082 0.113639034 -0.2558585 -0.005033343 0.10648137 0.22063565 -0.7129777 -0.50475556

linear_relu_stack.4.bias f4 [2]
00000000: 65ab 2a3e e55c 43be
0.16666944 -0.19078405
