Parameter/hopeDDPG/1.pth (torch, 8279 bytes, 6 tensors)

linear_relu_stack.0.weight f4 [32, 11]
0	0xbe9133d9	-0.2835987
1	0xbe817c5f	-0.252902
2	0xbda78111	-0.08178914
3	0xbd46e2d4	-0.048556164
4	0x3d999922	0.07499911
5	0x3dd012f5	0.10159866
6	0xbe5d655e	-0.216207
7	0x3e3123c7	0.17298804
8	0x3e8938cd	0.26801148
9	0x3e16359c	0.14668888
10	0xbe260454	-0.16212589
11	0xbe4de409	-0.2010652
12	0x3d102557	0.03519186
13	0xbd886455	-0.06659762
14	0xbda705aa	-0.08155377
15	0x3dbd341a	0.09238453
16	0xbe872250	-0.26393366
17	0x3e1d09ff	0.15335844
18	0x3d90aa55	0.07063738
19	0xbe91c2c5	-0.2846891
20	0xbdbc2108	-0.09185988
21	0xbd376572	-0.04477448
22	0xbe021d87	-0.12706576
23	0xbbd04db5	-0.0063569196
24	0xbc679f06	-0.014137035
25	0xbdef0b97	-0.116721325
26	0xbe6a8768	-0.22903216
27	0x3d0ca383	0.034335624
28	0x3de0a6bd	0.10969303
29	0x3e902932	0.2815643
30	0x3e890a9f	0.26765916
31	0x3df67080	0.120331764
32	0xba96959b	-0.0011488678
33	0x3e32adfb	0.17449181
34	0x38b924b3	8.828323e-05
35	0xbe8c5e74	-0.27415812
36	0xbdc4d9c2	-0.096118465
37	0x3e33d842	0.17562965
38	0xbe41c04f	-0.18921016
39	0x3dc54677	0.09632581
40	0x3e82019c	0.25391853
41	0x3e18234c	0.14857215
42	0xbd392c59	-0.04520831
43	0x3c3e6ec6	0.01162309
44	0xbe09328b	-0.13398187
45	0xbdd0741e	-0.101783976
46	0x3e3102aa	0.17286173
47	0x3e7cdc3e	0.2469339
48	0x3e19caf4	0.15018827
49	0x3e189502	0.14900592
50	0x3e20621f	0.1566243
51	0xbbc185f3	-0.0059058606
52	0xbddd3174	-0.10800448
53	0xbe891d52	-0.26780182
54	0x3e795c07	0.24351512
55	0x3e5ce665	0.21572264
56	0x3e8c5055	0.27405038
57	0xbe594b0f	-0.21220039
58	0x3da34832	0.079727545
59	0xbe94827a	-0.29005796
60	0xbcc62b4e	-0.024190571
61	0x387684c2	5.877461e-05
62	0xbe906dc9	-0.2820876
63	0xbe471391	-0.19441058
64	0x3e8f0216	0.2793128
65	0x3e590523	0.21193366
66	0xbd55090e	-0.05201059
67	0xba983700	-0.0011613071
68	0xbe51b5e7	-0.20479546
69	0xbe96d929	-0.29462555
70	0xbdce9e5d	-0.10088799
71	0x3e84fb7d	0.2597312
72	0x3e267b37	0.1625794
73	0xbe471137	-0.1944016
74	0x3daaa025	0.083313264
75	0xbd409bb2	-0.047023483
76	0x3e1a09df	0.15042828
77	0xbe5ca0bb	-0.21545689
78	0x3dda77e8	0.106674016
79	0x3db3402e	0.08752476
80	0xbe6c54b8	-0.23079193
81	0xbe915f36	-0.28392953
82	0x3dd53266	0.10410003
83	0xbe12de15	-0.1434253
84	0x3e508b53	0.20365648
85	0xbe212c56	-0.15739569
86	0x3ce3399b	0.02773743
87	0x3e96d7b9	0.29461458
88	0x3dcdd7bd	0.100509144
89	0xbe890ffe	-0.26770014
90	0xbd3cadc6	-0.04606416
91	0xbe9047f1	-0.28179887
92	0xbc4e9aa4	-0.012610111
93	0x3de94101	0.11389352
94	0x3c83bef6	0.016082268
95	0x3c2edb81	0.010672451
96	0x3e808028	0.25097775
97	0xbd45e12f	-0.048310455
98	0xbcb102d6	-0.021607798
99	0xbe446f21	-0.19183017
100	0xbe99274a	-0.29912788
101	0x3e9a0899	0.30084684
102	0x3c8880b6	0.016662937
103	0xbe12b903	-0.14328389
104	0xbbc275f5	-0.0059344717
105	0x3e0daf5b	0.13836424
106	0x3e40ed95	0.1884063
107	0x3ca6d141	0.020363452
108	0xbbb9d3b7	-0.0056709903
109	0x3e32e625	0.17470606
110	0x3d7ceba7	0.061748173
111	0xbe2d10f2	-0.16900995
112	0x3d7159a8	0.058923393
113	0x3e4884fc	0.1958198
114	0x3e786a6d	0.24259348
115	0x3df190b8	0.11795181
116	0x3e630f98	0.22173917
117	0x3e80d9f7	0.25166294
118	0xbe03d057	-0.12872444
119	0xbe2f8cbf	-0.17143534
120	0xbe77781f	-0.24166916
121	0x3d9f685e	0.07783578
122	0xbe5f5391	-0.21809222
123	0x3e045837	0.12924276
124	0x3e982ada	0.29720193
125	0xbca88a44	-0.020573743
126	0x3e273a5e	0.16330859
127	0xbd98a0e5	-0.07452563
128	0xbcafc8f7	-0.021458132
129	0x3e8ef315	0.27919832
130	0xbdfba184	-0.12286666
131	0x3e8e06ab	0.27739462
132	0x3c43ecee	0.011958344
133	0xbd88705b	-0.06662055
134	0xbc173063	-0.009227845
135	0xbe007d58	-0.12547815
136	0xbd325a47	-0.043543126
137	0x3e91d300	0.28481293
138	0xbe03718d	-0.12836285
139	0x3e8b9632	0.27263027
140	0x3e1defd7	0.15423523
141	0xbe5ca1b5	-0.21546061
142	0xbe8af905	-0.27143112
143	0x3b886fb5	0.004163707
144	0xbd25f4d4	-0.04051669
145	0x3e62036d	0.2207162
146	0x3e21e712	0.15810803
147	0x3e850bc7	0.25985548
148	0x3e199900	0.14999771
149	0x3dd871d7	0.10568588
150	0x3cfdd37c	0.030984633
151	0xbcce2721	-0.025165142
152	0x3e39f86f	0.18161176
153	0x3e81e424	0.2536937
154	0x3e01ad72	0.1266382
155	0xbe1dcbc4	-0.15409762
156	0x3e98d3d0	0.298491
157	0x3d2fe20d	0.04294019
158	0xbc412d3c	-0.01179057
159	0x3e7fb739	0.24972238
160	0x3d574338	0.05255434
161	0xbe6ff74a	-0.23434177
162	0xbba58de1	-0.0050523137
163	0xbe81e3d6	-0.25369138
164	0xbd5833df	-0.052783843
165	0x3d9db1c0	0.07699919
166	0x3d508499	0.050907705
167	0xbe66562a	-0.22493806
168	0xbccd1a96	-0.025037091
169	0xbe2d470a	-0.1692163
170	0xbe47bba2	-0.1950517
171	0xbe38e959	-0.18057765
172	0xbc9b99ec	-0.018994294
173	0xbdd91db4	-0.106013685
174	0xbe20e87c	-0.15713686
175	0x3ca2a574	0.019854285
176	0xbdbb8da2	-0.09157874
177	0x3d1bf3ab	0.038074177
178	0xbe8e8aff	-0.2784042
179	0x3d06b579	0.03288791
180	0x3e51e60c	0.20497912
181	0x3e8d6e79	0.27623346
182	0x3de777fe	0.113021836
183	0xbdd57ff4	-0.10424796
184	0x3c997ee8	0.018737271
185	0xbe888a7e	-0.2666816
186	0xbe8a52db	-0.2701634
187	0xbe0a50de	-0.13507411
188	0xbd1eb8cd	-0.03875046
189	0xbe3ea85b	-0.1861891
190	0xbe2152ea	-0.15754285
191	0xbccd5ede	-0.02506965
192	0x3c37a4ab	0.0112086935
193	0xbd9dd9ab	-0.077075325
194	0xbe5b9f53	-0.21447496
195	0x3cca1f52	0.024673138
196	0x3e3f059e	0.18654487
197	0x3e03c988	0.12869847
198	0x3c3c60e4	0.01149771
199	0x3e489555	0.19588216
200	0x3e837cf0	0.25681257
201	0xbdd38b13	-0.10329261
202	0x3d019d1b	0.031643968
203	0x3e6388eb	0.22220199
204	0x3d5be21c	0.05368243
205	0x3e19f9c7	0.15036689
206	0xbd1c88c4	-0.038216367
207	0xbde311f0	-0.11087406
208	0x3d824714	0.06361213
209	0x3e04a18c	0.1295225
210	0x3e028ef7	0.1274985
211	0xbe8cefef	-0.27526805
212	0xbba5e18c	-0.0050622877
213	0x3ceeadb1	0.029135557
214	0x3e15c188	0.14624608
215	0x3e7d9bf6	0.24766526
216	0xbd19e7ce	-0.03757458
217	0xbdd2fd08	-0.10302168
218	0x3e8d04fa	0.2754286
219	0xbd93f002	-0.07223512
220	0xbe32e519	-0.17470206
221	0xbe247c8b	-0.16063134
222	0x3e8100d9	0.2519596
223	0x3e3f2782	0.18667415
224	0x3e072a56	0.13199744
225	0xbe9129ef	-0.28352305
226	0xbc181a95	-0.009283681
227	0x3da6d413	0.08145919
228	0x3d4c7581	0.049916748
229	0x3e7cd46a	0.24690405
230	0xbe7a7511	-0.2445872
231	0xbe7aa697	-0.24477611
232	0xbe28c3c2	-0.16480926
233	0x3e71916f	0.23590635
234	0x3e8d88bb	0.2764338
235	0xbb390e27	-0.0028237195
236	0xbe10b42e	-0.14131233
237	0x3e1fa66b	0.15590827
238	0xbe4a8709	-0.19778074
239	0x3d5cf5ba	0.05394528
240	0xbe39562f	-0.18099283
241	0xbdb46842	-0.08808948
242	0xbe90163e	-0.2814197
243	0x3dd26c9e	0.10274623
244	0xbe1f9669	-0.1558472
245	0x3e8f61a5	0.28004184
246	0x3e4960ff	0.19665907
247	0xbe1ea1fa	-0.15491477
248	0x3dde87d9	0.10865755
249	0xbe4abdd5	-0.19798978
250	0x3e40815e	0.1879935
251	0x3e8f2d28	0.2796414
252	0xbe499ee6	-0.19689521
253	0x3e702db0	0.23454928
254	0xbe20e919	-0.1571392
255	0x3e5a199c	0.21298832

linear_relu_stack.0.bias f4 [32]
0	0xbe252259	-0.16126384
1	0x3d3a9107	0.045548465
2	0xbe00e4bc	-0.12587255
3	0xbd977873	-0.07396021
4	0x3e96eccf	0.29477546
5	0x3e0d16db	0.1377825
6	0x3dd71431	0.10501898
7	0x3e6122bf	0.21985911
8	0x3da68109	0.0813008
9	0x3e38eb35	0.18058474
10	0x3cafa2a8	0.021439865
11	0x3e62c406	0.2214509
12	0xbe55dc4b	-0.20884816
13	0xbe919f7b	-0.28441986
14	0xbdb238cc	-0.087022394
15	0xbbdbb43c	-0.006704835
16	0x3e0e7a2a	0.1391379
17	0x3e0403f5	0.12892134
18	0xbe25ca9b	-0.16190569
19	0xbd1f2ca5	-0.038860936
20	0x3db182b6	0.08667509
21	0x3e930a70	0.287189
22	0x3c20faf1	0.009825454
23	0x3e1398ac	0.14413708
24	0xbe916fc3	-0.2840558
25	0x3e812ece	0.25231022
26	0xbe6976c6	-0.22799215
27	0x3d98b8bd	0.07457111
28	0xbe84930e	-0.25893444
29	0x3bc39150	0.0059682503
30	0x3e78b0c6	0.24286184
31	0x3d8dd3a8	0.06925136

linear_relu_stack.2.weight f4 [32, 32]
0	0xbd8afc60	-0.06786418
1	0x3d3d3db2	0.046201415
2	0xbcee925f	-0.02912253
3	0x3dd3f8eb	0.10350212
4	0xbcd97b45	-0.026548037
5	0xbdcf9653	-0.10136094
6	0x3d87cad1	0.06630481
7	0xbd3876b1	-0.045035068
8	0x3dbe8017	0.09301775
9	0xbdda4b07	-0.106588416
10	0xbd4f4657	-0.05060419
11	0xbc50d402	-0.012745859
12	0xbd650046	-0.055908464
13	0x3d2217a6	0.039573334
14	0x3d42c274	0.047548726
15	0x3debcae4	0.11513308
16	0x3e0cec68	0.13762057
17	0x3e08e5fa	0.13368979
18	0x3e302098	0.17199934
19	0xbd9ce2ce	-0.07660447
20	0x3e24b673	0.16085224
21	0xbde3c521	-0.11121584
22	0xbd30ac28	-0.04313293
23	0xbd543efa	-0.05181787
24	0x3c004663	0.0078292815
25	0x3de3aeda	0.11117335
26	0x3d120e84	0.035658374
27	0x3e16a5a6	0.14711627
28	0xbdbe227e	-0.092839226
29	0x3e04d179	0.12970532
30	0x3a86b20c	0.0010276451
31	0xbdc3fd98	-0.095698535
32	0xbd8f800d	-0.070068456
33	0xbe2a70d4	-0.16644603
34	0x3e2375d5	0.15962918
35	0x3d981fde	0.07427953
36	0xbd75844c	-0.05994062
37	0x3d1b4b98	0.03791389
38	0x3e000a02	0.12503818
39	0x3db05fe5	0.086120404
40	0xbd1a0edd	-0.03761183
41	0xbd49e35a	-0.049289085
42	0xbd0a40b6	-0.03375312
43	0xbd5a1801	-0.05324555
44	0x3deb374f	0.11485159
45	0xbc4e3e31	-0.01258807
46	0x3dbe6218	0.09296054
47	0x3d75c4e2	0.060002215
48	0x3d8f7ee7	0.070066266
49	0x3c2fe545	0.010735814
50	0x3ce37ced	0.02776953
51	0xbc4aa900	-0.012369394
52	0x3ba355fc	0.0049846154
53	0xbe010ab5	-0.1260174
54	0x3d3140a5	0.04327454
55	0x3d7ac552	0.061223336
56	0xbd145f25	-0.03622355
57	0x3e164c3d	0.1467752
58	0x3de8cc9b	0.113671504
59	0xbe106c1a	-0.14103737
60	0xbd30d01e	-0.043167226
61	0x3dd1daba	0.10246797
62	0xbbacb2f2	-0.0052703554
63	0xbe01ad78	-0.1266383
64	0x3d0f0c0a	0.03492359
65	0x3d887b01	0.06664086
66	0xbd1e2aec	-0.038615152
67	0xbe33b670	-0.17550063
68	0x3db93271	0.09042824
69	0xbde73913	-0.11290183
70	0xbcb468d7	-0.022022648
71	0x3db6b969	0.08922083
72	0x3c564dfe	0.013080118
73	0xbd9d6fcb	-0.076873384
74	0x3d403395	0.046924192
75	0x3d11171f	0.03542244
76	0x3e314ccc	0.17314452
77	0xbd75da67	-0.060022738
78	0xbac81cca	-0.0015267369
79	0xbd3d9702	-0.04628659
80	0x3d92e796	0.07173078
81	0x3df5b320	0.11997056
82	0xbdfc0d81	-0.12307263
83	0xbde4a232	-0.11163749
84	0x3dd24b8d	0.102683164
85	0xbda3b2aa	-0.07993062
86	0xbd8db776	-0.06919758
87	0x3d2e4a96	0.0425516
88	0x3cad94e1	0.021189155
89	0x3ccd05e8	0.02502723
90	0x3dd8d612	0.10587706
91	0xbd2854ca	-0.041096486
92	0xbdea6a27	-0.11446028
93	0xbdf07c61	-0.117424734
94	0xbe100181	-0.14063074
95	0xbe2060f9	-0.15661992
96	0xbded4622	-0.115856424
97	0xbe102b27	-0.14078961
98	0xbdfc3b7a	-0.12316032
99	0x3e2ed6ac	0.17074078
100	0x3e19fd09	0.15037932
101	0xbd18e0f6	-0.037323914
102	0x3d9eef73	0.07760515
103	0xbdec0b97	-0.11525648
104	0x3bb69782	0.0055722604
105	0x3d452e47	0.048139837
106	0xbd35bd6e	-0.044370107
107	0x3d59f170	0.05320877
108	0xbe100d88	-0.14067662
109	0x3b789ed7	0.0037936473
110	0x3e2bcfc9	0.16778482
111	0x3c95d62d	0.018290604
112	0xbd484d47	-0.048901822
113	0xbe158e80	-0.1460514
114	0x3e13d229	0.14435638
115	0xbe09fe60	-0.13475943
116	0x3de58e6a	0.11208804
117	0x3e1a2990	0.15054917
118	0x3d1dd4a3	0.038532864
119	0xbdbc06fd	-0.091810204
120	0x3dbbfa31	0.091785796
121	0x3e2b99cd	0.16757889
122	0xbd8734f7	-0.06601899
123	0x3dfca661	0.12336422
124	0x3d67a990	0.05655819
125	0xbd89b11c	-0.06723234
126	0xbddbdb78	-0.1073522
127	0xbde91ff7	-0.1138305
128	0xbc9e5601	-0.01932812
129	0x3dbe7a66	0.093006894
130	0xbc57c48a	-0.013169417
131	0xbdac6f22	-0.084196344
132	0xbde99c93	-0.11406817
133	0xbe278666	-0.16359863
134	0xbd5b9ca5	-0.053616185
135	0x3c7ed5d4	0.01555391
136	0x3e245989	0.1604978
137	0x3e04bb03	0.12961964
138	0x3df455f3	0.11930456
139	0xbdc1b954	-0.09459177
140	0x3e1a7fce	0.15087816
141	0x3de5a215	0.11212555
142	0xbd5d4a65	-0.054026026
143	0x3e34adf6	0.17644486
144	0xbe15206b	-0.14563148
145	0xbd387d8b	-0.045041602
146	0xbdbbeb3b	-0.09175726
147	0x3e2679b2	0.1625736
148	0x3e2bec52	0.16789368
149	0x3d27dad5	0.04098018
150	0xbbfdb734	-0.007742787
151	0xbe072990	-0.13199449
152	0x3de1a951	0.11018623
153	0x3e0df9aa	0.1386477
154	0xbbadb715	-0.005301366
155	0xbe115bd0	-0.1419518
156	0x3e1e3615	0.15450318
157	0x3d8b0b44	0.06789258
158	0xbe243aa8	-0.16038
159	0xbd8b79da	-0.06810351
160	0xbdb13354	-0.08652368
161	0x3e3156d6	0.17318282
162	0x3dda6736	0.10664217
163	0xbc4bfd90	-0.012450591
164	0x3c088418	0.008332275
165	0xbdf19fee	-0.11798082
166	0x3e08cc91	0.13359286
167	0xbdeb7a14	-0.11497894
168	0xbe0c76ed	-0.13717242
169	0xbc3c2af7	-0.011484853
170	0xbc8ece0b	-0.017432233
171	0xbc0046b1	-0.007829354
172	0xbd527ada	-0.05138669
173	0xbdfed6ca	-0.124433115
174	0xbba8701c	-0.0051403176
175	0x3ac9f60b	0.001540841
176	0xbe108a57	-0.14115272
177	0xbe0c399b	-0.1369385
178	0x3cdb2734	0.026752092
179	0x3e090de1	0.133842
180	0xbc11aeb9	-0.008891755
181	0xbdc3b28d	-0.0955554
182	0xbd1e5d42	-0.038663156
183	0xbdd0a935	-0.10188524
184	0x3e1485ac	0.14504117
185	0xbe09e10b	-0.13464753
186	0xbe0f32aa	-0.1398417
187	0xbd6aa98f	-0.05729061
188	0xbd85eab2	-0.06538905
189	0xbe096622	-0.13417867
190	0x3dde585c	0.10856697
191	0x3dbd1c9e	0.09233974
192	0x3ab1569d	0.0013529841
193	0x3d73edde	0.05955302
194	0x3dfc6f70	0.123259425
195	0x3e21932e	0.15778801
196	0xbc899941	-0.01679671
197	0xbbf953a3	-0.007608847
198	0xbc9cef73	-0.019157147
199	0x3d0e1cfb	0.034695607
200	0x3cd46e01	0.02593136
201	0x3e31365b	0.17305891
202	0x3e213326	0.15742168
203	0xbdfebd92	-0.124385014
204	0xbe1024e5	-0.14076574
205	0xbc0b81e6	-0.008514857
206	0xbdfb3557	-0.12266033
207	0xbdd96829	-0.1061557
208	0xbdb646aa	-0.08900197
209	0xbd145f36	-0.036223613
210	0x3e167b7b	0.14695542
211	0x3e079b98	0.13242948
212	0x3e11bace	0.14231417
213	0x3e2dadfe	0.16960904
214	0x3d76f310	0.060290396
215	0xbd921180	-0.07132244
216	0x3dfafffc	0.122558564
217	0xbe15cebc	-0.14629644
218	0x3d9d8cad	0.076928474
219	0x3de261f6	0.11053841
220	0x3e0e522e	0.13898537
221	0x3d51d31b	0.051226716
222	0x3cad8374	0.021180846
223	0xbe07f0c6	-0.13275442
224	0x3ba300f2	0.004974478
225	0x3dbd56c8	0.09245068
226	0x3bda0371	0.0066532423
227	0xbda17e0f	-0.07885372
228	0xbdfb27cd	-0.12263451
229	0xbdcaeff1	-0.099090464
230	0xbe0e3cc8	-0.13890374
231	0xbdc91a05	-0.09819416
232	0x3a9b6e69	0.0011858466
233	0x3e129ee2	0.14318421
234	0x3e1ec02f	0.15503
235	0xbe27c22f	-0.16382669
236	0x3e25e43e	0.16200349
237	0xbe25d52c	-0.161946
238	0x3e271e45	0.1632014
239	0xbe32896e	-0.17435238
240	0xbd792c1d	-0.060833085
241	0xbdd69697	-0.104779415
242	0xbde98e9e	-0.11404155
243	0x3de1f495	0.110329784
244	0xbde4037b	-0.11133476
245	0xbd1c31c5	-0.0381334
246	0x3e2c76ad	0.16842146
247	0xbe1f1d35	-0.15538485
248	0xbd72e9fd	-0.05930518
249	0x3e0c2ce2	0.13688996
250	0xbe1172f9	-0.14204015
251	0x3c8ea45a	0.017412353
252	0xbdd31436	-0.10306589
253	0x3d7f2b1a	0.062296964
254	0x3ce979a1	0.02850038
255	0x3d480421	0.048832063

linear_relu_stack.2.bias f4 [32]
0	0x3e27393f	0.16330431
1	0xbe1c5f0e	-0.15270635
2	0xbd2fbd92	-0.042905398
3	0x3dbec2b9	0.09314484
4	0xbcacc1f6	-0.021088582
5	0xbc08f6fe	-0.008359669
6	0xbc53e744	-0.012933556
7	0x3d3a16fc	0.045432076
8	0x3d221296	0.039568506
9	0xbe14a884	-0.14517409
10	0x3e19a743	0.15005212
11	0x3dda5568	0.10660821
12	0x3d87d746	0.06632857
13	0xbba85169	-0.005136658
14	0x3e1714cc	0.14754027
15	0xbde3cb70	-0.11122787
16	0xbd50e9ea	-0.051004328
17	0xbdc32b95	-0.09529797
18	0xbdcb621d	-0.09930823
19	0xbd926162	-0.071474805
20	0xbe2daea7	-0.16961156
21	0x3e05f6cf	0.13082431
22	0x3b2a37bb	0.002597316
23	0xbe2dc709	-0.16970457
24	0x3df6787b	0.120346986
25	0xbd3ce055	-0.046112377
26	0xbd09b12b	-0.033616226
27	0xbe187afe	-0.14890668
28	0x3d5059d6	0.050866924
29	0x3de0e748	0.109816134
30	0xbe119655	-0.14217503
31	0x3ce92679	0.028460728

linear_relu_stack.4.weight f4 [3, 32]
0	0xbdb2d152	-0.08731331
1	0xbd60b6e2	-0.05486191
2	0xbdb5b514	-0.088724285
3	0x3dfd355c	0.12363693
4	0x3dd105cc	0.10206184
5	0xbc0d2f05	-0.008617167
6	0x3da0c058	0.07849187
7	0x3d9dea78	0.07710737
8	0xbe2587f6	-0.16165146
9	0x3e1048dc	0.14090294
10	0xbd7225d5	-0.05911811
11	0xbde17d05	-0.11010174
12	0x3df2eb55	0.11861292
13	0xbdf39aba	-0.11894746
14	0x3c9d582f	0.019207088
15	0xbd6b294f	-0.05741244
16	0x3e2f0442	0.17091468
17	0xbe11ef9b	-0.14251558
18	0xbe1b4bf8	-0.15165699
19	0xbc0c54ed	-0.00856517
20	0xbe11a9fb	-0.14224999
21	0x3e12666e	0.14296886
22	0xbdb3e8e8	-0.08784658
23	0xbdb47a4e	-0.0881239
24	0x3e339473	0.17537098
25	0xbe082ee2	-0.13299134
26	0xbc570819	-0.013124489
27	0xbe065e40	-0.13121891
28	0xbca64dd4	-0.020300783
29	0x3d7318dc	0.05934988
30	0xbe0f0ed3	-0.13970499
31	0xbcf1e5e0	-0.029528558
32	0xbe16316b	-0.14667289
33	0xbce0b2c9	-0.027429001
34	0x3defcb76	0.11708729
35	0xbd235f31	-0.039885703
36	0x3d6fa540	0.058507204
37	0xbd3d2972	-0.046182103
38	0xbce09254	-0.027413525
39	0x3e118913	0.14212446
40	0x3d349cf6	0.044095002
41	0xbcf5382e	-0.029934015
42	0x3dbb6d84	0.09151748
43	0x3d561d19	0.052273843
44	0x3d77a0db	0.060456138
45	0xbe05d23f	-0.13068484
46	0x3c86123f	0.016366122
47	0x3de7de3b	0.11321684
48	0xbe07697c	-0.13223833
49	0xbe126751	-0.14297225
50	0x3db75e06	0.089534804
51	0x3d0afff3	0.0339355
52	0xbe1d62ab	-0.1536967
53	0x3e307391	0.17231585
54	0x3e356dd4	0.17717677
55	0x3d8d186b	0.06889423
56	0xbc95f71a	-0.018306304
57	0x3d34b885	0.044121284
58	0x3df65da3	0.120295785
59	0xbd262386	-0.04056122
60	0x3e07ab7b	0.13249008
61	0x3e0b0be5	0.13578756
62	0x3ad202e6	0.0016022592
63	0x3e09f978	0.13474071
64	0xbe441d18	-0.19151723
65	0x3e1c2fda	0.15252629
66	0x3e10d3fd	0.14143367
67	0xbd8b548c	-0.068032354
68	0xbdb6b6e9	-0.08921606
69	0xbd9ed96e	-0.07756315
70	0x3c0540b5	0.008133103
71	0x3dfdee28	0.1239894
72	0x3e20d0d4	0.15704662
73	0x3d81cb55	0.06337611
74	0xbdc3668f	-0.09541046
75	0x3ddba100	0.10724068
76	0xbe278376	-0.16358742
77	0xbde99b57	-0.11406582
78	0x3d5f2caf	0.054485973
79	0x3e24c4ed	0.16090746
80	0xbe05fee6	-0.13085517
81	0xbd71f382	-0.059070118
82	0xbcad6e64	-0.021170802
83	0xbc7b95a8	-0.015355505
84	0xbe125bcf	-0.14292835
85	0x3e176c31	0.14787365
86	0xbd3164d5	-0.04330905
87	0xbc750d84	-0.014956836
88	0x3d834490	0.06409562
89	0x3d3ba3aa	0.04581038
90	0x3d1cfd0f	0.038327273
91	0x3cb4ed82	0.022085909
92	0x3ba286aa	0.004959901
93	0x3dcb487c	0.09925935
94	0x3df70257	0.12060993
95	0x3dfc0155	0.123049416

linear_relu_stack.4.bias f4 [3]
0	0xbcc07292	-0.023492131
1	0x3e33baa8	0.17551672
2	0xbd8da053	-0.06915345
