Parameter/hopeDDPG/2.pth (torch, 8407 bytes, 5 tensors)

linear_relu_stack.0.weight f4 [32, 14]
00000000: 8154 29bb dd27 99be 6986 78be d6a4 803e
00000010: 5dec 2bbe 5325 16bc 2949 6fbe 9d8e bdbe
00000020: 68a3 ac3c 9561 79be 6875 523e e7d6 7ebb
00000030: 2cc8 0ebe e1c9 0ebe 107e 733d cd37 cd3d
00000040: e0dc 4ebd 309a c53d dcc1 11be 8642 813d
00000050: da48 6bbe 8ce0 fb3d 09de 6e3e b09d 613e
00000060: 1aac 8abe 2f43 7a3e 5d5d 88be c100 b03d
00000070: 6f34 cfbd d07c 853e 6ad9 f3bd 1b66 80be
00000080: 22ae 123e 33a5 2f3e a489 0c3e 5a63 5ebe
00000090: 6f12 c7bd 7646 853e 43ea 4cbe 4886 f03d
000000a0: bc27 c1bd 103e ccbc c558 003d 7898 a73d
000000b0: b603 81be b428 03be 708c 43be 4550 5b3e
000000c0: 3576 70be 66ac eb3d 1669 3dbe fcfe 9c3d
000000d0: 4b82 093e cbcd 81be 4906 e73c aa05 f33d
000000e0: 52d0 c33c b238 09bc edf2 46bd 4100 3b3e
000000f0: 9497 1b3e e886 193e cc93 283e 8928 523d
00000100: 2f6b 4cbe ae45 b0bd 309f 22bd 44bf 543e
00000110: 8c8a 9cbd d095 423e 3cb5 87be 0e58 3d3d
00000120: e53d 0ebe c85a c6bd 13e1 6e3d a448 85bd
00000130: f1cb cebb d717 073e 4d6e 3dbd 23f4 153e
00000140: 8471 63be a27e 51be df79 873e 7d71 493e
00000150: 9b9f 8abe abdb 4e3e 5ace 66bd 3472 513d
00000160: bd0c 103e 33fb 3b3e 65b3 10be a7b4 48be
00000170: bcf2 863d 9d25 82bd 9ac0 08be 63e7 2cbd
00000180: c89a 5d3c d042 fe3d 6f9f 07bd c0ef cf3c
00000190: eff9 82be dcad 85be e2bd 6cbe d337 66be
000001a0: 5203 4cbe c596 97be 8b01 3fbe d846 6a3e
000001b0: 79a8 b63b 457f 40bd 9caa 2cbe ee8e 343e
000001c0: ca6f 5abe c4f2 b13d 0972 80be dad5 e63d
000001d0: 8a01 023e 6013 1ebe 21e1 48be 5315 0f3e
000001e0: 75d7 413e b5bf 8cbd 513b 76be c5a9 78be
000001f0: a21f ed3d 7500 80be 576c a2bd 9c01 cbbc
00000200: 6663 19be 0f49 473e 1bd9 513e 27f7 e93d
00000210: 53b6 db3d a865 213c e5e8 09be 741b 5e3e
00000220: efe2 d93d 8a02 05be 49a6 7b3e 99d6 42be
00000230: 1488 023f a3a0 e1bd efcb 6d3e 1fde 013e
00000240: 7df6 1f3e 8e2c 8f3e b05f 583e 83ad 733e
00000250: 8dc3 b5bd f8be 66be 0464 e33d e0b5 5fbe
00000260: cfd4 01be 374b 61be 8441 b0be 1e6a 22be
00000270: 37eb a7bc 44ba 56be 721e 80bc 2789 843d
00000280: 1294 d23d ee2b a0bd ce77 68be 20a3 d9bd
00000290: 5f9c 73be 56b8 203e d6e9 2b3e fe88 b43d
000002a0: 25f1 85be dd24 4d3e 28b9 cb3d 6821 293e
000002b0: 66da 153e 7e23 453e 6893 86be 29b1 ae3c
000002c0: ccd7 ec3d bd06 80bc c5d0 0cbe bca7 f73d
000002d0: 9608 81bd 23a6 203e 506a debd 15f5 82be
000002e0: f4ef 33bd 8d98 403d 01c9 d7bd 055e 823e
000002f0: be49 583d 444c 843e 6a6f b33d f944 ecbb
00000300: 4df9 a23b e555 a4bc d0ae 04be 974a e53d
00000310: 659f 153e dd55 583e aa82 f03d a378 49be
00000320: efd4 6f3e 063d 423e a6d8 9abd 9b6f 353e
00000330: 6955 03be 18f0 0dbd 6891 b43d cd5b 333e
00000340: 7dcb 21be 8f7d 2c3e 1936 cb3d 3f6e 44be
00000350: 70e7 b43d 56cd debb 910e 66be e0c8 c03c
00000360: 8e4f 733d d7c9 933d 83fd 2ebe e0a3 c23c
00000370: f395 bbbd 5367 3d3e a39c b5bc 5aa0 4e3e
00000380: d0d4 8d3d c8e9 80bd 693b cb3c aa1e 56be
00000390: c53a 1c3e a810 593d f3be 8a3e a276 2c3e
000003a0: c7a9 5cbd 3461 4d3e cb9a a63c 6c01 debd
000003b0: 1999 223e 261f 24bc e996 363d 0666 c73c
000003c0: 64fd 003e a3f1 e0bc 5a8f bf3c 494b ec3c
000003d0: e2d3 d7bd 6d0d 513e 79e1 7d3e f321 18be
000003e0: 3735 7f3e fdfc 93bc 0eca 2e3d 1619 f03d
000003f0: 837c 503e 7fdd 2abe 2689 ecbd c399 1dbe
-0.0025837722 -0.29913226 -0.24270023 0.2512576 -0.16789384 -0.009164172 -0.23367752 -0.37022868
0.021074012 -0.24353631 0.205526 -0.0038885416 -0.13943547 -0.13944198 0.059446394 0.10020409
-0.05050361 0.096485496 -0.14234108 0.063115165 -0.2297701 0.12298688 0.23326887 0.2203281
-0.27084428 0.24439691 -0.2663373 0.08593894 -0.10117423 0.26071787 -0.11906703 -0.250779
0.14324239 0.17152862 0.1372438 -0.21717587 -0.09720313 0.2603032 -0.20011239 0.11744362
-0.09431407 -0.024931937 0.031334657 0.08183378 -0.25198144 -0.12808496 -0.19096541 0.21417339
-0.23482592 0.11507492 -0.18497118 0.07665822 0.13428609 -0.2535232 0.02820124 0.11866315
0.023903046 -0.008375334 -0.048571516 0.18261816 0.15194541 0.14992869 0.1646263 0.05130819
-0.19962762 -0.0860704 -0.039702594 0.20776087 -0.07643613 0.19002461 -0.26505458 0.046226554
-0.13890798 -0.09685284 0.058320116 -0.06507996 -0.006310933 0.13192688 -0.04624777 0.14643912
-0.22211272 -0.20458463 0.26460168 0.19672199 -0.27074894 0.20200984 -0.056349136 0.051134303
0.1406736 0.18357544 -0.14130934 -0.19600163 0.06589267 -0.063548304 -0.13354722 -0.042212855
0.013525672 0.12415087 -0.033111032 0.025382876 -0.2558131 -0.26109207 -0.2311931 -0.22482233
-0.19923142 -0.29607216 -0.18652932 0.22878587 0.0055742827 -0.046996374 -0.16861957 0.17632648
-0.21331707 0.08688882 -0.25087002 0.11271258 0.126959 -0.15437078 -0.1961713 0.13972978
0.18929847 -0.06872503 -0.24046065 -0.24283512 0.11578299 -0.2500035 -0.079308204 -0.02478104
-0.14979324 0.19461463 0.20492975 0.11424094 0.10728135 0.009850897 -0.13467748 0.2169016
0.10638987 -0.1298925 0.24575152 -0.19027175 0.5098889 -0.11016967 0.23222326 0.12682389
0.15621372 0.2796368 0.21130252 0.23796658 -0.08875189 -0.22533786 0.11103061 -0.21846724
-0.12678836 -0.22001348 -0.34424984 -0.15860793 -0.020497901 -0.20969492 -0.015639517 0.06471472
0.102821484 -0.07820879 -0.22701952 -0.10626817 -0.2379012 0.15695319 0.1678842 0.08815192
-0.2616054 0.20033593 0.09947425 0.1651665 0.14634094 0.1925182 -0.26284337 0.02132471
0.115645975 -0.015628213 -0.13751514 0.1209254 -0.06300466 0.15688376 -0.10860121 -0.25577608
-0.04393001 0.047020484 -0.10536385 0.25462356 0.0528047 0.25839436 0.08761485 -0.0072103706
0.0049735666 -0.020060489 -0.1295731 0.111958675 0.14611585 0.21126504 0.11743672 -0.19674926
0.23421071 0.18968591 -0.07560854 0.17718355 -0.1282555 -0.0346528 0.088167965 0.17515488
-0.15800281 0.16844772 0.09922428 -0.1918268 0.08833206 -0.0067993803 -0.22466494 0.023533285
0.05940204 0.07216232 -0.17088895 0.023759782 -0.0915946 0.18496446 -0.022169417 0.20178357
0.069253564 -0.0629459 0.024808602 -0.20910135 0.15256794 0.0529944 0.27098808 0.1684213
-0.05387285 0.20056611 0.020337483 -0.10840115 0.15878715 -0.010017192 0.044577513 0.02434064
0.12596661 -0.027458971 0.023383785 0.028844493 -0.1053846 0.20415278 0.24793042 -0.148567
0.24922644 -0.01806497 0.042673163 0.11723535 0.20359997 -0.16686057 -0.115495965 -0.15390687

linear_relu_stack.0.bias f4 [32]
00000000: 8a37 8f3d d559 e5bd e42c 7b3e e95d ebbd
00000010: 68c3 4fbe 12fb 15be b742 c93d e8ea 333e
00000020: 231c 17be 9672 ab3e 95e4 323e 943d bd3d
00000030: 6160 ab3c fbef 18bd 6ad4 b93e 782e 5b3e
00000040: 477d 6d3e ff1c 83be 27de 103e e03c 0a3e
00000050: 60df 94bd 3c65 26be ba27 5cbe ce1e 74be
00000060: e443 eb3d c6a3 55be c2c1 b3bc 2b17 643d
00000070: 1249 1cbe a4ac 5b3e 9a76 00be 0f99 8a3d
0.06993015 -0.11198775 0.24528843 -0.11492521 -0.20289385 -0.14646557 0.09827178 0.17570078
-0.14756827 0.3348586 0.1747001 0.09240261 0.02091998 -0.03733824 0.36294872 0.21404445
0.23192321 -0.2560806 0.14147244 0.13499784 -0.07269168 -0.16249555 -0.2149953 -0.23839876
0.114875585 -0.20863256 -0.021942977 0.055686157 -0.15262249 0.21452576 -0.12545243 0.06767475

linear_relu_stack.2.weight f4 [32, 32]
00000000: 8118 efbb ccb2 82bd be6a 823d 27ac c7bc
00000010: 6442 d6bd d867 a63d 272e 9fbc 9a15 a8bc
00000020: 5dc4 e2bd 6d97 45bb bfe5 9cbc 6861 86bd
00000030: 630a 873d 60d1 773d e55b fd3d c61d 103e
00000040: 5b34 2a3e 94e3 8fbd cd8d 633d 648b 143e
00000050: 5c34 e23d 2c8c c1ba c0e8 1a3e a9cc 9c3d
00000060: 338f ad3c 3ed0 51be a7c3 d53d 3faa d0bd
00000070: f3fe 12be 18e0 f03d 3fc5 9a3d 4b8a 013e
00000080: b252 1c3e 2f3b 8f3d f5d1 d23d fc19 28be
00000090: 06ba 4bbc 14a3 e5bb 4b95 243c 1ec4 9cbd
000000a0: 4ba3 093e 8cfa 45be e83c a1bd b4ec 40bd
000000b0: c211 a83c bb4f 63bd 54b5 27be 8a77 a53c
000000c0: cddf 2b3d c04b e9bd bae0 973c b1f2 173e
000000d0: 8c39 24be 5cac 463e ab6d e5bd b781 65bd
000000e0: 2aad 08bc fc67 3a3e b850 bc3d 7fd7 003e
000000f0: 1db2 2fbe e33e 523e 4ef5 b4bd 0d7b 45bd
00000100: dc3c 863e beab e4bd b853 e13d ace7 a2bd
00000110: 3d03 92bc 8efe 1ebe 90a6 5c3d 2031 813e
00000120: 0165 193e 9cde aabd ac17 143d f328 a13d
00000130: 7dd0 d63d eefd c0bd 29c5 c3bd e257 333e
00000140: 7e96 bdbd dc1e 0bbe e883 97bd ca33 11be
00000150: 5411 373e 6ee7 a33e 3fa2 7e3d 0a19 f1bc
00000160: ae3d 913d 3956 763e 972b 023e 8886 a83c
00000170: f79b 1a3e a964 083e 323c 24bd dac2 033e
00000180: 1643 0cbe 4cc3 033d dc03 e33d 562b b93d
00000190: 400a d9bd e52e 063e c2a7 47bd fe89 483d
000001a0: 4bba abbd e92d bd3b 41bc d33d bf7e a83d
000001b0: 8352 15be d222 f7bd 5094 263d 9fa9 74bd
000001c0: d4fa 81bd a9e1 133d 446c 563d 4409 cf3d
000001d0: 165b 11be 348f 673d f474 2ebd 2701 2d3e
000001e0: ba4c f9bd d0da f73d 5138 953c 9dce 04be
000001f0: 4d5f 9a3d 6055 313e b77c 003e 376e 12be
00000200: 3cb3 043e 89ab eb3c e3dd 7cbd 4de6 30be
00000210: 1cbb 0ebe cead 083d d643 9d3d 8b34 20bd
00000220: 7e5d 1e3e c5ae 703c 74cc 8dbd 25f3 ff3d
00000230: 94b4 103e 865e b6bc 5a1e 003e 3833 803c
00000240: 8048 703d 581b bebd 794d 35be ac88 413d
00000250: 6243 e13d 01a0 5bbe 69de 0fbe 7291 b7bd
00000260: 2786 b43d 621c a73d dc86 d13c 8615 c3bc
00000270: bf88 b33c d963 a8bc af25 9e3c 436b c2bb
00000280: e967 06bc 5876 88bd ff04 7cba 0a73 eb3d
00000290: 3978 05bd 5e2b 22be 6962 133e dd95 28be
000002a0: b768 1a3d 37f9 0cbe ab53 003e fe93 8a3b
000002b0: c3e0 7bbd 40f0 353d 2934 f6bd 81fe f0bd
000002c0: ccd4 183e 084c 62bc 5f9e 2fbd e8fc bcbc
000002d0: 9126 d43d 6ea6 e13d 366c d23a 1850 323e
000002e0: be96 073d 143d 083e 75c5 0d3e 4ab6 293e
000002f0: c08a f63d d362 813d f6ff ab3d 3d84 d8bd
00000300: 4abb 06be d0bd 1b3e 8b21 2f3e 852d 0fbc
00000310: 510c df3d 455a 06be 6288 dcbd 07c8 523d
00000320: e782 623d 95c0 223d eb67 13be a757 813d
00000330: 9851 613c f1d9 283e 454e abbd 91ad 29be
00000340: 31ee a3bc 4261 853d f6c7 0e3e d9f8 9f3d
00000350: 5b48 1ebe 04f0 453d 81c1 29be 557b 9dbc
00000360: 531f f7bd 6286 c73d 41b1 b7bd b73a c6bd
00000370: 7419 273e 22af 85bd d8dd 8cbc a8c2 283e
00000380: e51d e4bc abf0 973c b740 d7bd ac52 0e3e
00000390: 8205 053e 08f2 fdbc e9d1 d0bd bbc7 ba3d
000003a0: 40f7 32be e463 eebd 9cd3 983c d3dd 12be
000003b0: 4a7f 203d 87e5 303d a78f f33c e9b6 b93d
000003c0: 9850 ae3d 6813 a83d 6958 9b3c 73a0 7b3d
000003d0: 9e99 66bd d5b3 d53c bebd 393d 9eb9 9f3d
000003e0: 24ae 49bc 0ae4 073e 1dff 013e e22b fa3d
000003f0: 7890 5fbd 4454 b53c 7187 bfbc bb57 233e
-0.0072966223 -0.06381759 0.06368016 -0.02437408 -0.10461882 0.081252754 -0.019431187 -0.020518113
-0.110726096 -0.0030150071 -0.01915252 -0.065615475 0.06593778 0.06050241 0.12371043 0.14073858
0.16621535 -0.07025829 0.055555154 0.14506298 0.11045143 -0.0014766506 0.1512785 0.07656223
0.021186447 -0.20489594 0.10437708 -0.10188722 -0.14355068 0.117614925 0.07557153 0.12650411
0.15265921 0.0699371 0.102939524 -0.16416162 -0.012434488 -0.007007966 0.01004536 -0.07654594
0.13441198 -0.19333857 -0.07872945 -0.047100738 0.02051628 -0.05549596 -0.16377765 0.020198602
0.04196148 -0.11391401 0.018539775 0.14838673 -0.16037577 0.19401687 -0.11202558 -0.05603191
-0.008342067 0.1820373 0.091950834 0.12582205 -0.17157789 0.20531802 -0.08835851 -0.048213053
0.26218307 -0.1116557 0.11002296 -0.07954344 -0.01782381 -0.15526792 0.053869784 0.25232792
0.14979936 -0.083432406 0.036155388 0.078691386 0.10488985 -0.09423433 -0.0955909 0.17513993
-0.0925722 -0.1358599 -0.07398206 -0.14179912 0.17877704 0.32012504 0.06216645 -0.029430885
0.070918426 0.24056329 0.1271194 0.020571962 0.15098558 0.13319649 -0.04009647 0.12867299
-0.13697466 0.03216867 0.110847205 0.09041469 -0.10597658 0.13103826 -0.04874397 0.048959725
-0.08385142 0.005773295 0.10338641 0.082273 -0.14582257 -0.12067188 0.040668786 -0.059732076
-0.0634667 0.03610388 0.052349344 0.10109189 -0.14194903 0.056533054 -0.042592004 0.16894971
-0.121728376 0.12102282 0.01821533 -0.12969442 0.075377084 0.17317724 0.12547575 -0.14299856
0.12958997 0.028768318 -0.061735045 -0.17275353 -0.13938564 0.033368878 0.07678954 -0.03911261
0.15465352 0.014690106 -0.06923762 0.12497548 0.14131385 -0.02226187 0.12511578 0.015649423
0.05866289 -0.09282559 -0.17705335 0.04724948 0.109991804 -0.21447755 -0.14049686 -0.08963288
0.0881465 0.081597105 0.025577001 -0.023813974 0.021915792 -0.020555424 0.019305078 -0.0059331967
-0.008203485 -0.06663197 -0.00096137816 0.11496551 -0.032585356 -0.15836856 0.14393009 -0.16463418
0.03769752 -0.13766943 0.12531917 0.004229068 -0.061493646 0.044418573 -0.120216675 -0.11767293
0.14924926 -0.013812073 -0.042875644 -0.023069814 0.103589185 0.11018072 0.0016053978 0.17413366
0.033102743 0.1330455 0.13844855 0.16573444 0.12038183 0.06317677 0.0839843 -0.105720975
-0.13157383 0.15209126 0.1710264 -0.00873888 0.10891021 -0.13120373 -0.107682005 0.051460292
0.05530062 0.03973444 -0.1439511 0.063155465 0.013752364 0.16489388 -0.08364538 -0.16570117
-0.02001104 0.06512691 0.13943467 0.07811136 -0.15457289 0.0483246 -0.16577722 -0.019223848
-0.120665215 0.09742428 -0.089693554 -0.09679168 0.16318303 -0.065275446 -0.017195627 0.16480505
-0.027846286 0.018547377 -0.1051039 0.13898724 0.12990382 -0.030999199 -0.10196287 0.09120127
-0.17477131 -0.116401464 0.01865559 -0.14342432 0.039183892 0.043187644 0.029731585 0.090680905
0.08511466 0.082068264 0.018963056 0.061432313 -0.056298845 0.026086727 0.045346968 0.077990755
-0.012309585 0.13270584 0.12694974 0.12215401 -0.054581136 0.022134908 -0.023380013 0.15951435

linear_relu_stack.2.bias f4 [32]
00000000: 0580 953d 09c8 94bc 9208 c33d 5264 bfbd
00000010: 0d42 52be 85ac cebd adc1 373e 227a 26be
00000020: 186c 2abe 977a e63d d2bc 703d 5aad 2cbe
00000030: daec 0e3e 1133 13bd 1066 2a3d 3955 28be
00000040: 0678 c63a bb84 5c3d 07ad 25be 0daa 553b
00000050: f1f7 693e 2294 96bb e5c2 f73c 6ba8 7b3d
00000060: c1b7 49bd 5378 cf3d e799 ffbd 0d7a 213e
00000070: 85bb 363e e034 5d3e 599c 6a3e 2eb8 6f3d
0.072998084 -0.01816179 0.09523119 -0.093453065 -0.20533009 -0.10091499 0.17944975 -0.16257527
-0.16642797 0.11253851 0.058773823 -0.16863003 0.13957539 -0.035937373 0.04160124 -0.1643876
0.0015141971 0.05383752 -0.16179286 0.003260258 0.22848488 -0.0045952955 0.0302443 0.061439913
-0.049247507 0.10130372 -0.124805264 0.15769215 0.1784497 0.21602201 0.22911204 0.058525257

linear_relu_stack.4.weight f4 [1, 32]
00000000: c39a 7d3d 2990 9fbe 9080 14bf 405a 03be
00000010: 6b31 073e 1c0a 36bc 9300 313d 5225 b1bc
00000020: 5293 15bf 08c6 8ebd 2539 983e bb07 12bf
00000030: 76c4 173e 60e0 bbbb 51bb cc3d d351 b8bd
00000040: 1a6a 213e 472a c4bb 0ece 7cbe 7371 50bd
00000050: bb60 d13e dd79 8d3d ccf9 c23d 638d 403e
00000060: 44a2 253e 6987 1cbe e6c9 2d3d 272e a63e
00000070: dd14 233e a1e9 993e 6dc7 7b3e 4f08 773d
0.06191517 -0.31164673 -0.5800867 -0.12827396 0.13202445 -0.011110809 0.04321344 -0.021624241
-0.5842792 -0.06971365 0.29731098 -0.57043046 0.14821038 -0.0057335347 0.09996665 -0.08999982
0.15763131 -0.005986485 -0.24687979 -0.050889444 0.40894112 0.06908009 0.09520301 0.18803935
0.1617518 -0.1528603 0.042428873 0.32457086 0.15925927 0.30061057 0.24587794 0.060310658
