Parameter/hopeDQN/1.pth (torch, 11415 bytes, 6 tensors)

linear_relu_stack.0.weight f4 [32, 11]
00000000: 08c6 8fbe 359c 323d f3e7 86be cce1 93be
00000010: e2b9 72bd 8f18 663d ff4c 2b3e 3680 a23d
00000020: b24c c93d 8bca 1abe e340 1a3c 4ca9 fbbd
00000030: 8086 823e 3514 683c 02c2 3bbe de83 933e
00000040: ab64 503e 3e7a 743e c0c0 673e 5e3a 1dbe
00000050: 7de4 803e d2ed 943e d50b 33bd ed6a c3bd
00000060: 05f2 913e b31a c93d e0ff 663e e8ac 55be
00000070: 65ae ec3c d15e 61be 351b c43d 49eb 1c3e
00000080: 9153 98be 9c87 81bd f91c 74be 5f2e 59bc
00000090: 4c06 763e ef07 933e 816a 62be d5ed 5b3e
000000a0: bb06 5e3d bb1c 8ebe 08f3 643e 1ed2 bebb
000000b0: 663d 12be 746f 283e c24d 42be c198 d8bd
000000c0: 7b40 f23d 8630 db3d 11d5 673e 8e2e bd3d
000000d0: c766 20bd ecb0 473e 80a6 233e f53f 43be
000000e0: 52f1 883e a4e6 183c 7c07 5abe d0b6 c73a
000000f0: a9d9 cc3d 4539 313e 2678 933e 8643 90be
00000100: 5501 66be 4627 163e ce31 993e f2ca 1ebe
00000110: d233 8ebe 2971 8a3e 834e 0a3e d9c1 473d
00000120: 6d18 e93d 26a9 e63d ae70 623d f226 3cbe
00000130: fe20 dd3d eade 2a3e aed1 983c 2773 ea3c
00000140: ad7d 213d 93ed 64bd 4234 b83d 06c2 793e
00000150: 9cd3 873d 185c 7cbe 0609 c23d bb66 13bc
00000160: 0632 f2bc fcd8 d33d 1ed3 8abe 1d5c 82be
00000170: 30e6 803c f224 413e 136f 983e 39c2 8abe
00000180: c5d1 ee3d 864d 24be 76bc 903e 697c cabd
00000190: 3f2c 1dbd c3f4 d9bd 4e96 7c3d 9d91 8f3e
000001a0: 8891 783e 6c3f 26bd 2793 033e 692d f6bd
000001b0: 9d98 3ebe cbcc 91be 8654 0cbe 7b88 53bd
000001c0: 538d a13d 23cd 923d 34d1 8bbe 3156 3fbe
000001d0: 6d18 ac3d fe62 d5bc e9d5 d13d 51b4 003c
000001e0: cee8 703e c62e 99be f391 953e 40fc 97be
000001f0: f3f2 823e 2903 32be 0c2d 953e bbfc cdbd
00000200: babc 1a39 35ab 0cbc e5a5 3c3e 6a1a 66be
00000210: 6bdf 45be e8aa 90be 0184 903e 184b 713d
00000220: 758f 773d 6f53 6a3d 4845 15be 63fe 7ebe
00000230: c9ee 363b 5400 9a3e f140 d2bd d9af e2bd
00000240: 35e9 913e 75dd 993e 4187 d63c 1652 943e
00000250: 4549 e83c 535f ca3d ceef 4dbc 9cd6 2e3e
00000260: 871a b6bd a660 1d3e b46f 99be 028c 83be
00000270: 6a6c 7e3e ba80 46be adbe 023e 04ea 6abd
00000280: 85d4 28be f361 a5bd 5d47 2a3e 5558 31be
00000290: 673a 4c3e b100 3cbd a8e4 e2bd a4b9 313d
000002a0: 98a1 8bbe 0044 9e3c 629a c9bc 33bf 5fbe
000002b0: 29bc 9c3e 08a8 8abe a2cc 3cbe fba4 10be
000002c0: 83f3 eabd db9d 8e3e 4144 723e 3463 f5bd
000002d0: 3da8 62bd dfaa 3abe 45d7 11be bfb7 933d
000002e0: 4798 903e 0d64 90be 79aa 883e f9c2 87be
000002f0: 19e3 33bd 8856 7cbe d2ee 363e fae0 71be
00000300: 6d72 bebd e79a 9a3e b7dd 8dbe 1ac6 043e
00000310: adcf 7abd 215a 59be 12a7 5cbc 43c2 0ebe
00000320: f12c 493e 89a9 49be d162 16be a4a5 e8bd
00000330: 4e8a 8b3e 7bf5 03be adb2 fe3d a9d4 9e3d
00000340: 8149 86be e105 80be 5aac f739 0b79 d13d
00000350: 3121 68be 7547 7cbe 767f a43d 6539 663e
00000360: e1fd 95be d1c1 cb3c 95ca 7e3e 9e7c c3bd
00000370: a9e1 6cbe d6dd 34be 3b5a 483e 4d7a b73d
00000380: 87c1 173e 8e95 283e 9b33 88be 260e 963d
00000390: 75e8 81be e80d 0bbe 24f2 34be 6a1f 133e
000003a0: 6057 4e3e dbfb 4d3d 585f fdbc 793f 0b3e
000003b0: 6996 e83d 40ce 9abc 0e3a 4bbe 2d9d f7bc
000003c0: d7fc 893d 5053 7e3d 3b2a d23c f648 6fbd
000003d0: c70f 0bbe e94f 803e 2ecf fa3c b3d2 2abd
000003e0: c1ff b8bd 9015 cdbd 2c7c f5bd b0fd dc3d
000003f0: 3efb 3fbe 91c6 913e fb2f 16bd d31f 623e
-0.28080773 0.043606002 -0.26348838 -0.28883207 -0.059259303 0.056175765 0.1672859 0.079346105
0.098290816 -0.15116327 0.009414884 -0.1228815 0.2549324 0.014164974 -0.18335727 0.28811544
0.20350902 0.23874757 0.22632122 -0.15354297 0.25174323 0.29087692 -0.043712456 -0.09541879
0.2850496 0.098195456 0.22558546 -0.2086674 0.028891752 -0.22008826 0.09575502 0.15324129
-0.29751256 -0.063246936 -0.23839177 -0.013255685 0.2402584 0.2871699 -0.2211094 0.21477444
0.054205637 -0.27756295 0.22358334 -0.0058233878 -0.14281234 0.16448766 -0.18974975 -0.105760105
0.11828705 0.107026145 0.22639872 0.09237395 -0.039160516 0.19501084 0.15981483 -0.19067366
0.26746613 0.009332333 -0.21291918 0.0015236977 0.10002453 0.17307003 0.28802603 -0.28176516
-0.22461446 0.14663419 0.2992081 -0.15507105 -0.2777391 0.2703946 0.13506512 0.048768852
0.11381612 0.11262731 0.05528324 -0.18374231 0.107973084 0.16686597 0.01865467 0.028619362
0.039426494 -0.05589063 0.089943424 0.2439042 0.06632158 -0.24644506 0.09474377 -0.008996661
-0.029564869 0.10344121 -0.27114195 -0.25460902 0.015734762 0.1886175 0.29772243 -0.27101305
0.11661104 -0.16045198 0.28268784 -0.098870106 -0.038372274 -0.10642388 0.06166678 0.28040782
0.24274266 -0.040587828 0.12849103 -0.1202038 -0.18612905 -0.28476557 -0.13704118 -0.05164383
0.078882836 0.07168033 -0.27308047 -0.18685223 0.08403096 -0.02604818 0.10245878 0.007855491
0.23526308 -0.29918498 0.29212913 -0.2968464 0.2557598 -0.17384018 0.2913593 -0.1005797
0.0001475689 -0.008585741 0.18422659 -0.22471014 -0.19323508 -0.2825539 0.2822571 0.058909506
0.060439546 0.057208475 -0.1457721 -0.24901728 0.0027913323 0.30078375 -0.10266293 -0.110686965
0.28498235 0.3005177 0.026187541 0.28968877 0.02835525 0.09881463 -0.012569381 0.17074054
-0.088917784 0.153689 -0.29968035 -0.25692755 0.24846044 -0.19385043 0.1276805 -0.05735208
-0.1648732 -0.08075323 0.16628785 -0.17318852 0.19944154 -0.045899097 -0.11078769 0.04338993
-0.27271724 0.019319534 -0.024609748 -0.2185028 0.30612305 -0.27081323 -0.18437436 -0.14125435
-0.114722274 0.2785481 0.2365885 -0.11981812 -0.055336226 -0.18229245 -0.14242275 0.07212781
0.28241178 -0.28201333 0.2669256 -0.2651594 -0.04391775 -0.24642384 0.1786454 -0.23620978
-0.09299169 0.30196306 -0.27708218 0.12966195 -0.06123321 -0.21225788 -0.013467567 -0.13941292
0.1964605 -0.19693579 -0.14686133 -0.113597184 0.27253956 -0.12886612 0.124364235 0.077554055
-0.26227954 -0.25004485 0.00047239923 0.10228165 -0.22668912 -0.24636634 0.08032124 0.22482832
-0.29295257 0.024872692 0.24881966 -0.09545253 -0.23132958 -0.17662749 0.1956567 0.08958874
0.14819919 0.164633 -0.26601872 0.07326917 -0.25372663 -0.13579524 -0.17670494 0.14367452
0.20150518 0.050289016 -0.030929253 0.13598432 0.113568135 -0.018897176 -0.19846365 -0.030226314
0.067376785 0.06209117 0.025654903 -0.05841919 -0.13580237 0.25060967 0.03061637 -0.041704845
-0.09033156 -0.10013878 -0.119865745 0.107905746 -0.18748185 0.28471807 -0.03666685 0.22082452

linear_relu_stack.0.bias f4 [32]
00000000: 57da 5dbe ab93 08be 09d6 6abe 2a3d f13d
00000010: 53d2 853e e91a 6ebe 7f8e af3d f649 b43c
00000020: 62e1 d93b a834 71bd 5d34 27be 93dc a93d
00000030: d945 69be 94fd 3c3e 0c95 c23d c779 3d3e
00000040: 6e43 94be 07d9 68be f5fc 92bc 1890 293d
00000050: 27b0 633e f692 f63d 0c24 c2bc a388 8fbe
00000060: 02d9 fabd 8c87 2bbe 2775 223e a5b0 ea3d
00000070: 0ba4 36be 503c 4fbd 0b6e 71be a480 96be
-0.21665321 -0.13337581 -0.2293321 0.11779244 0.26137027 -0.23252453 0.08572101 0.022007924
0.006649182 -0.058888108 -0.16328569 0.08294024 -0.22780551 0.18456107 0.09501085 0.18503486
-0.28957695 -0.2273904 -0.017942885 0.041397184 0.22235166 0.12039749 -0.02369883 -0.28033933
-0.12248422 -0.16750926 0.15865003 0.114594735 -0.17836015 -0.050594628 -0.23577134 -0.2939502

linear_relu_stack.2.weight f4 [32, 32]
00000000: 92d4 013d d5d9 7fbd 8ae4 f13d 752b 1dbc
00000010: a935 17be 999b e73d 5639 06be e3e5 1e3d
00000020: abc3 1abe 82fc 04be 4161 b8bd da83 e03d
00000030: 9863 2abe 9d8e 0dbe c251 efbd 4405 0c3e
00000040: 476e c4bd d973 08be 8171 f43d 15a4 00be
00000050: f464 a2bd e62f 09be a55a 29be 8d51 24bd
00000060: 652d 293d 9f5d d73b 98a4 3ebd f66e a03d
00000070: 28d1 b5bd 3c3b 0bbe 21de d33c 6fd3 2abc
00000080: 807e 67bc f0a8 2cbe 5950 c0bc 0b32 47b8
00000090: ad27 1ebd 6c61 843d ae81 003e ae3d 293e
000000a0: eec8 f93d 5cd5 d63d e2e4 c63d 3c02 0b3e
000000b0: 56b4 1ebe c342 3fbd a41a 81bd f53f 153e
000000c0: 0a65 123e d90e 4cbd 7c6d 80bd 5f0a 173d
000000d0: 9cf0 f0bb c939 803b 273d 2cbe 9b40 623d
000000e0: e0c5 21be 55df 723c 4f3d 03be e6c2 3d3d
000000f0: e701 303e c966 15be b1f6 ad3c 3ec4 e3bd
00000100: 625f 5c3d 5ed0 8dbd a9de ef3d 0b39 153d
00000110: 8978 f83c 369f 13be 1904 b33d 0978 363c
00000120: 31df 9e3d 2918 b03d d0ab 79bd 245b 6b3b
00000130: 66cf 883d 7bd0 1ebe fe2f aabd 3167 23be
00000140: d1fd 5b3d 125d 2c3e 09d6 233d 06c3 c73d
00000150: 2562 183d e98b debd fc87 383d d9b7 28be
00000160: 6405 e43d 6311 223d d792 153e 8afc c4bd
00000170: 70e4 e43d 27f0 07be 1d3d 39bc 42e0 12be
00000180: 9441 e9bc deab 273e c8ff 5fbd d704 943c
00000190: eea3 31be 0a76 cc3d 93b5 aeb9 0e51 203e
000001a0: 6417 9bbd 0cdd 283e 6868 233e f7ef 2f3e
000001b0: dc1c 07be 04e4 b73d d8cb f9bd 1765 f43d
000001c0: ba55 f0bd 2407 2d3e cc6c 133e a437 463c
000001d0: 094f b13d e252 5e3c f39c 533d 7902 92bc
000001e0: aa87 293e d167 66bc 96ef 43bc b80b c83d
000001f0: 7bb3 05be 3ce1 81bd 8592 31bd 3a31 2bbd
00000200: 97d7 e83b 7bc6 ab3d 5893 a6bc 1ed6 22be
00000210: 0edc 23bd 936a 463d c233 063c a35a ebbd
00000220: 2534 de3d 647f bf3b d2aa 253e de18 913d
00000230: 9194 c2bd 35b0 913d 92c9 f73c dfdd b4bd
00000240: f727 b03d 09df 4d3d 61f4 263e e28a 1d3c
00000250: 2b46 903d 0a73 1fbe 61fb ccbd 79a2 2f3d
00000260: 5a57 023d ba9b b93d 97e1 e43d 4e37 083d
00000270: b80b 2bbe 0c11 623c b472 1bbd 5506 0a3d
00000280: 6a25 8c3d 5ee6 1c3e da88 a6bd 8e9f 2cbc
00000290: d5c9 e7bc 76fa 813c 9f53 ff3d b475 3cbd
000002a0: 1a32 dcbd 1718 63bd c35b 6f3c e23d 2fbc
000002b0: eeed 9cbd 6efc 373d 61bc 203e 8667 f3bd
000002c0: 1d45 9ebd 23a3 1f3e 584b 063d 28ef 013e
000002d0: a448 d2bd cbae 43bd 25c1 c5bd 31b4 3f3d
000002e0: 5d7a 253e da37 ddbd 1f51 293e 09b1 b83c
000002f0: c1e7 173e c930 4bbb 55d3 bcbd 9109 103d
00000300: 4628 693d 70f9 8cbd 244e 00bd 4422 0e3e
00000310: 0f03 a1bb 925c e9bc 7b86 363d d3c6 03be
00000320: e64d 8b3d 169c f7bd 9683 9abd 216f 12be
00000330: 9221 e03d 23db 943c 8f4a 6a3c 4fc3 c6bd
00000340: d6fa 843d 0e5a 08bd 40e3 c03d 0a39 403d
00000350: 66d4 2b3d 711c 4bbd 7523 2f3e 9f5b 093d
00000360: 0c2e 363d c6a3 503d 6345 b3bd 3c61 d5bd
00000370: 3898 ea3d c30f 27be 87b3 09be 05b4 913d
00000380: dbd2 2fbe 8c0c 33be acad dfbd 25e8 ccbd
00000390: 4292 2cbc ddbd 2a3e 9d46 01be 4aef c13d
000003a0: 53e6 aa3d 8c91 34bd bc71 acbd 2402 5d3d
000003b0: 3f7b 7a3c e76e 2abd a04e 32be 013b b4bd
000003c0: 60a5 c33d dc25 8fbd 4218 c53d c080 153e
000003d0: 1e44 6ebd db69 06be ebe3 23be 21f0 f8bd
000003e0: 5a46 843d ba23 273e c034 23be b38e ac3d
000003f0: 426a 0abe bc9e 063e 81f5 cbbd 65d6 e23d
0.031696863 -0.0624636 0.118111685 -0.0095928805 -0.14766563 0.11308975 -0.1310781 0.038793456
-0.15113704 -0.12986949 -0.09002925 0.10962649 -0.16639555 -0.13823934 -0.11685516 0.13673884
-0.09591346 -0.13325442 0.11935712 -0.12562592 -0.079294115 -0.13397178 -0.16538484 -0.040116835
0.041303057 0.00657244 -0.046543688 0.07833664 -0.08877784 -0.13596815 0.025862755 -0.010426386
-0.014129281 -0.1686132 -0.023475813 -4.7491903e-05 -0.038612057 0.06463894 0.12549469 0.16527435
0.121965274 0.10489914 0.09711625 0.13575071 -0.1549848 -0.04669453 -0.063039094 0.14575179
0.14296356 -0.049818847 -0.062708825 0.036875125 -0.0073529016 0.0039131385 -0.16820203 0.055237394
-0.1579814 0.014823754 -0.12816356 0.046328448 0.17188226 -0.1458999 0.021235796 -0.111214146
0.0538019 -0.069245085 0.11712391 0.036431354 0.030330913 -0.14416203 0.08741016 0.011137017
0.07757414 0.08598358 -0.06095487 0.0035912478 0.06680183 -0.15509216 -0.08309935 -0.15957333
0.053708855 0.16832379 0.03999904 0.09753995 0.037202973 -0.108665295 0.04505156 -0.16476382
0.11133841 0.039567363 0.14606796 -0.096184805 0.111763835 -0.13275205 -0.011306074 -0.1434336
-0.028473653 0.16374156 -0.05468729 0.018068714 -0.1734769 0.09983452 -0.0003332315 0.1565592
-0.07572821 0.16490573 0.15957797 0.17181383 -0.13194603 0.089790374 -0.12197083 0.11933344
-0.11735101 0.16897255 0.14396971 0.012098227 0.08657653 0.0135695655 0.05166335 -0.017823445
0.16555658 -0.014062838 -0.011958977 0.0976786 -0.13056748 -0.06341788 -0.043352623 -0.041794993
0.0071057784 0.083874665 -0.02033393 -0.15901992 -0.040004782 0.04844148 0.008191051 -0.11491897
0.108497895 0.0058440436 0.16178444 0.07084821 -0.09500993 0.07113687 0.030247483 -0.08831381
0.08601373 0.05026153 0.1630416 0.009615632 0.070446335 -0.15571228 -0.10008884 0.042879555
0.031821586 0.090629056 0.1117584 0.033255868 -0.16703689 0.01379801 -0.037951186 0.033697445
0.06843074 0.15322253 -0.08131571 -0.010536088 -0.028294483 0.0158665 0.12467121 -0.046010688
-0.107517436 -0.055442896 0.01460928 -0.010695906 -0.07662569 0.04491847 0.15696861 -0.1188498
-0.07728026 0.15589575 0.032786697 0.12688887 -0.10267761 -0.047774117 -0.0965598 0.046802703
0.16159959 -0.108016685 0.16534851 0.022545354 0.14834501 -0.003100442 -0.09219996 0.035165373
0.056923173 -0.06883514 -0.03132452 0.13880259 -0.0049136947 -0.028486524 0.044561844 -0.12868814
0.06801967 -0.12090318 -0.07544629 -0.14300205 0.10943903 0.018170899 0.014300003 -0.09705221
0.06493156 -0.033289008 0.094183445 0.046929397 0.041950606 -0.04958767 0.1710337 0.033534642
0.044477507 0.050937437 -0.08753469 -0.104189366 0.11454815 -0.16314606 -0.1344739 0.07114414
-0.17170279 -0.17485255 -0.10921797 -0.100052156 -0.010532917 0.1667399 -0.12624593 0.09469469
0.08344712 -0.044084117 -0.084201306 0.05395712 0.015288173 -0.04160967 -0.17412806 -0.088003166
0.09553027 -0.06989643 0.096237674 0.14599895 -0.05817043 -0.13126318 -0.16004913 -0.12155176
0.06458731 0.16322222 -0.15938091 0.08425655 -0.13517097 0.1314649 -0.099589355 0.11076049

linear_relu_stack.2.bias f4 [32]
00000000: bb61 dbbd cf05 09bd 60c8 02be fff5 213e
00000010: b415 cc3d 2537 b03c 1d0b b73d 0619 00be
00000020: dcd7 5ebc 3a1c 88bb 99a1 513d 5f4e 8cbc
00000030: 752e 993d af55 c7bd 8c0f 103e f342 003e
00000040: abcc a5bd b738 ddbd dcd4 303e e05a 953d
00000050: 7cef 47bd 0dac 03be 64bf d0bd 78cc a7bd
00000060: 0798 1cbe f5d4 4c3d cf3c 863d 00cb b53d
00000070: 229c 20be d1b7 f33d bb57 f4bd 4151 20be
-0.10712 -0.033452805 -0.1277175 0.15816496 0.09965077 0.02151067 0.089376666 -0.12509546
-0.01360127 -0.0041537555 0.051179502 -0.017127214 0.07479564 -0.0973314 0.1406843 0.12525539
-0.08095678 -0.10801833 0.172687 0.07292724 -0.048812374 -0.12858601 -0.10192755 -0.08193296
-0.15292369 0.05000778 0.06554567 0.0887661 -0.1568456 0.119002946 -0.11930796 -0.15655996

linear_relu_stack.4.weight f4 [27, 32]
00000000: 10bb e9bd b8fa 043e 80bd c33d b75c a7bd
00000010: 01a4 20bd a84f 64bd f98d eb3c 7e73 d3bb
00000020: 1176 c9bd b7ea 8cbd dc20 f83c 5597 423d
00000030: bb31 3abc 16f6 dbbd cc3d c6bd f45f 413d
00000040: d97b 303e 4613 333e d00d 27be 42d3 c2bd
00000050: 52c0 603c 5ed5 8a3d fbd6 02be 1161 a73d
00000060: 78ca 703d a3ea 19be 4d1f 813d b771 2c3e
00000070: fab6 6a3d 22d1 213e e87f 963d c255 a7ba
00000080: 97cc 36bd a110 e6bc d981 bdbd cca7 b8bc
00000090: f45e e53d a07f 2fbe 8b5d f6bd 6d0f 9e3c
000000a0: 7667 793d 01c0 d73d 7864 dcbd f6ec e13d
000000b0: bc50 a4bd ffae f9bd 48a0 d83c 33d3 4cbd
000000c0: fb8d e23d 8a7d fd3c 6946 983d 0037 81bd
000000d0: 6a6e 01bd 3c27 2e3e 6c0b 11be b61b b93d
000000e0: 5a9b 8ebd effb c9bd af1c 30be f405 793d
000000f0: 2ff2 c9ba ad71 b2bd e823 e13c 5997 c23d
00000100: 6ace 94bd e8d3 eabd 0382 b73d 172f a1bd
00000110: ed21 72bd b414 fdbd 61ed 313e 33f0 1dbc
00000120: 4d03 213e bd0f ed3d 1520 813d 5fbd f6bd
00000130: b869 34be 6276 09be 1e32 033d 737b 69bd
00000140: 317a 193e 79fb 123e c28d ba3d d4c7 e4bc
00000150: 9f31 f13d 7337 edbd 405a 23be a1aa 4abd
00000160: 0d4a 33be 0dce e53b 6d17 093e 7a69 17be
00000170: aab9 543d e4e5 143d f590 693c 6b5a d13d
00000180: e337 8ebd 331b 993d 592f e5bc 8e9e 14be
00000190: 47cb 0ebe 3fec 17bc fb6e 163d 6c25 ae3d
000001a0: 2470 fdbc 3d42 f1bc c6e9 8a3d 5315 25bd
000001b0: 48e4 f3bd d0a0 043a e073 d8bc 23f0 1d3e
000001c0: 7303 c23d 51ad 2a3d 3f5d 973d 9615 83bc
000001d0: 7db3 2b3e f4db 31be 3646 f0bd 1e26 c93d
000001e0: 6b9c 5ebd 5eda dc3d 82e3 243e a62e ed3d
000001f0: 10e9 abbc d077 843d 438e 21be 91a9 d5bd
00000200: fc6b 1abd 27fe 0e3e 7b1f 1cbd 8cf5 e63d
00000210: af3f 8a3d 618a ba3d 3e6b 03be a787 71bd
00000220: d1d9 f83d c306 f93d fcbf 31be e0ec 28bd
00000230: 34e7 c4bd bbf9 ce3d 6604 033e 8223 cc3c
00000240: 58ff 493d ab57 6e3d e568 133d 55d1 ecbd
00000250: c402 debc 4ef1 7abd c23a 003e 8402 64bd
00000260: 5f85 003e bbe9 c9bd f6cf 20be da6d 0a3e
00000270: c463 23be 3c60 39bd e023 27bd 2391 09be
00000280: 9506 fa3c fff5 a5bd 36cc 863d 4af5 b1bd
00000290: acd9 bfbd fcf8 d7bd 3f52 7e3c 0aee eebd
000002a0: 5875 853d 15a5 f8bb fd8c 92bd 25b2 c93c
000002b0: 524c f6bc d798 40bd a97d b1bb e255 0ebe
000002c0: 3589 29bd 8003 07be b709 073e 5829 113e
000002d0: 840c d8bd 73ad 2e3e 1f56 043e 9974 b73c
000002e0: 960a d63d 2ffb 593d 12df 723c 0a54 6fbd
000002f0: 2f44 0cbd 557c 2b3e fee5 10be 3754 e7bd
00000300: d631 313b f9e6 ebbd 6962 c03d 9f4a 75bc
00000310: 1dab c93d 1ef8 473c 3f88 313d f853 12be
00000320: a342 41bd 33e6 ffbd bc2f cf3c 02d3 c5bd
00000330: 801e 0e3d d501 333e f5f8 063d e3df d5bd
00000340: c445 08be 88a5 04be 3099 14be d10d b43d
00000350: 120b 15bd b57c 33be 26e9 3bbd 85a2 22be
00000360: 7ece 6dbd afee 8c3c e899 f0bd 0526 0a3d
00000370: 05b5 8c3d 8396 033e 9896 23bd d1f9 893c
00000380: d7fc 49bd f745 5a3c b718 cf3d e35e 0abd
00000390: 9b19 a8bb 51ca 03bc 428c a43d 81b7 c0bd
000003a0: 4780 28be 52f7 14be 403a 0a3e 7105 90bd
000003b0: cf36 d23d c382 ba3d a122 123e 810f 193e
000003c0: e0e7 c8bd 01ba cd3d 092a 583d b47b cfbc
000003d0: 1909 8e3d 7e7e 4e3d 1e2e efbd 5b59 0f3e
000003e0: 7604 a4bd 8f01 50bd 7a11 cbbd 6754 a33d
000003f0: f9df 113e be77 8b3d 1035 e83d 81d3 b03c
-0.114126325 0.12986267 0.09557629 -0.08171981 -0.039218906 -0.05574003 0.028754221 -0.0064529767
-0.098369725 -0.06880706 0.030289106 0.047507603 -0.011364396 -0.107402965 -0.096797556 0.04721065
0.17234744 0.17487821 -0.16313863 -0.095129505 0.013717728 0.06778978 -0.12777321 0.08172811
0.05878684 -0.15030913 0.06304798 0.16840254 0.057303406 0.15802434 0.07348615 -0.0012766647
-0.044628706 -0.028084101 -0.09253282 -0.02254095 0.111997515 -0.17138529 -0.12029561 0.019294465
0.060889684 0.10534669 -0.107613504 0.11031525 -0.08023211 -0.12191581 0.026443616 -0.050006103
0.11062237 0.03094365 0.07435305 -0.063093185 -0.03159944 0.17007154 -0.14164513 0.090384886
-0.06963225 -0.09862506 -0.17198442 0.060796693 -0.0015407259 -0.08713088 0.027482942 0.095015235
-0.07265933 -0.11466199 0.08960345 -0.0787031 -0.059114385 -0.123574644 0.17375709 -0.0096397875
0.15723915 0.115752675 0.06304947 -0.120478384 -0.17618454 -0.13424066 0.032030217 -0.057002496
0.14988019 0.14353742 0.091090694 -0.027927317 0.117770426 -0.11582842 -0.15952396 -0.04947913
-0.17508717 0.0070130886 0.13387842 -0.1478633 0.051934876 0.036352053 0.014255752 0.10222324
-0.06944253 0.07475891 -0.027976679 -0.14513609 -0.13944732 -0.009272634 0.036726933 0.085032314
-0.030937262 -0.02945053 0.0678287 -0.04030354 -0.119087756 0.00050593633 -0.026422441 0.15423636
0.09473314 0.041669194 0.07390832 -0.016001504 0.16767688 -0.17369062 -0.11732142 0.098217234
-0.05434839 0.10783838 0.16102412 0.11581163 -0.020985156 0.06468165 -0.15776925 -0.10432733
-0.03770064 0.13964139 -0.03811596 0.11277303 0.06750428 0.09108425 -0.12833878 -0.05896726
0.1215092 0.12159493 -0.17358392 -0.041241527 -0.09614411 0.10106226 0.12794647 0.024919275
0.04931578 0.058189075 0.035988707 -0.115633644 -0.027100928 -0.061265282 0.12522414 -0.05566646
0.12550877 -0.09859034 -0.15704331 0.13518468 -0.15956026 -0.045257792 -0.040805697 -0.13434272
0.030520717 -0.08103561 0.06581919 -0.08689363 -0.093676895 -0.10545537 0.015522539 -0.11666496
0.06516522 -0.0075880387 -0.07155798 0.024621079 -0.03006569 -0.04702076 -0.005416591 -0.13899949
-0.041390616 -0.13184929 0.131873 0.14175928 -0.10549262 0.17058353 0.12923478 0.022394465
0.10451238 0.053218063 0.014823692 -0.058429755 -0.034244712 0.16746648 -0.14150235 -0.112953596
0.0027037761 -0.11518664 0.0939377 -0.014971404 0.098470904 0.012205152 0.043342825 -0.14289844
-0.04718269 -0.12495079 0.025291316 -0.09659387 0.034697056 0.17481168 0.032952268 -0.10443094
-0.13307863 -0.1295377 -0.14511561 0.08791698 -0.03638751 -0.1752804 -0.045876645 -0.15882309
-0.058058254 0.017203657 -0.11748105 0.033727665 0.06870464 0.12850384 -0.03993854 0.016842755
-0.049313392 0.013322345 0.10112136 -0.033781897 -0.0051300055 -0.008043841 0.080345646 -0.094100006
-0.16455184 -0.1454747 0.13498783 -0.07032288 0.1026436 0.09106972 0.14271022 0.1494732
-0.09809852 0.10045243 0.052774463 -0.025327541 0.06935329 0.0504136 -0.11678718 0.1399893
-0.08008663 -0.050782736 -0.09915443 0.07975083 0.14245595 0.068099484 0.11338246 0.021585228

linear_relu_stack.4.bias f4 [27]
00000000: dc58 8b3c 3d2a 1c3e cbdf 2f3d a62a 0bbd
00000010: 0479 f83d 287d 1e3e e181 fcbd ecc5 f33d
00000020: 1fa5 2abd a17c 7dbd 271c a23d ae55 09bb
00000030: a92c 09be 239b 8dbd 3d2d 2d3e ad91 2bbe
00000040: ff58 e2bd d39a 6f3c fcb3 1c3e b3dc 013e
00000050: c2e3 f2bd 9439 8a3d 19ff 113d f813 fabd
00000060: 31af 17be 1af2 cc3c 0143 68bd
0.017010145 0.15250488 0.042938035 -0.03397622 0.12132457 0.15477431 -0.1232946 0.11902985
-0.041661378 -0.061886434 0.07915526 -0.002095561 -0.13395943 -0.069143556 0.16911788 -0.1675479
-0.11052131 0.014624315 0.15303034 0.12681846 -0.118598476 0.067492634 0.03564367 -0.1221084
-0.14812924 0.025017787 -0.056704525
