Parameter/cartSAC/1.pth (torch, 7255 bytes, 6 tensors)

linear_relu_stack.0.weight f4 [32, 4]
00000000: 78c2 893d 6b72 e5be dbd6 823e e73e 3ebe
00000010: aa6d ac3d 43f7 8a3e 385f a23e 5cf3 593e
00000020: 3533 c73d 1be0 e73e 9b0f 00bf 2c1c 333e
00000030: 3364 2e3e 29b5 49be fe97 50be a659 bbbd
00000040: 09aa 97be c042 9e3e e992 24be 99dc 033f
00000050: f087 ae3e bef6 70be 37d8 c3be 6edb 413e
00000060: dcc7 febe c70c c0be 4b80 64be 79e8 7b3e
00000070: 721c 7c3c df6f 623e b96f 263e 38a8 963e
00000080: 4336 89bd b51d cf3d 218c 7fbe e940 843d
00000090: 06c0 f9be 5bdd de3d 218d dabe 1505 123f
000000a0: a677 c93e e36d 7ebe f4f4 313e 9e3c a7be
000000b0: d30f 7e3b fed6 b0be 16d1 d03e f58f febe
000000c0: 77f1 59be 7d6a f53e 8f7d da3e 64fe 893d
000000d0: 897e 813e fd41 a4be f431 0b3e 0f39 edbe
000000e0: f1cd 03be c6de fe3d 6120 e73d d325 0d3e
000000f0: 3df1 8f3d f4b9 af3e 8cb0 8c3e e930 d9be
00000100: ed09 98be df26 b83e bb61 b7be 9c4e c5be
00000110: b1e2 563e da53 c33d 2be8 563d afcc 513e
00000120: 0cc5 eabd a425 7e3e 027e 08bd 13ba 3cbc
00000130: 4e1e 6c3e cabe af3e 1de3 1d3e 9e39 b13e
00000140: bff6 913c d431 ebbe 0f8c bf3e 570e 67be
00000150: 6d07 babe 13d7 6f3d 9f22 093f a9bc 243f
00000160: 9b2b 85bd 2240 49be 4d34 8ebd 54a7 823e
00000170: 088c 88be d112 b8bd 3d4f 233e 042a c2bc
00000180: d31a 95be a45c 513e 7772 953e 4d31 8fbe
00000190: f31c ba3d fc81 973e 5a5c ef3d cd2b 05bf
000001a0: cf84 7f3e cdd3 f1be c2b0 b4be 5138 e6be
000001b0: c8b6 713e 35eb 5dbe 5b61 8bbc 9337 00bf
000001c0: cb49 a33d 4de6 19bf 5d89 d33d e9a0 04bf
000001d0: 373c 11bd 5f25 e43e c354 8c3e f131 f8bd
000001e0: ce28 8c3e f295 cfbe ab83 c03e 1caf ccba
000001f0: 55fc 57bc 01f2 c1be b8ed 6fbe eb94 c3be
0.06726545 -0.44813856 0.25554547 -0.18578683 0.08419354 0.2714177 0.3171327 0.2128424
0.09726564 0.45288166 -0.5002381 0.17491215 0.1703041 -0.19698013 -0.2037048 -0.091479585
-0.29621914 0.309103 -0.16071667 0.5150848 0.34088087 -0.23531625 -0.38250896 0.18931362
-0.49761856 -0.37509748 -0.22314565 0.246004 0.015387641 0.22112988 0.16253556 0.29425216
-0.06699803 0.10113088 -0.24955799 0.06457693 -0.48779315 0.10882064 -0.42685798 0.57039005
0.39349097 -0.24846606 0.17378598 -0.32663435 0.0038766756 -0.34539026 0.4078452 -0.49719205
-0.21283518 0.47932807 0.4267392 0.06737974 0.2529185 -0.32081595 0.13593274 -0.46332595
-0.12871529 0.124448344 0.11285473 0.1378396 0.070284344 0.34321558 0.27478445 -0.42420128
-0.29695073 0.35967156 -0.3581675 -0.38536537 0.20984913 0.09537478 0.052467506 0.20488237
-0.11463365 0.24819046 -0.033323295 -0.011518973 0.23058435 0.34325248 0.15418668 0.3461427
0.017817853 -0.45936453 0.37411544 -0.22564064 -0.3633379 0.05855472 0.5356845 0.6435037
-0.06502458 -0.19653371 -0.06943569 0.25518286 -0.26669335 -0.08987964 0.15948196 -0.023701675
-0.29122028 0.20445496 0.29188892 -0.279673 0.09087553 0.29591358 0.116875365 -0.5201996
0.24953006 -0.47231904 -0.35291106 -0.4496484 0.23604882 -0.21671756 -0.017014196 -0.500848
0.07973059 -0.60117036 0.10328934 -0.5180803 -0.035457816 0.44559762 0.27408418 -0.121189006
0.27374882 -0.40544087 0.37600455 -0.0015616152 -0.013182719 -0.37879947 -0.23430526 -0.38199553

linear_relu_stack.0.bias f4 [32]
00000000: f37e 8f3e 0568 eebe 116e 243b 0349 a9bc
00000010: 188d 653d 1ac9 33be 1843 b0be 9eb5 d23d
00000020: 36f8 dcbe 75da 8fbd 3b31 143e 38ad 00bd
00000030: 9ca0 07be 2b55 443e 2ee1 1fbe bad5 babe
00000040: da83 eabe 0a41 4abe 3b8c c3be 1bb4 493d
00000050: 7938 59be 772e 113f 3844 eebe 4d53 bf3e
00000060: 2d24 0abd ffb7 0c3e 9347 bc3e 72f9 023f
00000070: d087 5e3e 951c debe 9ac2 e5be 0c32 ec3d
0.28026542 -0.46563736 0.0025090019 -0.020664698 0.05604276 -0.17557183 -0.34426188 0.10288547
-0.4315812 -0.07024089 0.14471905 -0.031415194 -0.13244861 0.19173114 -0.15613243 -0.36491185
-0.4580372 -0.19751373 -0.38192925 0.049244028 -0.21212949 0.56711525 -0.46536422 0.3736824
-0.033725906 0.13742064 0.36773357 0.51161873 0.21731496 -0.4338118 -0.44875032 0.11532983

linear_relu_stack.2.weight f4 [32, 32]
00000000: 97ea 7bbd 93ea abbd d30b b63d 54e1 343c
00000010: 9c9e 8abd 761a 02be eca2 b63d 18ea 2fbd
00000020: 67ee 46bc 4a12 ba3d 722a 083e e0ae 97bd
00000030: ed7d d93d ce70 943d 447e b7bd 1489 8e3d
00000040: fd4b 273d 02ac 563d 41cb 1f3e f8c1 51bc
00000050: 28a5 f0bd 2fe8 86bc 25e3 e83d b01f 8a3d
00000060: 78db 14be 6ffe af3d 159d 063b c6ad b73d
00000070: cf75 9e3b 7286 113e 8ebd 92bd e107 babd
00000080: 1cdd a1bd a5ba 01be 9150 913d 5035 46bc
00000090: e44b 8c3c 8c75 19be ba24 0abe 2900 afbd
000000a0: d40a c53c 40c1 e53d def5 99bd cef5 1d3c
000000b0: 7aa6 5b3d 2776 2f3e 6840 b4bc 3de9 ab3d
000000c0: 38d7 f0bd ba68 193e 5d1f cebd 9c5d cb3d
000000d0: 23d5 2fbe 32e3 e2bc d98d 623d 064e 88bd
000000e0: a36d 253e 7333 32be 647d 68bc 67c8 6c3d
000000f0: 4edc 8e3a 0a06 edbd 8950 9d3b 3216 14be
00000100: bbfb 8abc 6611 00bd b943 fbbd 3e8e d53c
00000110: df1b dbbd bc11 dabd e826 17be 5f14 c33d
00000120: d868 b5bd c202 9abd 6c9c bebd aeb5 ad3d
00000130: 5f1c f5bd 8f34 013e e5e3 bdbd 9f69 eebd
00000140: adcd 1a3e 55ff 363d 0573 123e 7d05 c7bd
00000150: 11dd 1c3d 4cfb abbd d637 ba3d d271 3ebd
00000160: c2b6 903d 2892 083e a462 013c 2d2b 4d3c
00000170: 1077 353e e9c8 d3bc 37e5 1d3e 181b e7bd
00000180: 7775 86bc 35a9 e7bd 9111 e3bd 7954 fb3d
00000190: f373 88bd e694 23be 0cba 60bd fcf4 ac3c
000001a0: a32d d3bd 220e b53c 869c b63d d180 043e
000001b0: 4329 26be 9d2b 6cbd 446c 4bbd d1c2 f63d
000001c0: 41ec 6bbd 1937 6fbb fe01 d8bd 5dcb 0abe
000001d0: c7b4 cb3d 6f15 363e bda5 cbbb ed51 84bd
000001e0: b277 fd3d 7d05 323e e289 21be e3f9 d2bd
000001f0: 5d8c c6bd 7eb9 d0bc 1c55 7fbd 7859 833c
00000200: e3d4 bb3d 946a 953b a0f4 40be 2125 4c3c
00000210: a480 83bc 8279 1a3e b9d6 a7bc 30b9 5a3c
00000220: af89 67bd 90b4 bf3d c6ef 983d 686f f8bd
00000230: 4d79 49be 3e5a 3c3e 705d 413b a054 dcbc
00000240: 49f9 303e d49c 0f3e 7874 17bd 2f83 8b3d
00000250: ce5c b13c 536b fbbd e268 a93c f3c7 8dbc
00000260: b6fd 483d 31a1 e93d 2636 883e f2ed 943e
00000270: 6bdb 743e 745e 4b3c d718 13be 56c8 003e
00000280: 59e8 a3bd 3eed 2b3d e426 0cbd f340 823a
00000290: 9b05 55bd e717 52bd d329 1cbe 63c1 143e
000002a0: b1c4 b83b 27a3 13bd 0989 1e3e 6a1d 2ebe
000002b0: fabd 383d 6291 b2bd ed29 febd 17f9 1d3e
000002c0: 2116 abbd 0678 8cbd 482b 703d 7359 dcbd
000002d0: 73ac 0f3d f3f5 153d 9c78 1cbd 4afc 0ebe
000002e0: 3d81 56bc b7ba ecbd 2ec5 a53d 469e 083e
000002f0: 7298 2dbe f9cb 933d c099 21bd 4471 183e
00000300: 7862 26be 90cb d33b 439f 33be 0895 143e
00000310: ef93 cbbd 72c4 ebbd ba26 053e ef3f 6f3d
00000320: b178 003e 8fd6 c03d eea3 9fbd 089b 23bd
00000330: 5a2f 36bd 434b 643d 3d75 8f3d cbd6 2d3e
00000340: 297a 45bc c487 2e3e 48be 87bc a75d 2a3e
00000350: 7c9e 39bd e004 c4bd a68d 843d b76f 223e
00000360: ea4c 14be 168e b5bd 2919 12be 85fd 2f3e
00000370: c9bd 02be 166f 9bbd 27dd 05be e889 2bbe
00000380: 7ad9 21bd 5ceb dcbb fc8e 88bc 026b 45be
00000390: db22 4e3e 1e90 0fbc 5ca5 c7bd 6a16 f63d
000003a0: ba6a 523c e8f2 603e d852 d9bd 652a 05bb
000003b0: c1ef 053d 00ad 4bbe d343 c53d ec69 0fbe
000003c0: 3295 c8bd d4ee 573d b0ae cf3c 0d35 293c
000003d0: 68f4 0fbe 4924 fa3e 2d99 a23c 66ab 46bd
000003e0: f05a 043d 311a f33d a8cc 86be 731b 463d
000003f0: 3faa fbbd 6fde 04be 0de0 603d d0da 16be
-0.06150302 -0.08394351 0.08888974 0.011040051 -0.067685336 -0.12705407 0.08917794 -0.04294786
-0.0121418005 0.090855196 0.13297442 -0.07406402 0.106197216 0.07248078 -0.0895963 0.06959739
0.040843952 0.052410133 0.15604879 -0.012802593 -0.11750251 -0.016468136 0.113714494 0.06744325
-0.14536846 0.08593451 0.0020540406 0.089686915 0.004835821 0.14211443 -0.07165061 -0.09083534
-0.079035014 -0.12668855 0.07095445 -0.012097672 0.017126031 -0.14986247 -0.13490573 -0.085449524
0.024053015 0.112185 -0.075175986 0.009641124 0.05362556 0.17134915 -0.022003368 0.08394096
-0.117598 0.14981356 -0.10064576 0.09929964 -0.17171149 -0.027696226 0.055311058 -0.06655507
0.16155104 -0.17402439 -0.014190052 0.057808306 0.0010899396 -0.115734175 0.0048008603 -0.14461592
-0.016965738 -0.031266592 -0.122687764 0.026068803 -0.10698675 -0.10647914 -0.14760935 0.0952537
-0.08857888 -0.07520057 -0.09307179 0.08481918 -0.11968302 0.12617706 -0.09271983 -0.116412394
0.15117522 0.044677097 0.14301689 -0.09717844 0.038296763 -0.083975405 0.09092681 -0.046495266
0.07066108 0.13337004 0.007897053 0.012522501 0.177212 -0.025852637 0.1541947 -0.112844646
-0.016413433 -0.113115706 -0.11087335 0.12271971 -0.066627406 -0.15974769 -0.054864928 0.021112911
-0.10311439 0.022101466 0.08916573 0.12939765 -0.16226678 -0.05765878 -0.049663797 0.12048877
-0.057598356 -0.0036501347 -0.10547255 -0.1355414 0.0994659 0.17781614 -0.006214826 -0.064609386
0.12376346 0.17384906 -0.15775254 -0.10301568 -0.09694741 -0.025479075 -0.062337026 0.016033873
0.09171464 0.0045598242 -0.18843317 0.012460024 -0.016052552 0.15085414 -0.02048813 0.013349816
-0.05652779 0.093606114 0.07467608 -0.12130624 -0.19675179 0.183938 0.0029505156 -0.026895821
0.17282595 0.14024669 -0.036976308 0.06812131 0.021650698 -0.1227633 0.020679895 -0.017307257
0.049070083 0.11407698 0.26603812 0.29087788 0.23911826 0.012412656 -0.14364944 0.12576422
-0.08003301 0.0419743 -0.034216776 0.0009937569 -0.0520073 -0.051292326 -0.1525033 0.14526896
0.005638682 -0.036044266 0.15481962 -0.17003408 0.04510305 -0.08719136 -0.124103405 0.15427051
-0.0835383 -0.0685883 0.058635026 -0.107592486 0.03507657 0.03661151 -0.03820096 -0.13963428
-0.013092336 -0.115590505 0.0809425 0.13341627 -0.16952685 0.07216639 -0.039453268 0.14886957
-0.162485 0.0064634755 -0.17541222 0.14509976 -0.099403255 -0.11512078 0.13003054 0.05841058
0.1254604 0.09415924 -0.07794939 -0.03994277 -0.04447875 0.055735838 0.07004783 0.16976468
-0.012053051 0.17043978 -0.016570225 0.16637288 -0.045317158 -0.09571242 0.0647233 0.15862928
-0.14482465 -0.08864991 -0.1426741 0.17186554 -0.1276771 -0.07589547 -0.13072644 -0.16751826
-0.039514042 -0.006741924 -0.016669743 -0.19279101 0.20130484 -0.008762388 -0.09748337 0.12015994
0.012842828 0.21967661 -0.10611504 -0.0020319459 0.03269935 -0.19890213 0.09632077 -0.1400525
-0.09794082 0.052718 0.025351852 0.01032759 -0.14058077 0.48855808 0.01984843 -0.048503302
0.032313287 0.1187023 -0.26328015 0.04836602 -0.12288331 -0.12975477 0.05490117 -0.14731908

linear_relu_stack.2.bias f4 [32]
00000000: 1e63 cdbd 0d21 10bd faad 33bd a4e5 ba3d
00000010: 8d0f 02bd a0b4 d5bd ac7b 19be 898d 4a3e
00000020: 24b6 7d3d 3fd7 c03d 2434 0bbe 2a7d 9a3d
00000030: 9f03 f73d 2c25 883d 5a31 da3d 81f8 ddbd
00000040: 52fa 243e ea60 20be 122f a7bd ee77 b03d
00000050: 8e60 b6bd ce3b 553e 0da8 17bd b186 4e3d
00000060: 4698 b2bd 0e43 ca3d 297d adbd db83 413d
00000070: 96a0 913d 6ac8 e4bd 40a2 633d adc3 0dbc
-0.10028671 -0.03518777 -0.04386709 0.09125832 -0.03175311 -0.10434842 -0.14988583 0.19780554
0.06194128 0.09416055 -0.13594109 0.075434044 0.120612375 0.06647715 0.10653944 -0.10838414
0.16111115 -0.1566197 -0.08163275 0.08616625 -0.08905135 0.20823595 -0.0370255 0.05042142
-0.0872045 0.09876071 -0.08471138 0.047244888 0.071107075 -0.111710384 0.055574656 -0.00865261

linear_relu_stack.4.weight f4 [2, 32]
00000000: 7b2e 80bd be7d 093e 8956 163e 5753 69bd
00000010: 1376 693e b4bf efbd 85f7 5cbd d997 cebe
00000020: 7c6e 74bd 8127 913c 2703 043e fbdf d4be
00000030: a27c 513e 5815 b73e cd2b 0fbd 2d6a 003e
00000040: 3660 013e ac3a dcbc 7393 f03c 7ce9 4abe
00000050: 668d 273d 5d82 c43e 5674 4b3e 63ae 6bbe
00000060: 1003 85bd 445d 6e3d 5bc0 ebbd de82 123e
00000070: f969 d03e 6fc8 e03d 0826 103e 07dc 94be
00000080: e6e3 4a3d 9467 d3bc 1f27 b1bc 42ce 073e
00000090: 1847 e3be 9662 78bd ddb2 29be 6686 063f
000000a0: 1460 7f3e c149 573c 3f7e 02bd a662 6f3e
000000b0: 110a 40be 51cd 8dbe fd26 cf3b 8696 7c3d
000000c0: 3087 1bbe 16db 243e 0298 e83d 022c eebd
000000d0: 2aaf 0bbd 5682 b1be 4f0a 37be 27f0 08bd
000000e0: c17f f4bd 16cb c23b 8b8a 4a3d 447b 3fbe
000000f0: d460 73be ec2a e53d 94b2 dabe 7dc9 793d
-0.062588654 0.13426873 0.14681448 -0.056964245 0.22798948 -0.11706486 -0.05394699 -0.40350226
-0.05967568 0.017719032 0.12891828 -0.41577134 0.204577 0.3575847 -0.03495388 0.12540503
0.12634358 -0.026883446 0.029367184 -0.1981563 0.040906332 0.3838071 0.19868597 -0.23015742
-0.06494725 0.058194414 -0.11511298 0.14307734 0.4070585 0.1097573 0.14077008 -0.29074118
0.049533747 -0.025806226 -0.0216251 0.13262275 -0.44390178 -0.060640894 -0.16572137 0.52548826
0.24938995 0.013140143 -0.03185868 0.23377475 -0.1875384 -0.27695706 0.0063217864 0.061666988
-0.15188289 0.160992 0.11357118 -0.116294876 -0.034102596 -0.3466975 -0.17875026 -0.033432152
-0.119384296 0.00594462 0.04944853 -0.18699366 -0.23767406 0.11189827 -0.4271437 0.06098317

linear_relu_stack.4.bias f4 [2]
00000000: cc6c 65be 156b c13e
-0.22404784 0.3777701
