Parameter/cartSAC/2.pth (torch, 7255 bytes, 6 tensors)

linear_relu_stack.0.weight f4 [32, 4]
00000000: 2e2c e0be f1f9 b43e 03a8 7e3f 721b 453f
00000010: 18ed 89be c76b 90be ef90 ffbc 5f17 41bc
00000020: 8cd2 233e 2650 813d ede7 1a3f c0ac 4d3e
00000030: 01bd fbbe 2b9a cd3e 7de0 383f ae89 8d3f
00000040: 9936 18be 0745 c43e 7079 8dbd 577d 4e3e
00000050: c6b6 c33d ae68 d03e e0b0 f7bd 75c0 db3e
00000060: 7f54 d03e 3535 d1be 046c ecbd abaf 81be
00000070: 27c3 00bf 62e7 8cbf 2064 64bf f6d0 84bf
00000080: 64bf 393e c671 193e 72c2 ca3d bbb0 873e
00000090: a40f 2c3f 8a7c 8bbe 1853 3dbf 5b12 c2be
000000a0: 6594 8f3e 15df 8cbe 9ae1 903e 9b30 05be
000000b0: 230a e03e def0 9bbe 6998 03bf b9c3 b83e
000000c0: 92b3 cd3c 6c20 dd3e e011 c63e 1e2b 8e3e
000000d0: 96ea c13e 6fcd 853f 5053 1140 ed70 853f
000000e0: 889d b8bd d4aa a83d b7cb 713e 5ad9 e83d
000000f0: 9db2 53bf 769a 55be b9b0 43bf d693 acbe
00000100: 5a05 373e 93b7 ae3e 00ac f3bc 8c66 29bf
00000110: 0a28 bdbe c7ff 80be 0741 c13e e164 a6bd
00000120: 98c1 e3bd 3371 cd3e e4d4 bb3f faee 643f
00000130: efd5 e33d 8359 3d3e c981 99be 7698 78be
00000140: 3f7b c9bb 87e4 84be 9735 4dbf 0de6 0abf
00000150: a28a 4bbe 67f2 37bc a9e6 2e3f 56da 4dbd
00000160: 4b94 bc3e 8b3f 8d3e 2c74 25be c5ec ebbe
00000170: c200 723f f7fd 723f 6189 b73e 8011 133f
00000180: 150e 9ebe 0d6c 79bf ca76 10bf e20a 2ebf
00000190: eb3c 423e 8786 46be 598e febe e7da 823e
000001a0: 0205 993d 9a0f b93d cab6 cebe 3ba3 3c3e
000001b0: bbb6 ab3f 4846 bdbe 9e73 b7bf 44e6 0bbf
000001c0: f68a e9be a76d b73e 2c24 ef3d fb60 8e3d
000001d0: 6ca5 ffbd 4272 073d 0268 acbe d0d6 16bf
000001e0: 6a04 0d3e db4b 47be 2c73 15be 75f0 b03e
000001f0: 8a5a 9d3e 2460 1abd 353b 1d3f e4fc 91be
-0.43783706 0.3534694 0.99475116 0.76995003 -0.269387 -0.28207228 -0.03119704 -0.011785357
0.15998286 0.06314115 0.6051014 0.2008543 -0.49167636 0.40156683 0.7221754 1.1057642
-0.14864577 0.38333914 -0.06907928 0.20165001 0.09556346 0.40704864 -0.12094283 0.4292027
0.40689465 -0.40860906 -0.1154404 -0.25329337 -0.5029778 -1.1008112 -0.8921528 -1.037627
0.18139416 0.14984807 0.09900369 0.26502022 0.67211366 -0.27243453 -0.73954916 -0.3790463
0.28042904 -0.27513948 0.2829712 -0.13006823 0.43757734 -0.30457205 -0.51404434 0.36086825
0.02511004 0.43188798 0.38685513 0.2776727 0.37874287 1.0453318 2.27071 1.0425087
-0.09014422 0.08235708 0.23612867 0.113695815 -0.8269442 -0.20859703 -0.7644153 -0.3370654
0.17873135 0.3412443 -0.029745102 -0.661721 -0.3694461 -0.25195143 0.37744924 -0.0812471
-0.111209095 0.40125427 1.4674344 0.8942715 0.11124789 0.18491177 -0.2998183 -0.24276909
-0.0061487253 -0.25955603 -0.80159897 -0.5425728 -0.19877103 -0.011227227 0.6832071 -0.05025705
0.3683189 0.27587542 -0.16157597 -0.46079078 0.94532406 0.9491877 0.35847 0.5744858
-0.3087012 -0.974305 -0.5643126 -0.67985356 0.18968551 -0.19387256 -0.49717978 0.25557634
0.07471658 0.09036179 -0.40373832 0.18421642 1.341514 -0.36967683 -1.4332159 -0.5464823
-0.4561383 0.35825846 0.11676821 0.06952091 -0.124827236 0.03306795 -0.33673102 -0.5892153
0.13771215 -0.1946253 -0.14594716 0.34558454 0.30733138 -0.037689343 0.6141847 -0.28513253

linear_relu_stack.0.bias f4 [32]
00000000: 9292 883e 36fd b33f 4094 1b3f 13cd b7be
00000010: 76f5 0f3e 9d16 6a3f d8ec 283e 7783 913e
00000020: cc6d 323f a9ee d03c 11cb 1a3f 6428 083c
00000030: 8e74 4d3f 8044 bc3d d3eb c8be 1a63 5ebe
00000040: a105 67be c513 bbbd b6d6 e8be 7681 563f
00000050: 20d8 6bbe 1698 183f 28a7 04bf 2bfe 1bbe
00000060: 217f 19be 24b9 d43d 6ea7 ebbe 0a4b 5dbe
00000070: a441 ebbe 35af cabd d90a 2a3e 2efa 2e3f
0.26674324 1.4061649 0.60773087 -0.35898647 0.1405848 0.91440755 0.16496599 0.28420612
0.69698787 0.025504427 0.60466105 0.008310411 0.80255973 0.09192753 -0.3924242 -0.21717492
-0.22560741 -0.0913463 -0.4547631 0.8379129 -0.23031664 0.59607065 -0.5181756 -0.15233676
-0.14989902 0.10386875 -0.46026176 -0.21610656 -0.45948517 -0.09896699 0.166057 0.68350494

linear_relu_stack.2.weight f4 [32, 32]
00000000: 9a89 b83e 4461 43bd 1173 003e e9e0 423e
00000010: 6ef5 18be 98f8 71bc 7628 a53d 30bf 4f3d
00000020: 26a9 ce3d d24f a7bd 5bde 08bd 08c5 0bbe
00000030: 9305 df3d 6b67 703e 8c99 f6bd a522 7abd
00000040: d580 3dbe d510 7b3d 294e 423e e19c 46be
00000050: 3f08 17be e158 513c fc6a 9ebc d468 a23d
00000060: 62cf 2e3e 1396 b43d 1ea0 8f3d b571 db3d
00000070: 2aa5 f23d 4096 673d 75c2 2d3e 9180 5ebd
00000080: 624c 1b3b 9729 e93e 08ae 6a3e 7466 a5be
00000090: e140 eb3c aece 4c3e 0fc4 27be 4fbf f0be
000000a0: 49f4 1b3e 917d d2be 1970 763b ba87 663e
000000b0: 1f74 0d3e 2997 49bf 8cb3 a8bd e7cc 2dbe
000000c0: ca0e 0dbe 58b3 0ebe 0745 ffbe afe5 193e
000000d0: e8a1 abbe 54e3 813e 9a6b 1bbd 83c2 2fbf
000000e0: b585 98be b0a7 123e 9aa0 77bd c4df 20bf
000000f0: 9d16 18bc 3700 75be 71be d53d ebeb 693e
00000100: 14ad f33e f818 acbc 7071 613e a5b2 243e
00000110: 336d 903c df71 c13d 947c 29be e7fc cabd
00000120: a3bf 75bd baa0 27be 4132 01be d5ea 48bd
00000130: 85e1 873d af44 e93e 56e6 83bd 09ea 393e
00000140: 1005 85bd 060e 913d 6392 863e c19c 75be
00000150: a4fe 4e3d 8e53 b93d e4b5 39be fd0b 6d3e
00000160: ec32 263e 94cd c93c 65e1 253e 479d 46be
00000170: 1d4d a0bd 27d0 de3c 98b1 403e 6231 c2bd
00000180: 7a5e 7cbc 2fd2 ac3e 4e83 ac3d 2d0d a7be
00000190: 180c 253e b6c9 b23e ff22 b2bd 3303 adbe
000001a0: fdc1 433e 37f2 02bd b3e3 0a3d 2673 e53d
000001b0: 3fd1 b83e 7ccb 08bf 60b5 213e c845 b0bd
000001c0: 15f4 23be 726d c8bd dd04 a2be 180e 873e
000001d0: 1f0c 4cbd b7d7 97bd 2cea 09be 93b0 77be
000001e0: 5012 4fbe 0779 6b3e 6af3 8a3d 87a1 14bf
000001f0: 0d18 bc3d 62a1 19be 9b05 15be 7c4b 813e
00000200: adc5 443e 62bc 0a3e 4020 723e ed60 7d3e
00000210: c06b 1e3d 950a dabc 607c 653d 6d09 00be
00000220: 8c65 9e3a 0e46 8dbe 0b35 52bd cb78 debd
00000230: a0ae cd3d 1761 0d3e b949 19be 747f 073d
00000240: 3947 473d 0713 e23d cb80 153e d9f6 26be
00000250: 7954 ca3d 28be 843e 1734 5fbd 3601 04be
00000260: 23b3 38be db0a 02be 2677 0ebe 1ae1 18be
00000270: 24f5 ea3d 814e 14be bc06 353e fb8f 3ebd
00000280: afe4 06be c1d5 373f ff81 923e 985b afbe
00000290: a1c5 803d 33dc d23e c8e9 533e 40ce 01bf
000002a0: b538 163f 445a 93be 5606 413e ebf0 323e
000002b0: 8716 2c3f 6eda b3bf c43d 29bd ac4d b8be
000002c0: 14d3 98be 5b03 79be 9d89 71bf f95c 153e
000002d0: 5770 aebe 3bb8 dd3e e590 66be f156 11bf
000002e0: 1cfb 06bf 7816 9a3d b251 a63c 4ad6 81bf
000002f0: ffd2 70be ac73 27be a76c 2e3e 30fb 023f
00000300: e85d cebe 588f 593c 9e96 fcbd ea83 48bd
00000310: 4b8e 74bc f24d 563d dabe 503e 3397 7f3e
00000320: da36 4a3e 584e 363e f388 b4bd 5b80 833c
00000330: b91c 2cbc 7c07 ab3a 757f e53d b0ae 49be
00000340: 2738 5c3e f332 31be 25af 02bc 501d b83d
00000350: 74dd 15be 90ec 3dbe fd05 0c3d 07fd c93d
00000360: bedd 0bbe 8bd4 a9bd d35b 32bd 4a82 85bd
00000370: 32d0 0e3e b969 59bd 0124 1fbd 0eb6 3a3e
00000380: fb14 86be 001a 7a3e 4485 9c3d ffb3 20be
00000390: c028 503d 56de 473e 4a7c f2bd 18e2 9bbe
000003a0: 5bf3 593d 676a c53d 894d bbbc b9fb 5cbd
000003b0: d0cd 813e 7449 87be 745f 3cbe 4524 46bc
000003c0: e3e8 003e 5d8d 37bc f672 98bd 8122 183e
000003d0: 8b74 7fbe 3e0b 4f3e 2ca4 c2ba 47f3 f3bd
000003e0: 5ca7 92be 48f7 51bd 4bcb 59bd dc70 92be
000003f0: 3592 3fbe 6a68 08bc 6560 843d 4fdf 443d
0.36042482 -0.04770018 0.12543894 0.19031109 -0.14937374 -0.014768742 0.08064358 0.05071944
0.10090856 -0.081695214 -0.03341518 -0.1364938 0.10889735 0.23476951 -0.120410055 -0.061068196
-0.18506177 0.06129535 0.18975128 -0.19395782 -0.1474924 0.012777538 -0.019338124 0.07930151
0.17071298 0.08817687 0.07012962 0.10715047 0.11847909 0.056539774 0.1696871 -0.05432183
0.002369665 0.45539543 0.2291795 -0.32304728 0.02871746 0.20000717 -0.16383384 -0.47020957
0.15229906 -0.41111425 0.0037603437 0.22512713 0.13813828 -0.7874628 -0.08237371 -0.16972695
-0.13775173 -0.13935602 -0.4985735 0.15029024 -0.33521962 0.2536875 -0.037944414 -0.68656176
-0.2978951 0.1432178 -0.060455896 -0.6284144 -0.009282735 -0.23925863 0.104367144 0.22843902
0.47592986 -0.021008 0.22015929 0.16083772 0.017630195 0.09445547 -0.16551429 -0.099115185
-0.059997212 -0.16369906 -0.12616827 -0.04905208 0.06634811 0.45560214 -0.064404175 0.18155684
-0.06495106 0.07082753 0.2628356 -0.23985578 0.050535813 0.0904914 -0.18135792 0.23149104
0.16230363 0.02463416 0.16199262 -0.19395934 -0.07827208 0.027198864 0.18817747 -0.09482075
-0.015403384 0.33754107 0.08423482 -0.3262724 0.16117895 0.34919518 -0.08698081 -0.33791503
0.1911697 -0.031969275 0.033908557 0.112036034 0.36097142 -0.5343549 0.15791845 -0.0860706
-0.16011079 -0.097865 -0.31644335 0.2637794 -0.049816247 -0.07414191 -0.13468236 -0.24188451
-0.2022183 0.22995387 0.06784709 -0.5805897 0.09184275 -0.15002969 -0.1455292 0.25252903
0.19216032 0.13548425 0.23645115 0.24744006 0.038676977 -0.026616374 0.056026816 -0.12503596
0.0012084707 -0.2759251 -0.051320117 -0.10862883 0.10043073 0.13806568 -0.14969529 0.033080533
0.048651908 0.110387854 0.14599912 -0.16305102 0.09879393 0.25926328 -0.054493036 -0.12891087
-0.18037085 -0.12699454 -0.13912639 -0.1492962 0.11472538 -0.14483072 0.1767835 -0.04652403
-0.13173173 0.7181054 0.28614804 -0.34249568 0.06287695 0.41183624 0.20694649 -0.5070534
0.5868028 -0.28779805 0.18850073 0.17474715 0.67221874 -1.4051034 -0.04131867 -0.3599676
-0.2984854 -0.24317686 -0.94350606 0.14586248 -0.34070083 0.4330462 -0.2251621 -0.5677329
-0.5272691 0.07523817 0.020302627 -1.0143521 -0.23517989 -0.16352719 0.17033635 0.5116453
-0.4030602 0.013278805 -0.123334154 -0.048953928 -0.014926503 0.05232043 0.20385304 0.24960022
0.19747487 0.17803323 -0.088151835 0.016052416 -0.010504895 0.0013048495 0.11205951 -0.19695544
0.21505795 -0.17304592 -0.007976328 0.08989966 -0.14635259 -0.18547273 0.0341854 0.09862714
-0.13658807 -0.082924925 -0.0435446 -0.06518991 0.13946608 -0.05307934 -0.038852695 0.18233511
-0.26187882 0.2442398 0.07642606 -0.15693663 0.050820112 0.19518408 -0.118401125 -0.30445933
0.053210597 0.09639435 -0.02286412 -0.053951 0.25352335 -0.26423228 -0.18395787 -0.012093608
0.12588839 -0.011203137 -0.07443802 0.14856912 -0.24946801 0.20219132 -0.0014849952 -0.11911636
-0.2864331 -0.051261216 -0.05317239 -0.2860173 -0.18708117 -0.0083256755 0.06463698 0.048064526

linear_relu_stack.2.bias f4 [32]
00000000: 5cde 4ebe 43e5 553f 27a3 8bbe 5ff2 133f
00000010: b397 70bd f7ac 503f e31c 703e 43f4 e93e
00000020: cb35 673c 3725 15be f307 b1bd 0d22 fcbd
00000030: f8dd c5bd 5996 063e f02f 96bd 218e 533f
00000040: 36ca 563e d5d0 8dbd 556f 273f 13f0 12bd
00000050: e4a4 5e3e 15ce a83b 1685 23be b0d6 4dbe
00000060: ca8c 56be 01fd a7bd 955d b33d 40c2 08be
00000070: 00a4 12bd 9856 87bd f8fb 763f cb3a b83d
-0.20202011 0.8355295 -0.27272913 0.57791704 -0.05873842 0.81513923 0.2344852 0.4569417
0.014111946 -0.14564978 -0.08644094 -0.12311182 -0.09661478 0.1314329 -0.07333362 0.82638747
0.20975575 -0.06924597 0.65404254 -0.035873484 0.21742588 0.00515152 -0.15968737 -0.20101428
-0.20952144 -0.082025535 0.08758084 -0.1335535 -0.035800934 -0.06608313 0.96478224 0.08995589

linear_relu_stack.4.weight f4 [2, 32]
00000000: 86d7 dcbe 5faa 053f beca 18bf fd10 163f
00000010: 656c f9be 1570 8f3f 261b 063f 5dd6 013f
00000020: 8dd6 3abe 1340 95bb 7e50 fabd 0a7e 00be
00000030: 78e4 5ebe a908 8c3e 0923 45bf 1367 8f3f
00000040: 7bc0 663e 8cef 1bbf e3b3 6f3f eeb1 833b
00000050: dc4c ac3e 5246 9d3d 99fe 57be 7f71 62be
00000060: e129 e9be b667 8cbd 4842 043d a0d1 cf3d
00000070: 3ff8 3cbe 4b18 bfbe 030d ab3f dfde 2b3d
00000080: 18e7 62be d7f9 923f 8f16 cdbe 339a 333f
00000090: 7561 e73d ff28 b03f 4a59 c4be 9142 a43e
000000a0: d5e3 42bd f245 2dbf 8495 f83d bbc3 c7bd
000000b0: 11ab 5cbb d719 e93d cf8f dd3d 8a97 583f
000000c0: c7f8 c7bd 1c51 ecbd ffed c33e 33fb 4dbe
000000d0: 980c 8fbe 8c25 973d acce e63c 37ba efbc
000000e0: 2723 0dbf 414a 0cbf ab42 493d 53fc c03d
000000f0: 629f 94bd d958 7c3d c00a af3f 1f3d 4e3d
-0.4313318 0.5221309 -0.5968436 0.5861967 -0.4871551 1.120608 0.52385175 0.5071772
-0.18245907 -0.0045547574 -0.12222384 -0.1254808 -0.21766841 0.27350357 -0.77006584 1.1203331
0.22534363 -0.60912395 0.9363386 0.0040190136 0.3365239 0.07679428 -0.21093215 -0.22113608
-0.45539764 -0.06855719 0.032289773 0.10147405 -0.18454073 -0.37323222 1.3363346 0.041960593
-0.22158468 1.1482495 -0.40056273 0.70157164 0.11297885 1.3762511 -0.38349372 0.32082036
-0.04758056 -0.67684853 0.12137893 -0.097541295 -0.00336713 0.11381882 0.10818445 0.8460623
-0.097642474 -0.11538908 0.38267514 -0.20115356 -0.27939296 0.073802084 0.02817472 -0.029263599
-0.55131763 -0.548008 0.049135845 0.09423127 -0.07256962 0.06160817 1.3675156 0.05035126

linear_relu_stack.4.bias f4 [2]
00000000: b272 ba3f 351a 983f
1.4566252 1.1882998
