Parameter/cartPG/1.pth (torch, 7255 bytes, 6 tensors)

linear_relu_stack.0.weight f4 [32, 4]
00000000: 3d4b 853e 5952 873d 3289 233e fe42 ebbd
00000010: 9c5a 11bd 7ecc 8ebe 3167 05bd 1a74 c7be
00000020: 7bd9 e53e 230f febe 0437 c53d c4c8 08bf
00000030: 9e71 a63e 669f 593e fd06 35be fc95 fabe
00000040: 72ba f23e d1ca ba3e f028 263e fdff b13e
00000050: 2182 b1bd e836 e0be b3b3 14bd 1b36 403e
00000060: d01d c5be 0ffb 993d 4e15 463e 03ba 17bf
00000070: 79bb 05be 1683 a13e bc69 5f3e 01e1 19bf
00000080: b868 8dbe 2088 983e 79f3 9f3e 28e9 153f
00000090: 4a1f 7fbe fc6e 4fbe fe9b 81be fc8a bd3e
000000a0: dfa3 ba3d fd68 ba3e c508 b93e 4571 5cbe
000000b0: bf2f 6dbb bd77 6abb 1089 b0bd 205b 8ebe
000000c0: 876c 7cbe 9eea 8abe ba0d fabd 3667 16bf
000000d0: 3ebc a9be c89f efbd 2130 ef3c 9d7c c1bc
000000e0: dae0 adbd 9e53 5fbd a18a b6be f97f 84bd
000000f0: 0400 a3be 5d5e b13d aa11 823e c68b 0fbf
00000100: acaa 87be d64f e2be e227 75be e648 0cbf
00000110: ffb6 853e a8ff a3bd 3783 11bf 57fa 16bf
00000120: 9799 f23d 861f ca3e f496 bf3e 18da d5be
00000130: f097 44be ba1b e13e eb93 8d3e e314 4f3e
00000140: 82d9 da3e edf2 ea3e 01f8 d1be 1849 d6bc
00000150: f5c7 ea3e 8aa2 a8be 78fb 95be 7050 9d3e
00000160: 7650 433e 4485 873c 59c0 6cbd fb89 c83e
00000170: 7c6f 7a3e 8b44 203e dc4f 113d b436 d83d
00000180: 88d4 d43d 564d 6d3e a25b 50bd 765a 883e
00000190: 65a2 de3e 4a9b fe3e 1eaa 463e bca1 f03c
000001a0: b118 9dbe d98b dc3e 9b5b fcbe c729 47be
000001b0: 0197 9d3e 06c2 51bd 90f8 1dbe 674f 19bf
000001c0: 2d37 86be 63e5 4bbe 85b8 313d 5d3e 713d
000001d0: e28b d5be 9903 723e ece6 3ebe 6e26 5ebd
000001e0: 3ca7 a0bd 417f 343d 338f dabd 04c0 0d3f
000001f0: e02e ed3e b582 c73e b279 9b3e 11d6 47be
0.26033965 0.066075034 0.15970305 -0.11487387 -0.035486802 -0.2789039 -0.032569114 -0.38955766
0.44892487 -0.49620923 0.09629634 -0.53431344 0.32508558 0.21252212 -0.17678447 -0.48942554
0.4740787 0.36482862 0.16226554 0.34765616 -0.08667398 -0.4379189 -0.036304187 0.1877064
-0.38499308 0.07518589 0.19344065 -0.59268206 -0.13059796 0.31545323 0.21817678 -0.60108954
-0.27618957 0.29791355 0.31240442 0.58558893 -0.2491428 -0.20257181 -0.25314325 0.370201
0.09113287 0.36408225 0.36139503 -0.21527584 -0.003619179 -0.0035776936 -0.086198926 -0.27803898
-0.24650775 -0.27132124 -0.122096494 -0.5875124 -0.3315143 -0.11700398 0.029197754 -0.02361899
-0.08490153 -0.054523103 -0.3565264 -0.06469721 -0.3183595 0.086605765 0.25404102 -0.5607265
-0.264974 -0.44201535 -0.23940995 -0.54798734 0.26116177 -0.08007747 -0.5684084 -0.5897574
0.11845701 0.39477175 0.37419856 -0.41767955 -0.19198585 0.43966466 0.27651915 0.20222811
0.4274407 0.45888463 -0.41009524 -0.0261579 0.4585568 -0.32936507 -0.29293418 0.3072543
0.19073662 0.016543038 -0.057800625 0.3916777 0.2445659 0.15651147 0.03547655 0.10557309
0.103920996 0.23174033 -0.050868638 0.26631516 0.43483272 0.4972785 0.19400832 0.029373996
-0.306829 0.43075445 -0.4928864 -0.1944953 0.3077927 -0.051210426 -0.1542685 -0.59886783
-0.2621397 -0.19911723 0.043388862 0.058897365 -0.41708285 0.23634185 -0.18642777 -0.05423587
-0.078443974 0.04406667 -0.10671844 0.5537112 0.46324825 0.3896691 0.30366284 -0.19515254

linear_relu_stack.0.bias f4 [32]
00000000: b296 a63e 96a1 a1be cf86 ea3e 0def b6be
00000010: 9809 febc deca b2bd 3c55 803e 7d08 933e
00000020: d2c6 c63e c761 abbe 2e3b 65bd e6fb a53e
00000030: 1ded d23e 401a f1be 6b27 2a3d 91e4 b33d
00000040: aa05 253e 07ca 883e ebfb f3be f57e d93e
00000050: 4b44 4e3e 0de5 613e 77de acbe fc57 b0be
00000060: 1aa2 fc3e fe0c 7f3e 7e4a 663e d067 e13b
00000070: 6c91 8abe 109c b43e 39d2 d33e b548 ddbb
0.32536846 -0.31568593 0.45805976 -0.35729256 -0.031010434 -0.087301 0.2506503 0.28717414
0.38823563 -0.33473036 -0.05596464 0.32418746 0.41196528 -0.4709034 0.0415415 0.0878383
0.16115442 0.26716635 -0.47653136 0.42479673 0.20143239 0.22060032 -0.33763477 -0.34442127
0.49342424 0.249073 0.22489354 0.0068788305 -0.27064073 0.35275316 0.41371325 -0.006753052

linear_relu_stack.2.weight f4 [32, 32]
00000000: 16f9 023e c897 24be 4db3 0ebe 7871 4e3c
00000010: 3863 923d c9fe 8f3d 2592 fd3c 6a1a 143b
00000020: 8271 143e 137a 68bd fe40 063e 982c af3d
00000030: b59e 3d3d 38ac e4bc c4a0 16be d072 e6bd
00000040: 992e d5bd ba24 e9bd 49d1 89bb 2293 643d
00000050: 4791 25bd fb43 a73d 4840 41bd cbf9 9b3d
00000060: fb59 46bc caa0 84bd dd6b 05be 7728 d93c
00000070: f3e7 09bd 5e4e d23d dfe9 673e a913 463d
00000080: de15 233e 4da8 aabd 37a7 c5bc 5775 54bd
00000090: 46d8 5fbc d3da de3d 8b5a 18be e3ee 10be
000000a0: 3bea 86bd a14d 89bc e448 b43d 6b55 7bbc
000000b0: 7717 c0bc 4fdb a53d dca1 203e ebbf 0e3d
000000c0: 5b9e debd 1f91 123d 12de 2d3d f399 b7bd
000000d0: bfdd afbd 405f 3cbe e641 5dbd 3fef 933d
000000e0: b95d a53d 5a46 0f3e 00bd 413e 3101 083e
000000f0: 84dd e3bd 3ba4 083e 937c e1bd 9469 4abd
00000100: 2d2b 2b3c eebf b83d d08d 163e fc10 37bd
00000110: ff51 ef3d 0d01 c3bd a1bd 24be e8a2 51bd
00000120: e8dc 073e e120 1ebe 5a4e bf3d 248d e3bc
00000130: 6f1c e13d a761 283e ab42 383b def4 65bd
00000140: f0f7 c93d ed27 36be 8ab6 2ebe 2e48 2d3e
00000150: 3d74 9f3d da9a 263d 9630 4f3c 97b7 db3d
00000160: 23d1 d2bd ff39 e93d d205 a7bd e3b2 c83b
00000170: 73ae 98bd a59b 233e 5eaa 673d 465b 0fbe
00000180: a53d 34bc a6ca f5bd 2dc7 223e 0cc2 ec3d
00000190: b7fd 0dbe f9c8 99bd 7a16 a13c e750 09bd
000001a0: e0db 11be 87d8 2e3e 9d50 aa3d 6b04 8a3c
000001b0: 9cae 2fbe 96ed 2dbd 35f8 80bc 227c 083e
000001c0: ed69 a8ba cb92 6c3d c75b c53d 7f25 0dbd
000001d0: 0ed4 1cbe 8330 c93d e2dd b03d 06ca d4bd
000001e0: ca1f fe3d 6db9 3cbd 7a4d fa3d fecf dfbd
000001f0: c1a6 1ebe 0915 f3bd fd0c 2b3d de20 0e3d
00000200: 7b1c 863d 3a21 0bbd 85d5 debd ed86 bcbd
00000210: bc5b fa3d 4caf 04be 73b9 d6bd fc66 2fbe
00000220: 635c d13d 861e 4a3c 5178 aa3d cd7a 023e
00000230: 2b73 babd 6681 8c3c 8193 113e f740 6fbd
00000240: 4c48 d0bd 1161 08be f68c adbc 7b65 a63d
00000250: 8cbb b53d b141 c0bc 714d 66bd 376f 22be
00000260: 4bce 3fbb 37bc 193e e12e 10be 0c5b 1e3d
00000270: 1103 06bc 3365 533c 9e08 123e 32c1 573d
00000280: 7079 9c3d 95a5 063d a457 033e a1e6 a73d
00000290: 3299 d93d cbaa 1dbe 4029 d6bd 3dfe 02be
000002a0: d689 143d 1d2b 78bd dd2c 3f3d 50a6 fd3d
000002b0: 7d39 6b3d aac7 383d 5dac c53d 4e39 c03d
000002c0: d5d3 bbbd 35d0 2f3e 07c5 e3bd 2852 b4bc
000002d0: 6659 1ebe f783 1cbe 7af5 01be 0aab c33c
000002e0: a537 473d c707 bebd 27ca 1d3e d0a6 2dbd
000002f0: 2f3c 46bd 7a34 173c 0bde f1bd 45d5 c1bd
00000300: 7c42 c03d 8c31 573c 02a3 9a3e 6e55 453d
00000310: 9220 bb3d d1c1 17be b938 673e 420a e93d
00000320: e8ee 52be 60ce 673d ffb3 71bd 36e1 c3bc
00000330: d705 af3d 56cb 113e 9aca 00be 04d5 233e
00000340: 9836 073e 49b7 1b3e 0059 7ebd 658f 183d
00000350: 318c 313e 8036 73bd a80f 3a3d 79d2 fb3d
00000360: 93ee 753d a31d f4bd b31a 96bd f535 ba3c
00000370: e906 ef3c d4e0 3b3e fc52 20be 4e47 193d
00000380: 3fb0 9b3d 7a1b 2dbe 9d05 ecbd 41df 23be
00000390: 2f82 fd3c fdba cb3a 0b14 9f3d f628 e43c
000003a0: 9c88 463e 6948 c43b 6a21 24be 69d9 00be
000003b0: 7928 09bd 7a64 ce3d 9c7c 823c c473 0bbe
000003c0: da78 0cbe c019 913b 214e 263e 505e 103e
000003d0: b3b6 9bbd 3652 0ebc bda1 8b3d fd35 aa3d
000003e0: 69dc fa3d 02fe 07be fd44 3dbd 1473 57bd
000003f0: 623d a93d c8be f63d 502b 4e3e 0849 26be
0.12790331 -0.16073525 -0.13935585 0.012600295 0.07147831 0.07031018 0.030953476 0.0022598752
0.14496425 -0.056757044 0.1311073 0.085534275 0.046293933 -0.027914152 -0.14709765 -0.112523675
-0.104092784 -0.11383958 -0.004205857 0.05580438 -0.04042175 0.08167263 -0.047180444 0.076160036
-0.012106414 -0.064759806 -0.13029428 0.026508553 -0.03366847 0.102688536 0.22647808 0.048358593
0.1592631 -0.08332882 -0.024127586 -0.051869716 -0.013662403 0.10881581 -0.1487829 -0.14153628
-0.06587645 -0.01676065 0.08802965 -0.015340189 -0.023448689 0.080984704 0.15686744 0.034850996
-0.10870048 0.03578293 0.04244811 -0.0896491 -0.085872166 -0.1839571 -0.054017924 0.07223367
0.08074517 0.1399168 0.18919754 0.13281704 -0.11126235 0.13343899 -0.11010089 -0.049417093
0.010447306 0.09020983 0.14702535 -0.044693932 0.116855614 -0.09521685 -0.16087963 -0.05118075
0.13267863 -0.1544223 0.09341116 -0.027777262 0.109917514 0.16443501 0.002811591 -0.056141727
0.098617435 -0.17788668 -0.1706182 0.16922066 0.077858426 0.04067502 0.012645861 0.10728376
-0.10293796 0.11388015 -0.08155407 0.0061248406 -0.074551485 0.15977342 0.05655896 -0.13999662
-0.011001025 -0.12001543 0.15896292 0.11560449 -0.13866316 -0.075090356 0.019664038 -0.03352442
-0.14244032 0.17074786 0.08316157 0.01684781 -0.17156452 -0.042462908 -0.015743354 0.13328603
-0.0012848951 0.05775718 0.09636646 -0.034459587 -0.15315267 0.09823706 0.08636071 -0.103900954
0.12408407 -0.046075273 0.12221809 -0.10928343 -0.15493299 -0.118692465 0.041760433 0.034699313
0.06548401 -0.033967234 -0.10880569 -0.092054226 0.12224528 -0.12957495 -0.104845904 -0.17129129
0.102226995 0.012336379 0.0832373 0.12742157 -0.09103998 0.017151546 0.14216425 -0.058411565
-0.101700395 -0.13318278 -0.02118538 0.081248246 0.08873662 -0.023468824 -0.056226198 -0.15862738
-0.0029267247 0.15013205 -0.14080383 0.038661048 -0.008179442 0.012902546 0.142611 0.05267448
0.0764035 0.032872755 0.12826401 0.08198286 0.10624923 -0.15397184 -0.104570866 -0.12792297
0.036264263 -0.06058799 0.046673644 0.12385237 0.057427872 0.04511229 0.09652016 0.0938593
-0.09171263 0.17169268 -0.11121564 -0.022011831 -0.1546379 -0.15284716 -0.12691298 0.023885269
0.04863705 -0.09278827 0.15409146 -0.042395413 -0.04839724 0.00922882 -0.118099295 -0.09464506
0.09387681 0.0131343715 0.3020249 0.048177175 0.09137072 -0.14820029 0.22580232 0.1137891
-0.20598948 0.0565933 -0.05900955 -0.0239111 0.08546036 0.14237723 -0.12577286 0.15999228
0.1320442 0.15206636 -0.062096596 0.037246127 0.17338635 -0.059378147 0.045425087 0.12296004
0.060041975 -0.11919715 -0.07329311 0.022730807 0.0291781 0.18347484 -0.15656656 0.037421517
0.07601976 -0.16905013 -0.11524508 -0.16003133 0.030945865 0.0015543398 0.07767495 0.027851563
0.1938805 0.0059900773 -0.16028371 -0.12582935 -0.033485863 0.10077758 0.015928559 -0.1361838
-0.13717976 0.0044281185 0.16240741 0.14098477 -0.076032065 -0.008686593 0.068179585 0.08311079
0.12249071 -0.1328049 -0.04620837 -0.05259998 0.08263661 0.120481074 0.2013371 -0.16238797

linear_relu_stack.2.bias f4 [32]
00000000: 3e5e 9e3d ce66 993d abdb c7bb 100a d73d
00000010: d825 23be eaa6 233e dbb7 8b3d 2ef6 f43d
00000020: dca8 30be 19b7 fe3d 6234 27be b1ad 1f3e
00000030: a884 053e 84d6 1bbd 4386 1fbd dd52 c23d
00000040: f603 893c a860 1cbe 1f45 68bd 115d 2a3e
00000050: b90c 003e b0bb eb3d 22c6 02be 2d93 99bd
00000060: e860 6b3e 40a1 b73c 4130 f43d 2902 95bd
00000070: 5861 953b 7679 3e3d 020e cb39 5b84 4d3d
0.07732819 0.074903116 -0.0060991845 0.10499966 -0.15932405 0.15981641 0.06822177 0.119610175
-0.17251915 0.12437267 -0.16328576 0.15593602 0.13038886 -0.038046375 -0.0389464 0.09488461
0.016725522 -0.15271246 -0.056706544 0.16637065 0.12504853 0.11510408 -0.12770894 -0.07498775
0.22986186 0.022415757 0.11923266 -0.07275803 0.0045587234 0.046502553 0.00038729614 0.050175052

linear_relu_stack.4.weight f4 [2, 32]
00000000: d29f 96be 06be 65bd 85c5 3ebc 0ce4 3a3e
00000010: ff68 8dbd 08d5 153e 32da 9c3e ffa8 8ebe
00000020: 2144 72bc 5978 bcbe 0977 eabc 4ca3 b8bd
00000030: c831 c0be 62db 27be f3f2 033e f84f e83a
00000040: 640b 4f3e e006 07be 0b08 25be 793b 28be
00000050: 80c8 8bbc 36ac f4bd c5e3 4d3d 7ef2 09bd
00000060: 94c1 a1be 88bb 03be 576c c83e 9f71 013f
00000070: bd63 e23d f351 18be ec10 dd3d 64ea 803c
00000080: 191b 543e 9a07 1fbe e6e9 323e e69e eb3d
00000090: 6722 3b3d 9c96 fe3b b9ce 8ebe c851 0c3e
000000a0: 2705 9bbd 97c9 823e b25d 25be 10e5 063c
000000b0: 6f47 b53e cd2e 6b3c 6382 95be ae3d e1bd
000000c0: 3c27 3ebe 7635 00be 758c 033c 9b72 e03d
000000d0: b891 143c f0c9 853d c964 b3bd dcf4 dd3d
000000e0: 4851 a73e 24b7 413d 2c7e 1dbe 576f 15bf
000000f0: 0bf6 203e 368d 92bc 33b0 2fbe 0b21 65bc
-0.29418808 -0.056089424 -0.011643772 0.18251055 -0.06904792 0.14632046 0.3063522 -0.2786331
-0.014786751 -0.36810568 -0.028621214 -0.090155214 -0.3753798 -0.16392282 0.12885647 0.0017724028
0.20219189 -0.13186216 -0.1611635 -0.16428937 -0.01706338 -0.11946909 0.050266046 -0.033678524
-0.31593 -0.12864506 0.39145157 0.50564 0.1105418 -0.14875011 0.10794243 0.015736766
0.20713462 -0.15530244 0.17472038 0.11504917 0.045687106 0.007769419 -0.27892092 0.13703072
-0.07569342 0.25544426 -0.16149023 0.008233324 0.35406062 0.01435442 -0.2920104 -0.109980926
-0.18569654 -0.12520394 0.008029093 0.10959359 0.009067945 0.06532657 -0.087594576 0.10837719
0.326792 0.047293797 -0.15380162 -0.58373016 0.15718858 -0.0178896 -0.17157058 -0.013984929

linear_relu_stack.4.bias f4 [2]
00000000: b62f 59be 4466 82bd
-0.21209607 -0.06367162
