Parameter/cartTRPO/1.pth (torch, 7255 bytes, 6 tensors)

linear_relu_stack.0.weight f4 [32, 4]
00000000: ee6b ccbc 7f54 d83e 71b5 a6bd 97b6 d63e
00000010: dee5 dabe bebd e33c e557 023f 2dd0 853f
00000020: a493 433e 2a31 d53e 1c69 f03d a6a6 babe
00000030: 30e7 7c3d cf55 b93e 451b 903e 0e45 213d
00000040: f57c 2dbe 3a8e debe e808 8abe f6d6 6cbf
00000050: b33e b33c e9b6 2e3e a226 2fbe 47fc 9cbe
00000060: cfe2 973e 8090 aebd e0cc 11be 0898 f53d
00000070: f0bb a4be 80d9 9a3e dd74 973d e698 1f3e
00000080: 4827 993d 8451 e8bc aa3c 833d 3f86 18be
00000090: d6a1 49be 5aa5 cc3e 461c dc3e efbf e7bd
000000a0: 9cae 22be b7eb 593e 231d dabe 61ae 603d
000000b0: ddc3 c43e 9429 17bf 105c 03bf 9ba2 e7be
000000c0: 98a7 68be 7ff2 693d 780b 7c3d 8bdb ebbe
000000d0: 646b 0d3e db45 df3e a295 d23d d56b 07bf
000000e0: 3a93 d93e f2a1 b63e 136c 55be 36fe dc3e
000000f0: 1486 cb3e 5ee5 843e 081c 58be 352b 3b3f
00000100: 52d8 c9be a9d5 c0be b77a debe 515b a6be
00000110: d9f4 e53d d6b1 c0be abff 02bf ff60 52be
00000120: f063 2fbe 8f30 bcbd 1d99 97bb 7668 4a3e
00000130: acdf 433e d237 b3be 03ce 97be 3fc8 a33e
00000140: b6c2 723e 339e c43e ec1c dfbe 8c89 f23d
00000150: 4c25 e43e ef6d f43e 9342 50be a0ae 043e
00000160: 1022 f1bd 966c ecbe 5ffe f8be bf00 87be
00000170: f4b7 ce3d 783c 193e 97e9 9c3e 1de0 19be
00000180: 23f7 f13e 4c14 bb3e ee28 77be e8e1 113d
00000190: 108d bcbc e27b 153e a734 ad3e 06fe 4fbe
000001a0: 2a36 8e3e 8617 303b 91c2 64be 290a 4d3f
000001b0: ea6c 1fbe 7820 30bd 7189 c8be 999d c8be
000001c0: 7e13 803e b654 87be abe5 bebe 84c0 773d
000001d0: ffc6 48be cda9 8e3e f539 8b3e 80c8 61bd
000001e0: 8910 f8be 4671 813c af48 a4be d186 5dbf
000001f0: 0f58 833e fe7f 04bf dc71 33bf 97d6 52bf
-0.024953809 0.42251965 -0.08140076 0.4193618 -0.427535 0.027800437 0.50915366 1.0454155
0.19099289 0.41639072 0.11738798 -0.36455268 0.061743915 0.3619828 0.28145805 0.039372496
-0.16942199 -0.43467885 -0.2695992 -0.92515504 0.021880483 0.17061962 -0.17104581 -0.30661222
0.2966523 -0.08523655 -0.1423831 0.11991888 -0.32174635 0.30244064 0.07395337 0.1558567
0.074781954 -0.028359182 0.06408055 -0.14894961 -0.19690642 0.39969903 0.4299032 -0.11315905
-0.1588692 0.21281324 -0.42600355 0.0548538 0.38430682 -0.5904782 -0.5131235 -0.45241246
-0.22720182 0.057116028 0.061534375 -0.46065935 0.13810498 0.43607983 0.102824464 -0.52898914
0.42495137 0.3567043 -0.20842008 0.43162698 0.3975073 0.25956243 -0.21104443 0.73112804
-0.39422852 -0.3766301 -0.43453 -0.32491544 0.112283416 -0.37635678 -0.5117137 -0.20544814
-0.17127967 -0.09188949 -0.004626407 0.19766411 0.19128293 -0.35003525 -0.29649362 0.31988713
0.23707089 0.38401946 -0.43576753 0.11842641 0.44559705 0.47740123 -0.20337896 0.12957239
-0.11774075 -0.46176594 -0.4863157 -0.26367757 0.1009368 0.14964473 0.30646965 -0.15026899
0.47258863 0.36538923 -0.24136707 0.03561583 -0.023016483 0.14598039 0.33829233 -0.20311746
0.277757 0.002686949 -0.22339846 0.8009363 -0.15568891 -0.042999715 -0.3916736 -0.39182737
0.2501487 -0.26431817 -0.37284598 0.06048633 -0.19607161 0.27863923 0.27192655 -0.055122852
-0.48450115 0.015801083 -0.32086703 -0.8653384 0.2565312 -0.517578 -0.7009561 -0.8235869

linear_relu_stack.0.bias f4 [32]
00000000: 82ef 56be cddf f53e c3e9 e53d 126f 99be
00000010: 60df a13e 05a0 d9be 539f dbbe 5b4f 473e
00000020: 4cb9 a23e 8d32 83be ab0c 1bbe 43aa 123e
00000030: 6213 4f3d 9ea9 9bbe da3e d03e 761e 9d3e
00000040: 303c 4ebd 2774 203e 7cd7 e7be e508 d1be
00000050: c75c b4be 21d4 fcbe 840d 7f3b 3272 f73d
00000060: 03ea 83be c207 9bbe 6246 053f b872 f2be
00000070: 50a6 97be 0f10 40be 475e a83e 7261 bc3e
-0.20989802 0.4802231 0.11226227 -0.29967552 0.31615734 -0.42504898 -0.42894992 0.19463865
0.31781995 -0.25624505 -0.15141551 0.14322762 0.050555594 -0.30402845 0.40672952 0.30687302
-0.050350368 0.15669309 -0.4528159 -0.40827098 -0.35227033 -0.49380592 0.0038917968 0.12082328
-0.25764474 -0.30279356 0.5206052 -0.47353148 -0.29619074 -0.18756126 0.32884428 0.36793095

linear_relu_stack.2.weight f4 [32, 32]
00000000: 1de7 0c3d 952d 1a3e fc57 2cbe 69ab 3abe
00000010: 2b64 113e 4107 16bd a6f7 19be db20 15be
00000020: e1b6 b6bd b4c9 29bb c201 cfbd 7d0a c9bc
00000030: dc63 aabd ad16 243e 0f26 20be 0277 17be
00000040: 2319 1c3e b4bd b73c 913d 4b3d 0de1 aa3c
00000050: 29a0 143e 5ca7 31be 4b9c 1e3e fe89 973d
00000060: a3ff 16be 6113 80bb 8df0 dbbc 78d7 203e
00000070: cfb9 f33c eaa5 6cbc ac0d 59bc 75c0 8e3e
00000080: 6ea5 143e e622 7b3e 70e8 b43c 0500 9a3d
00000090: 9897 83be ca0e 7f3d e2cc c8bd 1a00 293c
000000a0: 1e88 1a3e e14a 283e a4fd ac3d 393b 3abe
000000b0: c78e 24be 182e b2bc 19ee a13e 9b68 573e
000000c0: 648c 27bd f9df fbbd 204f a63d 0ed9 d83d
000000d0: f02f dd3d 8a7a e6bd 681a 25be 0a7c 153c
000000e0: 0834 163e f0dc a3bb 4b1f 713e c66d 2bbe
000000f0: a27a 4f3d ea2b 18bd 6748 40be 5f1b 89be
00000100: 9b04 773d 6854 233e 1cba aebd 0261 043e
00000110: 40cc 3fbe 70fd 26be 954a d2bd 6c31 2bbe
00000120: 6ff2 c63d 674c 22be 7cf1 2abe 9ee6 153e
00000130: c1ca 1dbe 67ff a53c bf92 a1bc 3174 fdbd
00000140: 44ab 36bd fbbd e23d adbe c8bd 207f 1dbe
00000150: d93e e43d 0f3f 433c 5225 2cbe 31c5 7abd
00000160: 2b29 eabd 43ba 0bbe 8d4b 24bd 0fce 15be
00000170: e15d 20be af1f 38bd 16da 7abd 9a70 3e3d
00000180: d79e dbbd 8630 04be bcf8 1abe 5a50 ab3b
00000190: 94af 1abe 9a1b f83d 2b82 a3bd e99f 3d3d
000001a0: 8a71 353d 9533 e03d ecae 11bd b8fb e1bd
000001b0: da4a ef3c 1e98 b5bd 48e6 d8bd d4d6 82bd
000001c0: dc24 123d d558 5d3d 4d1a 8ebd d46e eabc
000001d0: 50d8 523d f54d 043e b189 063e afa6 b83d
000001e0: 5d76 25be 5f51 4d3c 60c7 983d c877 54bd
000001f0: 8ad8 9b3b b3b1 2d3e 205a 0e3e 63e8 c53b
00000200: 0fb7 29bc 7025 abbe 977a 1c3e e453 013e
00000210: 0240 ce3e 6b46 5cbd 8805 38be 72f0 42be
00000220: 6d8a 813d 7be1 1b3e 653b fa3d a21b 173e
00000230: 97f7 643e d0f9 4f3e 62a5 763d 0269 87be
00000240: e06d 21bd 507e 8c3e aa72 5abd 9b9c da3c
00000250: ba92 ccbd 883f 14be fcb3 343e 23de 01be
00000260: 9a66 f03d b513 1b3e ef33 ac3d e8b9 b63d
00000270: 1fb5 763b 25d9 a9bc 0653 c13e 386f b93e
00000280: 5f1d 023d 1180 ca3e a8a8 fc3d b340 12bd
00000290: ed30 7bbe 1392 aabd f6de 153e 896e 473e
000002a0: 0eb4 eb3d fb25 713d dbf1 123c c7ee 65bd
000002b0: c5a6 2ebe 5dc3 3e3d a33a 9c3e 2384 15bd
000002c0: d792 08be 3245 a0bd 6873 0b3d 2add 99bc
000002d0: e5fd 91bd 296e b6bd 05f6 eebc 9ba5 f43d
000002e0: a028 643d 8d1d e4ba a9e9 693e 794e 043e
000002f0: 9c61 58bd 01b6 b93d 5aae d9bd 6717 63be
00000300: c947 8ebd c3ea 55be 037f dabd d00b 9a3d
00000310: 5973 543e 642c a9bd 27ed 973d d64b 61be
00000320: 41a2 133e d875 f4bd d591 92bd 99b3 94bc
00000330: b1e6 a93c 57bf eb3d 2523 7a3c 90f3 a13c
00000340: 0972 1b3e 55ce 893d 2e63 cc3d 23f7 dfbd
00000350: 94bc 02be 09b5 e33d cbf4 333d 69b7 763d
00000360: ecde 21bc e671 713d affc 73bc cf4e ea3d
00000370: 8c51 b839 be90 993d 3d7b 9b3e dcb4 bc3e
00000380: 23f2 6bbc 490a cb3d cea8 9c3d fbcc 8cbd
00000390: 7a6d 063e 5177 cabd 75df 593c 1d94 c83d
000003a0: 37b7 ca3d 1174 bfbd 0080 03be 902b 363e
000003b0: 1044 b53c 7778 f5bd ce4b f4bd 54c8 55bd
000003c0: 6ba0 b0bb 5404 17be c931 eabb 324e 85bd
000003d0: b27e f3bd cabc 41bd db14 833c 4b4e 95bd
000003e0: bd87 67bd 06a7 68bd 6c1a 173e e79d 3bbd
000003f0: 4c0f 1f3e 302b 10be 0d94 42bd 6f1b 933d
0.034400094 0.1505645 -0.16830438 -0.1822945 0.14198367 -0.03662801 -0.15035877 -0.14563315
-0.089216 -0.0025907578 -0.10107757 -0.024541134 -0.08319828 0.16024275 -0.15639518 -0.14791492
0.15243964 0.022429325 0.04961926 0.020859266 0.14514221 -0.17348999 0.15489309 0.07399367
-0.14745955 -0.00390856 -0.026848102 0.15707195 0.029751686 -0.014443854 -0.013247889 0.27881208
0.14516231 0.24525031 0.022083491 0.07519535 -0.25701594 0.062269963 -0.09804703 0.010314966
0.15090987 0.16434814 0.084468156 -0.18186654 -0.1607009 -0.021750495 0.31626967 0.21035998
-0.04090537 -0.12298579 0.08120561 0.10588275 0.10800159 -0.11253841 -0.16123354 0.0091238115
0.14668286 -0.005000703 0.23547094 -0.16741094 0.05065406 -0.037151255 -0.1877762 -0.26778695
0.060307126 0.15950167 -0.08531591 0.1292763 -0.18730259 -0.16307616 -0.10268132 -0.16718072
0.09714209 -0.15849458 -0.16693681 0.14638755 -0.15409376 0.020263387 -0.019723294 -0.123756774
-0.044596925 0.11071392 -0.098019935 -0.15380526 0.111448 0.01191689 -0.16811112 -0.061223213
-0.114336334 -0.13645272 -0.040111113 -0.14629386 -0.15660812 -0.04495209 -0.06124314 0.046494104
-0.10723656 -0.12909135 -0.15133947 0.0052280845 -0.1510604 0.121146396 -0.07983812 0.04629508
0.044297732 0.109473385 -0.03556721 -0.1103434 0.029210497 -0.08866905 -0.10590798 -0.063886315
0.035679683 0.054039795 -0.0693861 -0.0286173 0.051475823 0.12920363 0.13138463 0.09016167
-0.16158433 0.012531607 0.07459903 -0.051872045 0.004756038 0.16962318 0.13901567 0.0060396655
-0.010358586 -0.33427 0.1528114 0.12629658 0.4028321 -0.053778093 -0.1797086 -0.19037035
0.06325231 0.15222733 0.1221836 0.14756635 0.22360073 0.2031014 0.060216315 -0.26447302
-0.039411426 0.2744012 -0.05333201 0.026686003 -0.09988923 -0.1447736 0.17646784 -0.12682395
0.1173832 0.15144236 0.08408343 0.089221776 0.0037644578 -0.020733425 0.37758654 0.36217666
0.03176629 0.39550832 0.12336856 -0.035706233 -0.24530382 -0.08328643 0.14635834 0.1947576
0.11508952 0.05887411 0.008968796 -0.05613592 -0.17055805 0.04657303 0.30513486 -0.03650297
-0.13337265 -0.07825698 0.034045607 -0.018782217 -0.07128505 -0.0890773 -0.029170046 0.11945649
0.055702806 -0.0017403826 0.2284304 0.1292056 -0.052827463 0.090679176 -0.10628958 -0.22176896
-0.06947286 -0.20890336 -0.10668757 0.07521784 0.20747127 -0.0826042 0.0741828 -0.22001585
0.14417364 -0.119365394 -0.071567215 -0.018152045 0.020739885 0.115111046 0.015267168 0.01976946
0.1518022 0.06728808 0.099798545 -0.109358095 -0.1276725 0.11118514 0.043934625 0.060233507
-0.009879809 0.058946513 -0.014891787 0.11440813 0.00035155972 0.074983105 0.3036746 0.36856735
-0.014400992 0.09914071 0.076493844 -0.068750344 0.131277 -0.09886039 0.013297905 0.09793875
0.09898227 -0.0934831 -0.12841797 0.17790055 0.022127181 -0.119858675 -0.11928521 -0.052193
-0.005390217 -0.14747745 -0.007147048 -0.06509055 -0.118893996 -0.047299184 0.016001156 -0.07290324
-0.056525934 -0.05679991 0.14756173 -0.045804884 0.15533179 -0.14078975 -0.047504473 0.07182967

linear_relu_stack.2.bias f4 [32]
00000000: 550c ef3c dcff bd3e ef5a f9bd 4447 bbbb
00000010: feba 423e e122 8b3d bd81 313e 1f58 3ebd
00000020: e03a 583d 17c0 423e 5c13 14be ba65 b3bd
00000030: 032b 883e 11e8 733e c2b4 9d3c 7fc0 eabd
00000040: ff7c 31be 4ac5 3c3d e0a8 9bbd 1477 973e
00000050: a01d 9fbd 31bd 843c 0b1f 38be 9be9 f53d
00000060: a90c 423e 026c d13d 60fc 893d 4d80 a4bd
00000070: 9898 d4bc 8f8f f5bd 4e53 e8bc dec6 583e
0.029180685 0.37109268 -0.12175547 -0.0057152826 0.19016644 0.06793762 0.17334647 -0.046470758
0.052790523 0.19018589 -0.1446051 -0.08759637 0.26595315 0.23818995 0.019251231 -0.11462497
-0.17332838 0.046086587 -0.0760057 0.29583037 -0.077693224 0.016203495 -0.17980592 0.12007447
0.18950142 0.10225679 0.0673759 -0.08032284 -0.025951669 -0.11990272 -0.028360035 0.21169612

linear_relu_stack.4.weight f4 [2, 32]
00000000: 331d 5c3e bfbc dcbe f9fa 0abe 8319 2c3d
00000010: 4e37 253f bbce 04bf 2dd7 da3e 2273 373e
00000020: 819e 563e e88d dc3e 97dd ab3b 8807 003d
00000030: 99ab 243f dd3d 38bf a72e a0bd 22a9 28be
00000040: 92ef cabd 8aaa 2e3e 8ee7 1f3d af4d 30bf
00000050: 9dc7 f03d 11ad f83d c362 07be 9117 df3d
00000060: f4fb 9fbe c542 923e 145d 5fbe f4c2 1c3e
00000070: 3ae7 273e 3ebc eabc 5af3 52bb b805 113f
00000080: f483 25be d297 213f 8387 273e c8c7 3b3d
00000090: 3724 0ebf 0788 b93e f953 9ebe 88d8 ba3d
000000a0: 8a65 8abd d79e f3be 2535 a33d d8af 8abd
000000b0: d29e 35bf 8e99 103f 60c2 d93d 6a78 c1bd
000000c0: ffc0 aa3d c629 703d 33da 79be 4b08 2f3f
000000d0: cf14 51bc 3ac4 f2bd be53 e9bc b4f5 53be
000000e0: 1659 ad3d 40f3 0fbf dea4 bc3e 70a1 82bd
000000f0: f008 9c3d fccb 8b3d 0a78 c43d 7cdb f9be
0.21495514 -0.43112752 -0.13572301 0.042016517 0.64537513 -0.51877946 0.4274229 0.17915013
0.20958902 0.43077016 0.0052449214 0.031257182 0.6432434 -0.71969396 -0.07821398 -0.16470769
-0.09908976 0.17057243 0.039039187 -0.68868536 0.11756823 0.12142385 -0.13221268 0.10893167
-0.31246912 0.28566566 -0.2181285 0.15308744 0.163968 -0.028654214 -0.0032188506 0.5664935
-0.16163617 0.63122284 0.16360287 0.045844823 -0.5552401 0.36236593 -0.3092344 0.09123331
-0.06757648 -0.47582123 0.07969121 -0.06771821 -0.70945466 0.56484306 0.10632777 -0.09446795
0.08337592 0.05863359 -0.24399643 0.6837203 -0.012761309 -0.118538335 -0.028482314 -0.20699197
0.084642574 -0.56230545 0.36844534 -0.06378448 0.07618892 0.06826016 0.09593208 -0.48800266

linear_relu_stack.4.bias f4 [2]
00000000: 0cda d6bd d849 0a3c
-0.10490808 0.008440457
