Parameter/cartTRPO/2.pth (torch, 7255 bytes, 6 tensors)

linear_relu_stack.0.weight f4 [32, 4]
0.20237173 0.15674476 0.39220992 -0.23408677 0.51754755 -0.24150698 -0.07969082 -0.3988766
-0.84335595 -0.3311404 0.17503074 -0.6863816 0.63812137 0.18698692 0.2576983 -0.6331263
-0.36030963 -1.0052731 -0.6563259 -0.576043 0.11905477 -0.92750317 -0.98331726 -0.5031546
0.2826483 0.38972482 0.43654108 0.3563694 0.76831216 -0.14081071 -1.4300592 -0.56831557
-0.25257635 -0.737788 0.254078 -0.17515317 -0.014312156 -0.38665435 0.3935203 0.4567452
0.030849742 -0.70314234 -0.9369193 -0.6965192 -0.39377686 0.08165324 0.47740635 0.33668733
-0.22172388 0.38451192 -0.18919061 0.35926667 -0.19616003 0.62251395 -0.18044275 0.031152507
0.39367598 0.6332102 -0.28194484 0.48204285 -0.18926263 0.0061574164 -0.043775897 0.33680156
-0.2524924 -0.71112823 0.12746891 0.02707679 0.3786614 -0.44214916 -0.29887056 -0.8934052
-1.2290446 0.81545126 0.79847246 0.7603315 0.65042937 0.22369416 -0.22953719 -0.60706264
-0.06010921 0.19153883 1.02032 0.08820048 -0.90676624 0.22815423 0.6580207 0.60401386
0.5368715 0.69488287 0.13010299 0.38638806 0.2686685 0.5643849 0.7382252 0.8238997
-0.1714106 -0.5327669 -0.011094749 -0.13599668 -0.39722076 0.5059323 0.5830846 -0.12996167
-0.65357524 -0.3364591 0.25399262 0.22784622 -0.5496959 -0.28269333 0.1956579 -0.22401176
0.56264675 0.65888864 -0.31055605 0.56154555 -0.9011648 0.282495 0.35288924 0.4792341
0.2609868 -0.27079204 0.5189617 0.21639998 -1.4634898 0.71077704 0.9698898 0.6809254
00000000: 893a 4f3e b381 203e bdcf c83e 71b4 6fbe
00000010: ff7d 043f 9b4d 77be f134 a3bd 8e39 ccbe
00000020: 2de6 57bf 3c8b a9be 423b 333e b4b6 2fbf
00000030: ec5b 233f 8079 3f3e 08f1 833e 9114 22bf
00000040: 817a b8be caac 80bf f904 28bf 8e77 13bf
00000050: fdd2 f33d d970 6dbf aeba 7bbf bdce 00bf
00000060: 47b7 903e 038a c73e 5082 df3e 0d76 b63e
00000070: 1bb0 443f af30 10be 2e0c b7bf 217d 11bf
00000080: b051 81be addf 3cbf 8316 823e 5a5b 33be
00000090: 887d 6abc 8ff7 c5be 7e7b c93e 82da e93e
000000a0: 99b8 fc3c 2301 34bf f1d9 6fbf 154f 32bf
000000b0: 1f9d c9be d039 a73d 9b6e f43e 4862 ac3e
000000c0: 960b 63be bfde c43e 2fbb 41be cdf1 b73e
000000d0: 2dde 48be 135d 1f3f fcc5 38be 8b33 ff3c
000000e0: e68f c93e 101a 223f 135b 90be 52ce f63e
000000f0: 10ce 41be 27c4 c93b 5b4e 33bd 4171 ac3e
00000100: af46 81be 800c 36bf 3687 023e 25d0 dd3c
00000110: e8df c13e 6061 e2be 9005 99be 34b6 64bf
00000120: 5551 9dbf 6ac1 503f b168 4c3f 16a5 423f
00000130: 8a82 263f 1510 653e cc0b 6bbe 7568 1bbf
00000140: 1335 76bd c122 443e d999 823f 74a2 b43d
00000150: d521 68bf 43a1 693e 0b74 283f a7a0 1a3f
00000160: 6970 093f d8e3 313f b839 053e a8d4 c53e
00000170: eb8e 893e 877b 103f 54fc 3c3f 17eb 523f
00000180: 4386 2fbe 6963 08bf c0c6 35bc b742 0bbe
00000190: 8560 cbbe c784 013f 0845 153f ac14 05be
000001a0: b550 27bf 5e44 acbe 520b 823e 8550 693e
000001b0: dfb8 0cbf 2ebd 90be 8b5a 483e 5763 65be
000001c0: 9e09 103f edac 283f 3401 9fbe 73c1 0f3f
000001d0: bdb2 66bf 2fa3 903e e6ad b43e 2c5e f53e
000001e0: 10a0 853e 41a5 8abe adda 043f f597 5d3e
000001f0: a253 bbbf 7cf5 353f b34a 783f 2151 2e3f

linear_relu_stack.0.bias f4 [32]
-0.0045428085 0.6535092 -0.17162438 -0.5111043 -0.08703646 -0.037722986 0.8842979 -0.087251715
0.9481171 -0.6535331 -0.5006179 0.65355784 -0.12558697 0.24186479 -0.06984359 -0.31244925
0.26066408 -0.45699647 -0.11011621 0.04007565 1.1482279 -0.2196485 -0.10730988 -0.5248115
0.75212616 0.6242796 0.17048234 -0.30963334 -0.06471017 -0.1317092 0.552335 -0.035776913
00000000: d7db 94bb 614c 273f 4dbe 2fbe bbd7 02bf
00000010: 2c40 b2bd 6b83 1abd 5961 623f 07b1 b2bd
00000020: cdb7 723f f24d 27bf 7f28 00bf 914f 273f
00000030: df99 00be 67ab 773e 280a 8fbd 59f9 9fbe
00000040: c375 853e 71fb e9be 9c84 e1bd 5d26 243d
00000050: 22f9 923f 89eb 60be 48c5 dbbd 0c5a 06bf
00000060: 578b 403f cad0 1f3f ec92 2e3e 4388 9ebe
00000070: c486 84bd c7de 06be d465 0d3f d08a 12bd

linear_relu_stack.2.weight f4 [32, 32]
0.01809115 -0.20805225 -0.027142938 -0.19410905 -0.38956323 -0.40400943 -0.065636344 -0.39410093
-0.054350726 0.028859315 -0.084515266 0.18738331 0.18753573 -0.11990541 -0.10205518 0.10080364
0.050086398 -0.2781678 -0.019197704 0.012183399 0.1383465 -0.11542452 -0.1509315 -0.018696377
-0.24285804 0.23737615 0.02813326 -0.16283827 0.0003862847 0.015908437 0.15809813 -0.21071647
-0.04986842 -0.03227749 -0.004023288 0.026188679 -0.07014925 0.19663693 -0.12744205 0.27438915
0.14874934 0.13027701 0.11907691 -0.056156635 -0.019419182 -0.065457456 -0.043884445 0.15655454
0.043806218 0.21408978 0.1779489 -0.0658749 -0.095817745 -0.018547704 -0.0076525304 0.12929922
0.023624375 -0.059149086 -0.10919813 0.1485169 -0.12032756 -0.009297708 -0.07408227 -0.05569092
-0.13474232 -0.15008889 -0.09626795 -0.078389965 -0.03203579 -0.13771285 -0.11414795 0.04234381
-0.0727446 -0.05662214 -0.117156975 0.13426894 -0.14937747 -0.03570783 -0.00896158 0.0023569637
0.1304082 0.058211368 -0.031333048 -0.15584402 0.16547956 -0.079752214 -0.09700811 0.05828993
-0.072612554 0.10695091 -0.1674795 0.045189887 -0.15503974 -0.14093275 -0.061440583 0.0008544805
0.17526974 0.014301339 -0.09563213 0.08810726 0.044130024 -0.11290867 -0.14398094 -0.09656999
0.082482554 0.05953926 0.04485147 -0.1684878 0.15246668 -0.06306773 -0.05494001 -0.06699487
0.13822395 0.008311807 -0.09312652 -0.12888871 -0.13808037 0.080180496 0.055251196 0.13746034
-0.1628974 0.13794957 -0.11436104 -0.14828064 0.13524994 0.0288244 -0.09180388 -0.042303447
0.09157968 -0.123743325 0.22511487 -0.13435617 -0.03975647 -0.093060896 -0.15722717 0.023654107
0.11109777 0.26168504 0.005388912 0.09568608 0.17263618 -0.1964356 0.0681684 -0.024055475
0.06240653 -0.080295525 0.4017236 -0.09424482 -0.12461484 0.3013875 0.17975123 0.22253262
0.011433259 -0.043937843 0.092770725 0.10798907 0.21067637 0.06885388 -0.06823597 0.20125405
0.14245671 0.090411924 -0.169032 0.025437184 0.014093259 -0.16774292 -0.0053333566 -0.14186013
-0.12274201 -0.031663712 0.1065519 0.09253416 -0.09796278 -0.14197753 -0.039521612 0.08635172
0.12973057 0.012706204 0.13454792 0.03634451 -0.052792635 0.01626673 0.16467743 -0.11440077
-0.057192564 -0.046804175 -0.016825456 -9.142475e-05 0.03428224 -0.083496794 0.02276945 0.00042466834
0.061556306 0.16727553 0.45255315 0.18759194 0.33208573 0.29439795 -0.2677431 0.63586134
-0.12324814 -0.12078383 0.10200253 -0.31136712 0.11641125 -0.020748066 -0.10011965 -0.11541729
-0.07850582 0.2971138 -0.10672865 0.2728638 -0.3374976 0.23563154 0.04211428 0.07257766
0.07881901 -0.0293327 0.13658185 0.1884402 -0.047170196 0.15673257 -0.03299722 -0.0032846555
-0.10166113 -0.12382094 -0.12323544 -0.06194217 0.06576791 -0.20809464 -0.028708495 -0.11255373
0.029867508 -0.05368277 0.078092024 0.09787196 -0.0010231668 0.08234963 -0.004488234 -0.105632566
0.18411377 0.052951705 0.155757 -0.2312394 0.12425811 0.019319164 -0.086247504 0.09984683
-0.08001988 0.034110833 0.027330518 -0.060978502 -0.021486668 0.14871062 0.0911167 0.038486097
00000000: e433 943c a60b 55be de5a debc 86c4 46be
00000010: d574 c7be 53da cebe 596c 86bd 99c7 c9be
00000020: de9e 5ebd 5f6a ec3c 5716 adbd 69e1 3f3e
00000030: 5e09 403e f890 f5bd 4e02 d1bd 2472 ce3d
00000040: 6527 4d3d 036c 8ebe 8144 9dbc e19c 473c
00000050: b4aa 0d3e b163 ecbd ca8d 1abe 2529 99bc
00000060: c7af 78be bc12 733e b977 e63c 13bf 26be
00000070: 4186 ca39 6952 823c 7ae4 213e 0fc6 57be
00000080: d442 4cbd 6735 04bd c9d5 83bb a489 d63c
00000090: 69aa 8fbd 315b 493e 2b80 02be bc7c 8c3e
000000a0: bf51 183e 5667 053e 98de f33d 8004 66bd
000000b0: fa14 9fbc 8f0e 86bd 2dc0 33bd d54f 203e
000000c0: 266e 333d 5a3a 5b3e 3d38 363e 6be9 86bd
000000d0: 183c c4bd 5bf1 97bc 14c2 fabb 0467 043e
000000e0: e887 c13c 5046 72bd 45a3 dfbd d014 183e
000000f0: 4c6e f6bd 6a55 18bc 72b8 97bd 2a1c 64bd
00000100: e4f9 09be e7b0 19be 2228 c5bd eb8a a0bd
00000110: f637 03bd 9904 0dbe 67c6 e9bd b470 2d3d
00000120: 1ffb 94bd 9eec 67bd ffef efbd cc7d 093e
00000130: 68f6 18be 6042 12bd 97d3 12bc 4a77 1a3b
00000140: ba89 053e 0b6f 6e3d 1557 00bd 9395 1fbe
00000150: 7973 293e 2155 a3bd 30ac c6bd 6cc1 6e3d
00000160: e4b5 94bd 1409 db3d bf7f 2bbe 0819 393d
00000170: bdc2 1ebe ad50 10be 1fa9 7bbd 37ff 5f3a
00000180: e979 333e 2a50 6a3c c7da c3bd 9471 b43d
00000190: afc1 343d a93c e7bd bd6f 13be 7dc6 c5bd
000001a0: 9dec a83d 70df 733d 2db6 373d 1188 2cbe
000001b0: 3a20 1c3e a729 81bd c708 61bd 9b34 89bd
000001c0: 948a 0d3e 3f2e 083c 1eb9 bebd 67fb 03be
000001d0: f164 0dbe ac35 a43d 144f 623d 67c2 0c3e
000001e0: 93ce 26be a742 0d3e 1f36 eabd e1d6 17be
000001f0: f67e 0a3e 2621 ec3c ac03 bcbd 6146 2dbd
00000200: 218e bb3d 246d fdbd 8384 663e aa94 09be
00000210: aed7 22bd b696 bebd 2900 21be 42c6 c13c
00000220: 3a87 e33d 95fb 853e 7895 b03b 10f7 c33d
00000230: 8ac7 303e 6a26 49be e09b 8b3d fd0f c5bc
00000240: fd9d 7f3d fb71 a4bd b7ae cd3e 6e03 c1bd
00000250: 1136 ffbd 764f 9a3e b510 383e 97df 633e
00000260: 9052 3b3c 2bf8 33bd 94fe bd3d 6029 dd3d
00000270: 8cbb 573e 4303 8d3d 4dbf 8bbd 8b15 4e3e
00000280: 2ce0 113e e329 b93d b916 2dbe a461 d03c
00000290: 6ae7 663c cdc4 2bbe 70c3 aebb c843 11be
000002a0: 2a60 fbbd cfb1 01bd e237 da3d 8d82 bd3d
000002b0: b6a0 c8bd 8f62 11be 6ae1 21bd 2cd9 b03d
000002c0: 17d8 043e af2d 503c eec6 093e fbdd 143d
000002d0: 173d 58bd ce41 853c 33a1 283e f34a eabd
000002e0: c042 6abd bcb5 3fbd 8ad5 89bc 4abb bfb8
000002f0: 896b 0c3d 5e00 abbd ff86 ba3c 05a6 de39
00000300: 7722 7c3d 474a 2b3e 0cb5 e73e 1a18 403e
00000310: 2407 aa3e 54bb 963e a015 89be cfc7 223f
00000320: 8569 fcbd 835d f7bd b4e6 d03d 836b 9fbe
00000330: 0569 ee3d d9f7 a9bc 880b cdbd e65f ecbd
00000340: a9c7 a0bd 4d1f 983e 8d94 dabd ceb4 8b3e
00000350: 7ccc acbe 6549 713e 0680 2c3d 99a3 943d
00000360: dc6b a13d 214b f0bc 1ddc 0b3e 78f6 403e
00000370: 8935 41bd 817e 203e 1828 07bd 6043 57bb
00000380: b633 d0bd d595 fdbd dd62 fcbd 13b7 7dbd
00000390: 53b1 863d c316 55be 142e ebbc 9282 e6bd
000003a0: b4ac f43c 77e2 5bbd b6ee 9f3d 1871 c83d
000003b0: c81b 86ba eca6 a83d 0912 93bb e355 d8bd
000003c0: 5288 3c3e e3e3 583d c37e 1f3e 05ca 6cbe
000003d0: 097b fe3d 3943 9e3c 88a2 b0bd 7f7c cc3d
000003e0: 76e1 a3bd cdb7 0b3d 40e4 df3c 98c4 79bd
000003f0: cf04 b0bc 9947 183e 649b ba3d 99a3 1d3d

linear_relu_stack.2.bias f4 [32]
0.21442683 -0.08284434 -0.07729731 0.040807683 -0.007148762 -0.03587087 -0.0594327 -0.0071333395
0.14991084 -0.0011311229 -0.12803867 0.64621323 -0.05638455 0.1810959 -0.25099853 0.11029919
-0.32749438 0.757278 0.12276294 -0.047738686 0.74611974 0.047779348 0.53603196 -0.038821783
0.7163586 0.010756722 0.46804267 -0.0057708905 -0.13273081 0.7862903 0.32174736 -0.12215651
00000000: b592 5b3e 4baa a9bd 0d4e 9ebd f525 273d
00000010: 2940 eabb 55ed 12bd b46f 73bd cabe e9bb
00000020: 3a82 193e 3042 94ba 921c 03be 3b6e 253f
00000030: 7cf3 66bd 3471 393e e182 80be 8be4 e13d
00000040: 58ad a7be f9dc 413f 236b fb3d a489 43bd
00000050: b401 3f3f 47b4 433d 6439 093f 9703 1fbd
00000060: 4763 373f f63c 303c 4aa3 ef3e bd19 bdbb
00000070: 96ea 07be 524a 493f 12bc a43e 312d fabd

linear_relu_stack.4.weight f4 [2, 32]
0.100059584 -0.22452497 0.012230065 0.0594167 -0.4006116 0.11639574 -0.5492449 -0.27572322
0.6555653 0.041321933 -0.39484474 1.1720188 0.018940609 0.6072756 -0.6247043 0.020464676
-0.8532252 1.2450384 -0.34540495 0.16099955 0.6482566 0.08380541 1.0596005 0.7806829
0.914987 -0.34013256 0.08916142 -0.1403415 -0.42533097 1.0502576 0.79192936 -0.39037767
0.64611024 -0.23813139 0.08744669 0.035788357 -0.49579987 0.10031583 -0.79851943 0.07521023
0.9663379 0.034326766 -0.22987242 1.0071954 0.01026867 0.9146517 -0.258783 0.34292808
-0.7308863 0.9596577 -0.21789752 0.016847093 0.8774418 -0.55554676 0.8898487 0.34611276
1.2711132 0.17729695 0.8937877 0.043545283 -0.50211835 0.68183315 -0.32598358 -0.34230483
00000000: 0aec cc3d e0e9 65be 9c60 483c ed5e 733d
00000010: f71c cdbe e460 ee3d 509b 0cbf 982b 8dbe
00000020: 21d3 273f 3041 293d 1729 cabe b604 963f
00000030: 5629 9b3c 6a76 1b3f 9fec 1fbf 89a5 a73c
00000040: f76c 5abf 6b5d 9f3f ebd8 b0be 11dd 243e
00000050: 25f4 253f 2ca2 ab3d fda0 873f d6da 473f
00000060: 973c 6a3f db25 aebe 439a b63d afb5 0fbe
00000070: fbc4 d9be d76e 863f e2bb 4a3f 95df c7be
00000080: 7b67 253f b7d8 73be 4017 b33d d096 123d
00000090: 7bd9 fdbe 6372 cd3d c56b 4cbf d207 9a3d
000000a0: ec61 773f 399a 0c3d ad63 6bbe c7eb 803f
000000b0: ec3d 283c 9d26 6a3f 357f 84be 4594 af3e
000000c0: 5d1b 3bbf 21ac 753f 8720 5fbe ea02 8a3c
000000d0: 07a0 603f 5038 0ebf 20cd 633f b135 b13e
000000e0: d6b3 a23f 558d 353e 45cf 643f 8a5c 323d
000000f0: d48a 00bf 9e8c 2e3f 52e7 a6be 9442 afbe

linear_relu_stack.4.bias f4 [2]
1.1602505 0.9667389
00000000: 1783 943f 337c 773f
