Parameter/cartPPO/1.pth (torch, 7255 bytes, 6 tensors)

linear_relu_stack.0.weight f4 [32, 4]
0	0xbe64b9c9	-0.22336496
1	0x3e2f6722	0.17129186
2	0xbcc7c5e3	-0.024386352
3	0x3edcda91	0.43135503
4	0xbe4490e9	-0.19195904
5	0xbe6faed4	-0.23406535
6	0x3ebe515a	0.3717144
7	0xbe9f8b09	-0.31160763
8	0x3da7f612	0.08201231
9	0xbe12d667	-0.143396
10	0xbe6b7877	-0.22995172
11	0xbe1adb04	-0.1512261
12	0xbe2227e9	-0.15835537
13	0x3dd61b69	0.10454447
14	0x3cbd6d2e	0.02312335
15	0x3eac36ea	0.33635646
16	0xbe6d44bb	-0.2317075
17	0xbe8c260c	-0.27372777
18	0x3e417b04	0.18894583
19	0x3e23f4cb	0.1601135
20	0x3dfb86d8	0.12281579
21	0xbe8247c3	-0.25445375
22	0x3da5129e	0.080601916
23	0xbd2ff031	-0.042953674
24	0x3c0bd71d	0.008535174
25	0xbef521e9	-0.47877434
26	0x3edf0de9	0.435653
27	0xbeb57912	-0.35443932
28	0x3dbf5a73	0.09343424
29	0x3e16eec0	0.14739513
30	0xbd654f2e	-0.055983715
31	0x3dd6c051	0.104859
32	0x3ec7598e	0.38935512
33	0xbf2f06d4	-0.68369794
34	0x3d0c71e9	0.03428832
35	0xbf3b286d	-0.7310856
36	0x3d5a11bb	0.053239565
37	0xbf068ccb	-0.52558583
38	0x3ebfeaaa	0.37483722
39	0xbef2749d	-0.47354594
40	0xbe571bfa	-0.21006766
41	0x3bd515dd	0.0065028504
42	0x3ead33c6	0.33828562
43	0x3e540c7d	0.20707889
44	0xbd4a0556	-0.049321495
45	0xbea3c887	-0.31988928
46	0x3e860b05	0.26180282
47	0xbedfae2f	-0.4368758
48	0xbe79de56	-0.2440122
49	0x3e995668	0.29948735
50	0x3ee9b5bb	0.45646462
51	0x3f679e75	0.9047616
52	0x3eded02f	0.43518206
53	0x3ca5252f	0.020159332
54	0x3ebe1687	0.37126562
55	0x3e3cd8b9	0.18442048
56	0x3eebc6dc	0.46050155
57	0xbea81a97	-0.32832786
58	0xbd487d20	-0.048947453
59	0x3cfe7572	0.031061862
60	0x3eed7329	0.46376923
61	0xbf261f95	-0.6489194
62	0xbf41bef1	-0.7568198
63	0xbf50c0f5	-0.8154443
64	0xbece0192	-0.40235573
65	0x3df38605	0.118907966
66	0xbee94ebf	-0.4556789
67	0xbdb41377	-0.08792775
68	0xbeaf98c8	-0.3429625
69	0xbed7bcc0	-0.42136192
70	0xbee83e8c	-0.4536022
71	0xbee89662	-0.45427233
72	0xbeb8a04d	-0.360598
73	0xbe2835f5	-0.16426833
74	0x3e93cf99	0.28869322
75	0xbe96663f	-0.29374883
76	0xbf0ad9de	-0.5423869
77	0x3dbf2d72	0.0933484
78	0xbe35bccc	-0.17747802
79	0x3ed4e2c0	0.41579247
80	0x3e6d3d4d	0.23167916
81	0x3e359113	0.17731123
82	0x3e3b2902	0.18277362
83	0x3f4362fb	0.7632291
84	0xbf4638e4	-0.7743056
85	0x3ea82a24	0.3284465
86	0x3e4718a6	0.19442996
87	0x3f4a3e6a	0.79001486
88	0xbe9d2508	-0.30692315
89	0x3f15f645	0.585789
90	0x3e00a98d	0.12564678
91	0x3eeabaa0	0.4584551
92	0xbe128e9c	-0.14312214
93	0xbf0788ff	-0.52943414
94	0x3c11da26	0.008902108
95	0xbeedb649	-0.46428135
96	0xbd3b1e4a	-0.045683183
97	0x3da4bda8	0.080439866
98	0x3e7ac0b2	0.2448757
99	0xbeb528a9	-0.35382584
100	0xbeb31756	-0.3497874
101	0x3ebd3764	0.36956322
102	0xbe8d7755	-0.27630106
103	0x3eefb4e8	0.46817708
104	0xbe82404a	-0.25439674
105	0x3e8234f3	0.25431022
106	0x3eceea4d	0.40413132
107	0x3ee189fa	0.4405058
108	0x3e866964	0.26252282
109	0xbe80e89d	-0.2517747
110	0x3ebdd238	0.37074447
111	0xbe897a36	-0.26851052
112	0x3cf493fd	0.029855723
113	0x3f112e5b	0.5671136
114	0xbe38f0a7	-0.18060552
115	0x3e7a2122	0.24426702
116	0x3f048f44	0.51781106
117	0x3e6efc36	0.23338398
118	0x3ec7c812	0.3901983
119	0x3dba9da2	0.09112097
120	0x3e4cd395	0.20002587
121	0x3e4c6379	0.19959821
122	0xbe8e1962	-0.2775374
123	0x3e5142dd	0.20435663
124	0x3e82703d	0.25476256
125	0x3f044fb4	0.5168412
126	0xbedb776c	-0.4286455
127	0x3df0baff	0.11754417

linear_relu_stack.0.bias f4 [32]
0	0x3e1a2bc8	0.15055764
1	0xbef671e4	-0.48133767
2	0x3e1dd07b	0.1541156
3	0xbd9b9ba1	-0.07598043
4	0xbef7ca8a	-0.48396713
5	0xbee22a21	-0.44172767
6	0x3ea2ddec	0.31809938
7	0x3eb0941e	0.34488004
8	0x3eb77cc0	0.35837364
9	0x3f11db3b	0.56975144
10	0x3ddb42ce	0.10706101
11	0x3ec0574a	0.37566596
12	0x3edda407	0.43289205
13	0xbe81410b	-0.25244936
14	0x3e29c3ef	0.16578649
15	0x3f09aea3	0.537821
16	0xbdfaa3f8	-0.12238306
17	0xbe791bd2	-0.24327019
18	0xbe24a9a9	-0.16080345
19	0x3d0a7839	0.03380606
20	0x3ee79430	0.45230246
21	0xbd800add	-0.06252072
22	0x3e1e7d74	0.15477544
23	0x3dbe55ec	0.09293732
24	0xbe1d96ca	-0.15389553
25	0x3de5c5f8	0.112194
26	0x3c09905b	0.008396233
27	0xbea7f5f7	-0.32804844
28	0x3ddad1b1	0.10684527
29	0xbde20728	-0.11036521
30	0xbeb5d8f0	-0.35517073
31	0xbe8c0df5	-0.27354398

linear_relu_stack.2.weight f4 [32, 32]
0	0x3c9a9174	0.018868186
1	0xbd33684f	-0.04380065
2	0xbe04f354	-0.12983447
3	0x3c7a3558	0.015271507
4	0xbdb611b2	-0.08890094
5	0xbe040456	-0.12892279
6	0x3ddaaf5b	0.10677978
7	0xbd1ca859	-0.038246486
8	0x3e60c826	0.2195135
9	0x3e3bb967	0.18332444
10	0xbd86b427	-0.0657733
11	0xbd821560	-0.06351733
12	0x3d7dace5	0.061932463
13	0xbd698b60	-0.057017684
14	0xbd816fde	-0.06320165
15	0x3e807ff7	0.2509763
16	0x3db76d06	0.089563414
17	0xbe2eb181	-0.170599
18	0xbc9a2600	-0.018816948
19	0x3db1b16b	0.08676418
20	0xbd21fe47	-0.03954914
21	0x3c8af10d	0.016960645
22	0xbdb8934d	-0.090124704
23	0xbdf991be	-0.12186001
24	0xbaafbc97	-0.0013407645
25	0xbe1469a4	-0.14493424
26	0xbe02da11	-0.12778498
27	0xbce21666	-0.027598571
28	0x3e004abb	0.12528507
29	0xbe0ebe8e	-0.13939878
30	0xbe10b2bf	-0.14130686
31	0x3d08693e	0.03330349
32	0xbd225437	-0.039631095
33	0xbda3cee9	-0.07998449
34	0xbdef7c70	-0.116936564
35	0xbb6540b7	-0.00349812
36	0x3cfa490a	0.030552406
37	0xbe0f9fd4	-0.14025813
38	0xbd294c5e	-0.041332595
39	0x3dd385f1	0.10328282
40	0xbe5a7d62	-0.21336892
41	0xbb1ace1b	-0.0023621384
42	0xbce9b777	-0.028529866
43	0xbbd59d2e	-0.0065189814
44	0x3e95e6cf	0.29277655
45	0x3e3bc92b	0.18338458
46	0xbd9bf53e	-0.076151356
47	0xbec16048	-0.3776877
48	0x3d1bbef8	0.03802392
49	0x3c7404e5	0.014893745
50	0xbe019886	-0.1265584
51	0x3e95fbb5	0.292936
52	0x3e9a6c4f	0.30160758
53	0x3ec28c61	0.37997726
54	0x3e8149c1	0.25251582
55	0xbe5bdc18	-0.21470678
56	0xbde34163	-0.11096456
57	0x3e6c4bae	0.23075745
58	0x3da47003	0.08029177
59	0x3d97ecab	0.07418188
60	0xbd18e60e	-0.037328772
61	0x3e7a7b81	0.24461176
62	0x3e40f6ba	0.18844119
63	0x3d9ea877	0.07746976
64	0xbd8abb79	-0.06774039
65	0x3d4d3d77	0.050107446
66	0xbd9f2ca1	-0.07772184
67	0x3db9769e	0.090558276
68	0xbe2dcfd8	-0.16973817
69	0xbdcbbf43	-0.0994859
70	0x3e05a3f1	0.1305082
71	0x3d7cb3c2	0.061694868
72	0x3e052094	0.13000709
73	0xbe059a81	-0.1304722
74	0x3df91d7c	0.12163827
75	0xbd72a333	-0.05923767
76	0x3dce0599	0.100596614
77	0xbd07963d	-0.033102263
78	0xbd219474	-0.039448217
79	0x3d1cfc04	0.03832628
80	0x3d6cf227	0.057848122
81	0x3d9ec783	0.077528976
82	0x3ddda948	0.108233035
83	0xbe00c325	-0.12574442
84	0x3d89c4f9	0.06727023
85	0xbe169f42	-0.1470919
86	0xbd0b7e9e	-0.0340563
87	0xbd454c81	-0.048168663
88	0x3d966127	0.07342749
89	0xbb8d2860	-0.0043077916
90	0xbd4b8dcb	-0.04969577
91	0x3da4c733	0.08045807
92	0xbd84095e	-0.06447099
93	0x3b797c66	0.0038068532
94	0x3e343bcb	0.17600934
95	0x3dee50da	0.11636515
96	0xbdf99f85	-0.12188629
97	0x3db8dd7b	0.09026619
98	0x3d75dc18	0.06002435
99	0x3d380f3e	0.04493641
100	0x3c04150d	0.0080616595
101	0xbe235960	-0.15952063
102	0x3d7c5f3c	0.06161426
103	0x3d9a47bc	0.075332135
104	0xbe313feb	-0.17309539
105	0x3db0781d	0.0861666
106	0x3e225bfd	0.15855403
107	0x3e227bcb	0.15867536
108	0xbd3b75a3	-0.045766484
109	0x3e0a3195	0.13495477
110	0xbdbe8bac	-0.09303984
111	0xbe127027	-0.14300595
112	0x3e2d40bb	0.16919224
113	0xbe010591	-0.1259978
114	0x3e13cf5a	0.14434567
115	0xbdc2b209	-0.09506614
116	0x3db72e8f	0.08944427
117	0x3d636e0d	0.055524874
118	0x3d75e5b8	0.06003353
119	0x3e20b03d	0.1569223
120	0x3cc600ea	0.024170358
121	0xbdd6551c	-0.10465452
122	0x3ba49fd1	0.0050239344
123	0xbcc5e605	-0.024157533
124	0xbe051c73	-0.12999134
125	0x3e250e64	0.16118771
126	0xbce6aaea	-0.02815767
127	0xbe248496	-0.16066203
128	0xbe4b34db	-0.19844382
129	0x3de8ae0e	0.11361323
130	0x3dd383a4	0.10327843
131	0xbd98b977	-0.074572496
132	0x3d0893a0	0.03334391
133	0x3e23c1bb	0.15991871
134	0xbdbf0b44	-0.093283206
135	0xbdfd58c8	-0.12370449
136	0x3e60c1b9	0.219489
137	0x3e6ace98	0.22930372
138	0xbdf5862c	-0.11988482
139	0x3d10b803	0.035331737
140	0x3ca22f8b	0.01979806
141	0x3bcf411f	0.0063249017
142	0x3e56c56c	0.20973748
143	0x3e386a31	0.18009259
144	0x3d748ca4	0.059704438
145	0xbdd0c1ff	-0.10193252
146	0x3ddd1b62	0.107962385
147	0x3dab48e3	0.083635114
148	0xbe4f5187	-0.20245944
149	0xbdc13ae0	-0.09435058
150	0xbe38a651	-0.18032195
151	0x3dee3ff6	0.11633293
152	0x3be17ebc	0.006881563
153	0xbe3a90ba	-0.18219271
154	0xbe455ae7	-0.19272958
155	0xbe19c638	-0.1501702
156	0x3d04db7b	0.032435875
157	0xbdf71142	-0.120638385
158	0x3e1c2b72	0.15250948
159	0xbde09be8	-0.10967237
160	0x3aaefc5b	0.0013350354
161	0xbddd98a0	-0.108201265
162	0x3e159fc6	0.1461173
163	0xbddbe567	-0.107371144
164	0x3dfc18ab	0.123093925
165	0xbdabab2c	-0.08382258
166	0x3ba9c022	0.0051803747
167	0x3d990a86	0.0747271
168	0x3e1823d9	0.14857425
169	0x3e26ca74	0.16288167
170	0xbdb61e2e	-0.08892475
171	0x3de24047	0.11047416
172	0xbe164467	-0.14674531
173	0xbd1b64a0	-0.03793776
174	0x3dd2a6e9	0.10285742
175	0x3d82599f	0.0636475
176	0x3de79a9f	0.113087885
177	0x3d43391d	0.04766189
178	0xbd2896e9	-0.041159544
179	0xbdfe01e3	-0.124027036
180	0xbcbc66eb	-0.022998294
181	0xbdca2d30	-0.098719
182	0x3bff5e64	0.0077932347
183	0x3d814ab8	0.063130796
184	0xbcf487d1	-0.029849919
185	0x3b66c928	0.0035215113
186	0x3de3bfcf	0.11120569
187	0x3bdaa48f	0.006672449
188	0x3e044ea8	0.1292063
189	0x3e08c0de	0.13354823
190	0x3e210532	0.15724638
191	0xbe0627e9	-0.13101162
192	0xbe009737	-0.12557684
193	0x3e1e6cb1	0.1547115
194	0xbcb78955	-0.022404352
195	0x3cce5490	0.025186807
196	0x3e139db3	0.14415626
197	0xbe1df907	-0.15427028
198	0xbd2c2979	-0.04203174
199	0x3e02fe30	0.12792277
200	0xbdea9f24	-0.11456135
201	0x3c22313e	0.009899436
202	0xbdfded78	-0.12398809
203	0x3dd04d81	0.10171033
204	0xbc0da060	-0.008644193
205	0xbd9dab66	-0.07698707
206	0xbcf80316	-0.030274909
207	0x3d718a13	0.05896957
208	0xbc29831d	-0.010346201
209	0x3e07e0c7	0.1326934
210	0x3d54d5d7	0.051961746
211	0xbcd3bb6b	-0.025846204
212	0xbc37962f	-0.01120524
213	0xbe1b2104	-0.15149313
214	0x3d640c1c	0.05567561
215	0xbdddd57b	-0.10831734
216	0xbd944f58	-0.07241696
217	0xbd8c7907	-0.06859022
218	0x3d48b8c5	0.049004335
219	0xbd53db58	-0.051722854
220	0xbd25ec76	-0.04050871
221	0xbd9c245a	-0.07624121
222	0xbddc35c1	-0.1075244
223	0xbd76bcf1	-0.060238782
224	0xbe3de468	-0.18544161
225	0xbd944740	-0.07240152
226	0xbdbb3cb2	-0.09142436
227	0xbe01fdca	-0.12694469
228	0xbdbd6a6a	-0.092488125
229	0xbd40e711	-0.047095362
230	0xbc2d6084	-0.010582093
231	0x3d51bb8e	0.051204257
232	0xbcca4e98	-0.02469568
233	0xbd5108d9	-0.05103383
234	0x3d462746	0.048377298
235	0xbce86316	-0.02836756
236	0xbdd725ff	-0.10505294
237	0x3e11cea5	0.14238985
238	0x3e18d71d	0.14925809
239	0x3e69b386	0.22822389
240	0xbd147da3	-0.03625263
241	0x3de08906	0.10963635
242	0x3dbf4979	0.09340186
243	0x3ddb00b8	0.106934965
244	0x3da3b6c8	0.07993847
245	0xbd874359	-0.066046424
246	0xbdf91399	-0.12161941
247	0x3e37990e	0.1792948
248	0xbd46bcd2	-0.048519917
249	0x3c848e04	0.016181
250	0xbe18b1e7	-0.14911614
251	0xbd60da06	-0.054895423
252	0x3de3607d	0.11102388
253	0x3dd78eae	0.10525261
254	0x3cc2d41e	0.023782786
255	0xbdebda17	-0.11516207

linear_relu_stack.2.bias f4 [32]
0	0xbd60bda0	-0.05486834
1	0x3cdd45bd	0.027010793
2	0xbe15b8ab	-0.14621226
3	0x3e0917af	0.13387941
4	0x3e94be20	0.29051304
5	0x3d4267b3	0.047462177
6	0xbd5c7c73	-0.05382962
7	0x3e14ba71	0.14524247
8	0xbdfb656b	-0.12275203
9	0x3da24412	0.0792314
10	0xbe1c1d7c	-0.15245622
11	0x3d592020	0.053009152
12	0x3bda5cd0	0.006663896
13	0x3e2a3866	0.16623077
14	0x3d8f225e	0.06988977
15	0xbe48e415	-0.19618256
16	0x3d295379	0.04133937
17	0x3ee37b89	0.44430187
18	0xbd85918e	-0.06521903
19	0xbc0f31fa	-0.008739943
20	0x3d799cdf	0.06094062
21	0x3e047881	0.12936594
22	0x3e20569d	0.1565804
23	0xbdfc9a2e	-0.12334095
24	0xbcab684d	-0.020923758
25	0xbe1e4451	-0.15455748
26	0x3e8dc33e	0.2768802
27	0x3e27d739	0.16390695
28	0x3d230e99	0.039808843
29	0x3e8ccbee	0.27499336
30	0xbd5378c3	-0.05162884
31	0xbe0c46ac	-0.13698834

linear_relu_stack.4.weight f4 [2, 32]
0	0x3e524841	0.20535375
1	0xbeeb654c	-0.4597572
2	0xbe169484	-0.14705092
3	0xbdc07aad	-0.093983985
4	0x3ea1e927	0.31623194
5	0x3e142e3c	0.14470762
6	0xbdd0931d	-0.1018431
7	0x3e3e1a62	0.18564752
8	0x3d212238	0.039339274
9	0xbf4361ea	-0.7632128
10	0xbc28c358	-0.01030048
11	0x3e0efcde	0.13963649
12	0xbdc32f38	-0.09530491
13	0xbf36094f	-0.71107954
14	0xbde1f043	-0.110321544
15	0xbd9a4f17	-0.075346164
16	0xbd5d1371	-0.05397362
17	0x3f3d953a	0.74055827
18	0x3dce3dcd	0.10070381
19	0xbe2ccee0	-0.16875792
20	0x3de0d694	0.109784275
21	0xbf0d177d	-0.55113965
22	0xbeae1a64	-0.3400451
23	0x3df7aa81	0.12093068
24	0xbcebcd39	-0.028784381
25	0xbe3ba85d	-0.18325944
26	0x3ea3847e	0.3193702
27	0xbcd1cdc6	-0.025610816
28	0x3dd816be	0.10551213
29	0x3ea0ff71	0.31444886
30	0x3e00f566	0.12593612
31	0xbc765272	-0.015034305
32	0xbdd291fe	-0.10281752
33	0x3f247cb0	0.6425276
34	0x3ce590ea	0.028023202
35	0xbc64f195	-0.013973613
36	0xbeb831a6	-0.3597538
37	0xbe378d8a	-0.17925087
38	0x3d9a486d	0.07533345
39	0xbe0cec20	-0.1376195
40	0xbd55da24	-0.05220999
41	0x3f1fe42b	0.6245753
42	0xbe1b0eaa	-0.15142313
43	0x3db726ce	0.08942948
44	0x3ea123f7	0.31472751
45	0x3f37019f	0.7148685
46	0x3d14117d	0.03614949
47	0xbd6346cb	-0.055487435
48	0x3e2e85ef	0.17043279
49	0xbf484882	-0.7823564
50	0xbde6082e	-0.11232029
51	0x3df1eb5a	0.11812468
52	0x3b693080	0.0035581887
53	0x3ef64e6f	0.48106715
54	0x3f0c92c5	0.5491145
55	0x3e362937	0.1778916
56	0x3d82ae6e	0.06380926
57	0xbd82a128	-0.06378394
58	0xbeff6624	-0.49882615
59	0x3e4785f6	0.19484696
60	0x3c4b0720	0.012391835
61	0xbf19a48b	-0.600167
62	0xbe8680b5	-0.2627007
63	0xbe088187	-0.13330661

linear_relu_stack.4.bias f4 [2]
0	0x3e95f1fe	0.29286188
1	0xbee17141	-0.44031718
