Parameter/cartPPO/2.pth (torch, 7255 bytes, 6 tensors)

linear_relu_stack.0.weight f4 [32, 4]
00000000: 1519 5abe 3e9c a63e e2b9 38bf b6a2 2f3e
00000010: 94ec e0be 420f 4dbf 98b6 b7be 3b71 92be
00000020: ce05 03be fb0a 2fbf 7cfd b03e 9179 e83d
00000030: c446 97be 52b0 16be 5f84 38be d59b 00be
00000040: d8ba 5ebe 2d2e 68be 9079 d73e b075 d73e
00000050: 6673 3bbd 286c b7be 4382 d73d 7d0f 1cbd
00000060: 00bd 6b3f 482a 83bf 47e6 f1bf 3a96 86bf
00000070: 3965 5a3e f8cb 41bf de3e 42be 9b55 19bf
00000080: dd80 01bf d9d7 c63d 1d99 2fbe 90a5 35be
00000090: d253 953e 9f9f fabd 1653 91be b8dd 6ebe
000000a0: 2789 00bf d6a2 ac3e 7e89 15bd d6ec 1a3f
000000b0: 07e9 4b3f 9c20 aebd c37e 113e ab0b 473d
000000c0: 5682 e5be e3e2 62bd a281 e83e ac3d c3bc
000000d0: 403f b5bd 021f e93e 23e1 8b3f 343f 103f
000000e0: b5d9 23be a915 3ebe 017a 25bf 13cb 8ebe
000000f0: 8252 ccbe d35f 313e 95aa 8e3e 439c 0fbd
00000100: c243 4d3f 4613 bfbd 30cd 543e 4e21 3abe
00000110: 60e6 d2bd 985c 16bd f37e 4dbe 618d 1bbd
00000120: 547a 9b3e b7bc 06bf f6ee 52bf 0944 5abf
00000130: b261 4abd 1046 823e d953 95be a965 aabe
00000140: 2645 003f f718 3d3e 1d90 623f 3982 803e
00000150: babf 26be 73ba 363f cef8 793f 4a50 873f
00000160: 3b12 cdbe ac36 543f a97c b73f 5c20 6d3f
00000170: f6b4 21be ec37 49be 9396 dd3e 96d7 ed3e
00000180: 757c 9a3e 53d1 edbe 730d acbf 9430 2abf
00000190: 5fa2 fe3e 4ff2 023f 8443 d33e caac 363e
000001a0: 4a87 253d c580 52bf 43bd 9cbe 26a3 83be
000001b0: 3e63 c8be dc21 6fbd 9b68 5c3e 3730 3dbe
000001c0: 23a7 0f3e 4a22 de3e f741 c43f 987a 073f
000001d0: e605 c93e 298c 0c3f d712 2d3f 55b0 913e
000001e0: f327 e53e 6838 d23e 7971 f93d 5f2c 2c3d
000001f0: 9ee1 09bf 564e 123f 96be 343e 5c35 8c3e
-0.2129863 0.32541078 -0.72158635 0.17151913 -0.43930495 -0.80101407 -0.35881495 -0.28602013
-0.12795183 -0.6837613 0.34568393 0.11351312 -0.29546177 -0.14715698 -0.18019246 -0.12559445
-0.21750963 -0.22673865 0.42084932 0.42081976 -0.04576435 -0.35824704 0.10522892 -0.03810071
0.92085266 -1.0247278 -1.88984 -1.0514596 0.21327676 -0.75701857 -0.18969294 -0.5989625
-0.50587255 0.097091384 -0.17148252 -0.17738938 0.29165512 -0.122374766 -0.28383702 -0.23326766
-0.5020928 0.33717984 -0.036508076 0.6051763 0.79652447 -0.085023135 0.14208512 0.04859511
-0.44826 -0.055392157 0.45411402 -0.023833118 -0.088499546 0.4553147 1.0928081 0.5634644
-0.16001017 -0.1856295 -0.6463929 -0.27889308 -0.39906698 0.1732171 0.2786452 -0.035061132
0.80181515 -0.09329848 0.20781398 -0.18176767 -0.10297847 -0.036709398 -0.20067959 -0.037976626
0.30366766 -0.52631706 -0.82395875 -0.85260063 -0.049409576 0.25444078 -0.29165533 -0.33280686
0.5010551 0.18466555 0.8850115 0.25099352 -0.16284075 0.7137825 0.9764527 1.0571377
-0.4005297 0.8289592 1.4334918 0.926275 -0.15791687 -0.19650239 0.43278942 0.46453542
0.30173078 -0.46448764 -1.3441604 -0.66480374 0.49733254 0.51150984 0.41262448 0.17839351
0.040412225 -0.82227737 -0.30613145 -0.2571041 -0.39138216 -0.0583819 0.21524279 -0.18475424
0.14028601 0.43385535 1.5332631 0.5292144 0.39262313 0.5490137 0.6760687 0.28454843
0.4475704 0.4105866 0.12179846 0.042034503 -0.5385989 0.5715078 0.17650828 0.2738446

linear_relu_stack.0.bias f4 [32]
00000000: 8624 9d3f 3c49 ec3e 3a95 70be 83f8 303f
00000010: 21d5 1fbf 7cc4 4b3f a455 38bd faa8 36be
00000020: da2d 38be 7f62 943f 72d9 5fbe a65e bdbd
00000030: 8654 9fbd c443 41be 5af5 dcbd 75aa b93e
00000040: 00ce 66bb 1fe5 f63d f153 adbe f659 2d3e
00000050: 62cb 86be 8e10 1dbf ac6c 07bf b50b 753f
00000060: 8aba 8fbe c7e0 babe 2df2 f43e 7602 33bd
00000070: f514 19be 39f9 b5be dc54 babe d785 893e
1.2276771 0.46149623 -0.23494425 0.691292 -0.62434584 0.79596686 -0.04500355 -0.17837897
-0.17986241 1.1592559 -0.21860293 -0.092465684 -0.077797934 -0.18873507 -0.107889846 0.3626286
-0.0035218 0.1205542 -0.33853105 0.16928849 -0.26327044 -0.61353385 -0.52900195 0.9572099
-0.28072006 -0.36499617 0.47841015 -0.04370352 -0.149494 -0.35541704 -0.36392868 0.26859924

linear_relu_stack.2.weight f4 [32, 32]
00000000: 2940 d63c aa04 fabd 186b 6bbe c827 ed3c
00000010: 704a 08be ff53 1cbe fd95 3f3d ebc5 fdbd
00000020: 7c8b 303e e65f 3a3e 9d93 8fbe fe52 32bc
00000030: 0a41 5cbd 060a 3f3e faa5 febd 8cd7 03bd
00000040: fffd 6a3e a94a b53d 73d3 fd3d f2a3 2e3e
00000050: 7fb2 443e a4e3 8d3d 3c98 5dbe 9e56 113e
00000060: cf42 2b3e e20e 06be a6a7 a83c 5929 693e
00000070: 6e67 48be 4c9e e3bb 9172 1c3d 4c72 27be
00000080: ead9 9b3d 36af f7bd 6889 e13c 42e5 f0bd
00000090: 7724 23be 2d10 3bbe a123 ab3d 2f0a c73d
000000a0: 1214 1bbe cbe1 b73d ed62 bb3d dbf7 25be
000000b0: 0c86 91bd 9236 2ebe c99f 82bd 25a9 42bd
000000c0: 9f53 d83d 6765 f1bd b60f 89bd abed eebd
000000d0: bdc2 0e3e 861b 123e f933 fa3d 5428 ac3c
000000e0: 91b3 71bd 2a29 65bd c981 f0bd 43c3 d4bd
000000f0: cc12 b5bd 2cf1 13bd 83d4 a1bb 20be 13be
00000100: f36c 9f3e f1a7 173d 8b2a f5bd d53e f13d
00000110: 9e91 b9be a2d9 1abc 1c85 76bf 87fd 16bf
00000120: 0747 bebe b0d3 493e 1bca dd3c 4c24 c7be
00000130: f185 82be 11e3 bfbe 8270 c5be 5878 9dbd
00000140: 339b 0fbf 86e8 de3d 7231 f4be f170 1abe
00000150: 3606 16bf ab6e f0be 0ad8 eabe b1b9 8b3e
00000160: 0a7d 06bf 7c1c 15bf 2353 dfbd 0286 a3bd
00000170: 5d0f d2be dbc0 c5be 146d d2be c8d6 7ebd
00000180: 8464 59bd 72a7 aa3c 38c6 863d 5423 283d
00000190: 44b2 d4bc 3da1 25be 2cd6 85be c978 49be
000001a0: abfb 15be 983a e0bd 1a4b 343e eb20 dabd
000001b0: dc87 293d 2165 0abe 67de b5bd 908b 31bd
000001c0: 289b 5ebe efb4 953c 5b5f b1be 7238 f7bd
000001d0: 3c28 85bd c3d7 8dbd 776b a7be 2161 1d3e
000001e0: 3a0d b9be c582 3c3d 07d7 c33c d84f bfbd
000001f0: 2b3e 54bd 837b 84be ed16 a3bd 8108 d63d
00000200: c1ce 26bc 661e 4abd 5dd9 f5bc 94b4 893a
00000210: 9658 2cbe 78ea 5ebe f61d 51bd 2890 9f3d
00000220: e859 873d e2ba 36bd cdf6 0c3e a97e 7cbc
00000230: 8a78 0a3c cd87 f23d 49ce 1c3e 3e0e 91bd
00000240: 014f 9d3d f879 033e c965 9ebd 9cba 5abd
00000250: 60b9 57bd a940 dd3d f515 00bd bf3c 1b3e
00000260: 8513 b2bd c3c0 c83d ff37 4b3c 6b17 fcbd
00000270: 0569 493d 8a07 b23d 229c 4abc f2d9 b33d
00000280: a869 f43e df07 ef3e a50e 5abe 5611 063f
00000290: aa68 c7be 3b90 0d3e 0f50 7ebf cab1 e7be
000002a0: 9a60 b8be 9d3f e93e c9f1 b7be 6a11 ecbe
000002b0: adcb cfbe 4904 18bf c3d6 3dbf 8aae d53d
000002c0: 1095 1bbf 1443 7fbe f725 8fbe cd82 8fbd
000002d0: 24a0 1ebf 0eef f8be ba6f 5fbf 8863 bc3e
000002e0: 0fb0 57bf 8396 e6be 2652 803e baeb 9f3d
000002f0: dc30 5dbf 49ed f7be f8f3 37bf d96a b93d
00000300: f59b 92bc e4e4 f6bd f70c 5a3d b858 973c
00000310: a2df ffbd b0d7 76bd de38 7c3d f60e 44be
00000320: ad2b eabd 9c66 aabd 0896 22be 201b c83d
00000330: 0612 19bd 69b1 d73d 5802 783e 9894 03be
00000340: 33a3 543e e995 61bc aaf7 2e3e b8f5 6d3e
00000350: 4fc2 303e ae0d b939 1ed9 91bc 06ff d7bd
00000360: f5d6 2b3e cf4c 39bd 4591 eebc 9bb8 e03c
00000370: 39a6 22be c026 b83d 451e 833e 5b52 3ebe
00000380: 8c5c 863d 0cc2 b1be 9cd2 073e a1b0 6bbd
00000390: 91de 3b3d 5cb9 4bbd b40e 80be abce 053e
000003a0: ae45 6c3c 3b89 2c3d 4cde e63c aad3 493e
000003b0: faa4 fb3d 7709 a33e 0fea 28be 491b b23d
000003c0: be7f 6d3e 65a4 e53d 4b4e 7bbd fa1d b33d
000003d0: d33c 583e e38e 9b3e e2e2 833e dcd7 ab3e
000003e0: 05de 1fba af8a e23e ad33 6b3d afe9 a8bd
000003f0: d15b fd3e 36b4 693e 72d1 823e 9de0 4b3d
0.02615364 -0.12207921 -0.22990072 0.028949633 -0.13309646 -0.15266417 0.0467739 -0.123912655
0.17240709 0.18200645 -0.28042307 -0.010884045 -0.053772964 0.18656167 -0.12434001 -0.032187983
0.22948454 0.08852131 0.12393846 0.17054728 0.19208716 0.06928185 -0.21640104 0.14193198
0.16724704 -0.13091615 0.020587754 0.22769679 -0.19570705 -0.0069463607 0.038195197 -0.16352195
0.07609923 -0.12093966 0.02753134 -0.117624775 -0.15931879 -0.1826789 0.08356405 0.09718739
-0.15144375 0.089786135 0.09149728 -0.1620783 -0.071056455 -0.17013004 -0.06378133 -0.04752459
0.105628245 -0.11786919 -0.0669245 -0.11666425 0.13941474 0.14268312 0.12216944 0.021015324
-0.05900914 -0.05594746 -0.117435046 -0.10388806 -0.08841476 -0.03611867 -0.0049386634 -0.14427996
0.3113781 0.037025396 -0.11971005 0.117795624 -0.3624391 -0.009451302 -0.9629686 -0.589806
-0.37163565 0.19709659 0.02707391 -0.3889488 -0.25492814 -0.37477925 -0.385624 -0.076889694
-0.5609619 0.10884194 -0.47693974 -0.15082146 -0.5860323 -0.46959433 -0.4586795 0.2729011
-0.52534544 -0.5824659 -0.10904529 -0.07984544 -0.41027346 -0.386237 -0.41098845 -0.06221655
-0.053074375 0.020831797 0.06580776 0.041049317 -0.02596391 -0.16174789 -0.26139963 -0.19674982
-0.14646785 -0.10948676 0.17606774 -0.1065081 0.04138933 -0.1351514 -0.088803105 -0.043345988
-0.21738875 0.018274752 -0.34643063 -0.12071313 -0.06501815 -0.06925919 -0.32699177 0.15369083
-0.36142904 0.04602315 0.023906244 -0.09341401 -0.0518171 -0.25875482 -0.07963357 0.10450841
-0.01018113 -0.049345396 -0.030010873 0.0010506087 -0.16830668 -0.2176913 -0.051053964 0.077911675
0.06608945 -0.04461182 0.13766022 -0.0154110575 0.00845159 0.11842308 0.15313067 -0.070827946
0.076810844 0.12839496 -0.07734258 -0.05340062 -0.05266702 0.108033486 -0.03127094 0.15159892
-0.08695129 0.098023914 0.012403487 -0.12309154 0.04917242 0.08692844 -0.0123663265 0.08781804
0.4773686 0.46685693 -0.21294649 0.523702 -0.3894704 0.13824551 -0.9934091 -0.4525283
-0.360112 0.45556346 -0.35926655 -0.46107036 -0.4058508 -0.5938154 -0.74155825 0.10433681
-0.60774326 -0.24927932 -0.27958652 -0.0700737 -0.61963105 -0.48619884 -0.87279856 0.36794686
-0.8425302 -0.45036706 0.25062674 0.07808633 -0.8640268 -0.48423222 -0.7185664 0.09053583
-0.017896632 -0.12055376 0.05323502 0.018474922 -0.124938264 -0.06026429 0.06157767 -0.19146332
-0.11434112 -0.083203524 -0.15877545 0.09770799 -0.037370704 0.10531885 0.24219644 -0.12849653
0.2076538 -0.0137686515 0.17086664 0.23238266 0.17261623 0.00035296142 -0.017803725 -0.10546689
0.16781218 -0.045239266 -0.029122004 0.027431777 -0.15883721 0.08991766 0.2560903 -0.18586104
0.06560621 -0.3471836 0.13263935 -0.057541493 0.045866553 -0.04973732 -0.25011218 0.13067119
0.01442091 0.04212306 0.028182171 0.1970965 0.12287326 0.3184316 -0.16495536 0.086966105
0.23193261 0.112129964 -0.061353963 0.08745952 0.21116953 0.3038245 0.25759035 0.33563125
-0.0006098452 0.44246432 0.05742233 -0.082476966 0.49484113 0.22822651 0.2555042 0.049774755

linear_relu_stack.2.bias f4 [32]
00000000: 5bc6 4e3d f04c 0f3e a45b d63e 3c67 883e
00000010: b087 02be 32b8 f33e c18f a2bd 1cc8 dfbd
00000020: 36f7 b93d d0fd b2bd 2976 c5bd 5785 81bd
00000030: 9fa2 87bd 318f 49be 9bdc 6d3c c127 9d3e
00000040: 899b 4bbd 54a4 883b aef6 263f 04e2 e93c
00000050: 7cb1 8fbc ef36 46bd d6f3 ce3e 5bc3 3abe
00000060: e8b6 863f 068f 0fbe 3578 20be 7c9e 9d3e
00000070: e5cc 61be 8d4f 93bd 2c20 6cbd fd15 fd3b
0.050482135 0.13994193 0.4186679 0.26641262 -0.12747073 0.47601467 -0.07937575 -0.1092684
0.09080355 -0.08739817 -0.09641678 -0.06324261 -0.066228144 -0.1968353 0.0145179285 0.30694392
-0.049708877 0.00416998 0.65220153 0.028550155 -0.017540686 -0.048392233 0.40420407 -0.18238585
1.0524569 -0.14019403 -0.15670855 0.30784976 -0.22050817 -0.071929075 -0.05764787 0.0077235685

linear_relu_stack.4.weight f4 [2, 32]
00000000: 0cbf b23e 0d74 58bb 039d 0f3f 7e3c 80bd
00000010: 073b c03c 6fa3 923f 0f38 87bd 8fdc 32bf
00000020: 79f8 6b3e f7f7 d5bd 2a3d 6cbf 0d07 c8be
00000030: 724b f4be a569 44be 3ac3 c7bd 126d 133f
00000040: 1ab0 86be c5e2 1abe 6c8a 103f 744f c53d
00000050: ce06 963e 7fe5 ccbc ef40 3c3f 070e cdbd
00000060: fcc6 fb3f 5ac4 51bf 98ef 2fbc 73e9 7d3f
00000070: 3c31 51bf 123b f9bd af71 fcbd d1af 27bd
00000080: ed5e febe d329 cbbc 3ff3 883f 4498 1a3f
00000090: fb09 56be 8088 353f 268a a6be 7c49 00bf
000000a0: 2b3e 3bbd 3236 0cbc 902c 14bf feb7 5fbe
000000b0: 01e1 d7be ccbe 44be 105e 2dbd 9935 133f
000000c0: d1f1 cbbe 04cc ee3e 8e3f 863f 7e03 67bd
000000d0: 7a59 093e dabd 4dbd bc06 623f bdd4 abbe
000000e0: 05d3 e23f fc8e 3fbf e980 f2bd be9d f03e
000000f0: 6440 e73d 7eae 5bbe b471 483d 6170 f3bd
0.34911382 -0.0033028156 0.56098956 -0.06261538 0.023465646 1.1456126 -0.06602489 -0.69867796
0.23044004 -0.10447686 -0.9228083 -0.3906788 -0.4771381 -0.19180925 -0.097540334 0.57588303
-0.2630623 -0.15125568 0.56461215 0.09634295 0.29302067 -0.025011776 0.7353658 -0.10012441
1.96701 -0.81940234 -0.010738276 0.9918434 -0.8171575 -0.1216947 -0.12326371 -0.040939156
-0.49681798 -0.024800217 1.0699233 0.6038859 -0.20902245 0.7091141 -0.32527274 -0.5011213
-0.045713585 -0.008557843 -0.57880497 -0.21847531 -0.42163852 -0.19213408 -0.042326033 0.5750366
-0.3983293 0.46640027 1.0488145 -0.056399815 0.13413039 -0.050229885 0.88291526 -0.33560744
1.7720648 -0.7482755 -0.11840994 0.46995348 0.112915784 -0.21453282 0.04893656 -0.11886669

linear_relu_stack.4.bias f4 [2]
00000000: eb48 e73f 9d56 cb3f
1.8069128 1.5885807
